output/2023-04-09_21-21-02/weight/33_test_model.pkl (torch, 41227 bytes, 7 tensors)

weight f4 [64, 6]
000000 a8 c5 5b 3d 1d 45 39 be f3 9b 85 be 06 e5 89 3e
       0.053655297 -0.18092771 -0.26095542 0.26932544
000010 60 da 40 bd 78 e0 2f 3e 88 69 4a 3e dc 7d 08 3e
       -0.04708326 0.17175472 0.1976682 0.13329262
000020 ca 18 90 be c2 6a ce 3e 1a 1e 30 be b8 8a 68 bd
       -0.28143913 0.40315825 -0.17198983 -0.056772918
000030 a0 a1 60 bc 48 e4 ed 3d b4 19 91 bd 36 d9 6a be
       -0.013710409 0.11615807 -0.070849806 -0.22934422
000040 87 48 89 be d8 33 40 3e a8 25 b1 3e a2 1d 0a be
       -0.26813146 0.18769777 0.34599042 -0.13487867
000050 ec 0f 52 3e 98 58 a1 bd ee d2 b7 be 09 1f 81 be
       0.20513886 -0.07878226 -0.35903114 -0.2521899
000060 da 17 a4 be b0 29 e2 bc 40 cf 4f 3e 51 5e 4a be
       -0.32049447 -0.027607769 0.20293903 -0.19762541
000070 3a b0 9c be b4 b3 88 3d 81 36 8a be b0 fe b2 3c
       -0.306032 0.06674901 -0.26994708 0.02184996
000080 00 b9 45 3b 50 19 fd 3c d4 4e 0a 3e 47 8d 9a be
       0.0030170083 0.030895859 0.13506633 -0.3018591
000090 46 2f 67 be 91 94 86 be 38 08 71 3e f0 50 26 bd
       -0.22576627 -0.26285222 0.23538291 -0.04060453
0000a0 3e 44 ae 3e e8 5f fa bd d8 ce 8c bd 1c 05 65 3e
       0.3403644 -0.12225324 -0.0687539 0.2236523
0000b0 08 d4 b5 3d ba ff b6 3e 48 20 6c 3e c5 87 5f be
       0.088783324 0.3574198 0.2305919 -0.21829136
0000c0 76 a2 b5 3e 70 bb 20 be 00 d8 71 b9 c8 77 40 3d
       0.3547551 -0.15696502 -0.00023064017 0.046989232
0000d0 fa f3 be be 9c 9f 09 be 58 13 55 3e 89 a8 92 be
       -0.37295514 -0.13439792 0.2080816 -0.28644207
0000e0 1c ec 26 3e 10 4a 38 3e b2 e3 88 be d0 09 62 3e
       0.16301006 0.17997003 -0.26736218 0.22074056
0000f0 7c b3 bc bd bc 75 b4 3e 6d aa cf be c2 97 98 3e
       -0.092139214 0.35246074 -0.40559712 0.29803282
000100 a5 fd 94 be d8 d7 84 bd 10 22 8a be 70 c5 ba 3e
       -0.29099765 -0.064864814 -0.26979113 0.36478758
000110 fc 6f 0b 3e 98 35 c6 bd e0 1b 99 3d 00 99 4e 3c
       0.13616937 -0.09678191 0.0747602 0.01260972
000120 b8 14 6a bd 0f 74 ca be ee 86 2c be d8 7d 73 3d
       -0.057148665 -0.3954167 -0.16848347 0.059446186
000130 37 1e 3e be 7a 3b 56 be 44 d1 85 3e 02 85 cf be
       -0.18566214 -0.20921126 0.2613622 -0.40531164
000140 60 11 4a bc c4 d7 51 3e 84 c5 a3 bd 64 0f fe bd
       -0.012333244 0.20492464 -0.079966575 -0.12405279
000150 80 44 3b bb ea e4 ac 3e b4 6f 41 be 6c bb 0e be
       -0.0028574765 0.33768398 -0.18890268 -0.13938683
000160 a8 e1 53 3e 90 e0 47 bd 08 99 38 3e 2d b9 83 be
       0.2069155 -0.048798144 0.18027127 -0.25727215
000170 50 3e d7 3c 44 6e 0e be 56 c8 a0 3e 14 0f 2a 3e
       0.02627483 -0.1390925 0.31402844 0.16607314
000180 08 d4 09 bd 8e ea 96 be d4 6e 18 3e 18 79 d6 3d
       -0.033649474 -0.29475826 0.14886028 0.104723155
000190 5c 86 96 3d b0 a1 23 bd d4 2b 92 be 70 b6 8a be
       0.07349846 -0.03994912 -0.28549063 -0.27092314
0001a0 40 35 c3 3d 20 fd a3 bd 90 96 dc bd 28 5a 9f be
       0.09531641 -0.08007264 -0.10770905 -0.3112347
0001b0 16 e6 a4 be b4 20 06 3e d4 d7 af 3e 39 d4 41 be
       -0.32206792 0.13098413 0.3434435 -0.18928613
0001c0 29 35 95 be 77 18 34 be e3 76 b8 be 7c e5 f6 bd
       -0.2914212 -0.17587458 -0.36028203 -0.120554894
0001d0 38 d3 51 3e 94 dd 5b be 60 4d 71 3d 00 b9 08 bd
       0.2049073 -0.21471244 0.05891168 -0.033379555
0001e0 38 cc 0c be f4 03 60 be f8 ea b6 bd b8 70 88 3e
       -0.13749778 -0.21876508 -0.089315355 0.26648498
0001f0 80 0d c2 3c 00 0a 8d 3b 7c 0a c7 3e 0c 67 a0 bd
       0.023688078 0.0043041706 0.38875186 -0.07832155
000200 52 af c7 3e 60 26 00 bd fc e2 88 3d dc e0 8e 3d
       0.39000946 -0.031286597 0.06683919 0.06976482
000210 28 47 54 3d ee 7b ae 3e 40 1a ac 3b 82 21 96 3e
       0.051825672 0.34078926 0.0052521527 0.2932244
000220 24 ea ba 3e b4 93 c9 be 6d 47 5d be b8 76 06 3d
       0.3650676 -0.393705 -0.21609278 0.032828063
000230 5c 28 c3 bd c2 ef 3f be 17 e2 93 be c0 2e e4 3d
       -0.09529182 -0.18743804 -0.2888343 0.11141729
000240 43 b6 75 be d8 55 7c be 70 58 ec bc 48 6b 75 bd
       -0.23995309 -0.24642122 -0.028850764 -0.059916764
000250 97 48 a0 be d8 fa 3e 3d 82 e0 00 be 90 10 2c bd
       -0.31305382 0.046625942 -0.12585643 -0.042007983
000260 90 ab db bc f6 f3 0f be 24 0e a5 be fa 1f 1f be
       -0.026815206 -0.14057907 -0.3223735 -0.15539542
000270 ae df 09 be 80 52 49 3d 7e 4f 05 be c9 6c 3b be
       -0.13464233 0.049150944 -0.13018605 -0.18303217
000280 07 8d ca be dc 3c 1a 3e 3c 17 98 bd 90 c1 0d 3d
       -0.3956072 0.15062279 -0.074263066 0.034608424
000290 dd ba 92 be bc 10 8a bd ac fa 9b 3d bc 07 2e 3e
       -0.2865819 -0.06741473 0.07616171 0.16995138
0002a0 34 7d b5 be 5c ff 5d 3e 00 4a ad bc 30 60 79 be
       -0.35447085 0.21679443 -0.02115345 -0.24353099
0002b0 c8 3f ff 3d 30 8c 32 3d 21 7a 25 be ee 83 5f be
       0.12463337 0.043590724 -0.1615987 -0.21827671
0002c0 2c a7 23 3e 48 d2 ba bd a8 ad d0 3e 88 bf c0 3d
       0.1598174 -0.09122139 0.4075749 0.09411532
0002d0 2c 8b 8d 3e 9c 19 38 3e 10 29 da bd b4 0f 29 be
       0.27645242 0.17978519 -0.10652363 -0.16509897
0002e0 00 fb 54 3c 21 2e bf be 04 a2 f7 bd 74 d2 1a be
       0.012999296 -0.3733988 -0.12091449 -0.15119344
0002f0 bb a8 77 be d8 d4 83 bd ac 47 c9 3e 3a 2e 0f be
       -0.2418546 -0.06437081 0.39312494 -0.13982478
000300 fc 86 f6 bd 30 83 f1 3d 43 d2 5a be f0 99 e4 3d
       -0.12037465 0.117926 -0.21369271 0.11162174
000310 78 3e 1a 3e 1b b3 ae be 40 1f 51 bc 1c 32 9d bd
       0.15062892 -0.34121022 -0.012763798 -0.07675573
000320 b8 dd 5b 3d 65 22 3b be 47 28 84 be 18 f7 69 bd
       0.053678244 -0.18274839 -0.2581198 -0.057120413
000330 66 54 9f 3e 92 dd c6 3e 09 83 76 be 80 85 97 be
       0.31119078 0.3884092 -0.24073423 -0.2959404
000340 2c 77 73 3e 44 27 f5 bd 16 b3 b6 3e 5c 02 ac be
       0.23775929 -0.1197038 0.35683507 -0.3359555
000350 34 a4 96 bd c8 66 e4 bd 68 d0 9c be a0 26 c6 3d
       -0.07355538 -0.111524165 -0.3062775 0.09675336
000360 88 0b d7 3d 60 2b a2 bd 00 d6 71 3b 38 32 bd bd
       0.10500246 -0.079184294 0.0036901236 -0.09238094
000370 a8 cc 32 3e 6d cf 73 be 65 94 81 be 70 f8 c2 3d
       0.17460883 -0.23809595 -0.2530853 0.09520042
000380 c4 e0 3f 3e 5c 1f 85 be c6 49 c7 3e 78 5b 73 be
       0.18738085 -0.26000488 0.38923472 -0.23765361
000390 10 6a 9f 3d a2 6b 98 3e a8 ab 62 bd 84 24 af be
       0.07783902 0.29769617 -0.055339485 -0.34207547
0003a0 7c 7f 00 3e b4 28 45 3e cc d2 b3 3e 9d 19 9d be
       0.12548631 0.19253808 0.35121763 -0.30683604
0003b0 8a 67 94 3e 00 e0 8b b9 b4 7c c0 3e b0 a4 12 be
       0.28985244 -0.0002667904 0.3759514 -0.14320636
0003c0 ca ce 87 be 75 c5 cd be 80 28 13 3c 7c 9d 06 3e
       -0.26524955 -0.4018971 0.008981824 0.13146013
0003d0 d0 20 1f 3d c8 a3 d0 be 10 57 03 bd c2 f6 c7 be
       0.03884965 -0.40749955 -0.03206545 -0.3905545
0003e0 90 80 c8 be b4 cd b9 3d f0 27 89 bd 28 4e 1b be
       -0.39160585 0.09072438 -0.066970706 -0.15166533
0003f0 73 1e b5 be 68 84 94 be ef c5 8c be f8 a2 cb bd
       -0.35374793 -0.29007268 -0.2749476 -0.09943193

bias f4 [64]
000000 8c 5d 43 3e 78 7d 26 3d 9c 1d 8e be f0 d4 0d bd
       0.19078654 0.040647 -0.27756965 -0.0346269
000010 a0 07 4f 3e 0c 20 ec bd 2e 81 c1 3e 40 85 a5 3e
       0.20217752 -0.1152955 0.3779387 0.32328224
000020 b0 af 7d 3d c0 20 aa 3c 63 f2 b1 be d4 cd 12 3e
       0.061935127 0.02076757 -0.3475524 0.1433633
000030 28 7a 8f bd c0 0b ec bb 2c b1 43 be d8 6e 53 3d
       -0.07005721 -0.007203549 -0.19110554 0.05161938
000040 2c 8a b4 3e 7f 33 90 be ce b8 07 be af 30 b4 be
       0.35261667 -0.28164288 -0.13254091 -0.35193393
000050 aa 65 ce be 30 fb 9b 3e 04 48 95 be 60 3f f7 3d
       -0.4031194 0.30465078 -0.29156506 0.12072635
000060 c7 f5 a9 be 60 f4 bb 3c 78 fa bb bd 9e b0 90 be
       -0.33195326 0.022943676 -0.091786325 -0.28259748
000070 d4 3e b0 3e 38 ff 15 3e 78 0a 8d 3e 80 20 fd 3d
       0.34422934 0.1464814 0.2754705 0.123597145
000080 bb 93 91 be 80 27 90 bc 20 ae d5 3d 18 8c 19 3d
       -0.28433022 -0.01759696 0.10433602 0.03748712
000090 88 e4 13 3e 88 fb 07 3e 70 71 ac be a8 e3 48 bd
       0.14442647 0.13279545 -0.33680296 -0.049045235
0000a0 a4 2a b5 be ea ab 88 be a0 41 a7 bd 92 c8 88 3e
       -0.35384095 -0.2669366 -0.08166814 0.26715523
0000b0 88 3c ae 3e ec 03 d6 bd 5c 50 6d 3e a2 7f 92 be
       0.34030557 -0.10449967 0.23175186 -0.28613
0000c0 6c cb 79 3e cc 6b 5f 3e 48 d6 36 3d 0b 06 2f be
       0.24394006 0.21818465 0.04463795 -0.17092149
0000d0 f4 c6 84 3d 96 19 93 3e 77 97 35 be 78 da 0e 3e
       0.0648326 0.28730458 -0.1773356 0.13950527
0000e0 4c 44 2b 3e d8 7b e2 3d 7a 7b 8c 3e 80 61 ea bd
       0.16725272 0.110587776 0.27437955 -0.11444378
0000f0 04 ee 17 3e e4 01 a6 be de c4 92 3e 0a 32 9b 3e
       0.1483689 -0.32423317 0.28665823 0.30311614

weight f4 [128, 64]
000000 40 65 9b 3c 58 10 69 3d b2 46 b3 3d a0 32 51 3d
       0.018969178 0.056900352 0.087537184 0.05107367
000010 90 fb 33 bd aa b1 db bd 60 d2 a3 3d c8 13 f2 bd
       -0.04394108 -0.10727246 0.0799911 -0.11820179
000020 c8 dd 5f bd 60 32 dd bb ec 0c 55 3d b0 b9 c3 bc
       -0.054654866 -0.00675039 0.052014276 -0.023892254
000030 a0 bb b5 bc e4 5a da 3d d2 b4 8e 3d 00 34 b0 bb
       -0.022184193 0.10661867 0.069680825 -0.0053772926
000040 b4 09 a2 bd b2 1a f2 bd 3c f1 35 bd b0 a0 09 bc
       -0.07912007 -0.11821498 -0.044419512 -0.008400127
000050 2c 47 4e 3d 04 fe a5 3d d0 b3 08 bd ca 11 e8 3d
       0.050360844 0.0810509 -0.033374608 0.11331518
000060 98 58 b0 bd cc ce f4 bd 06 f1 cb 3d c0 52 39 bb
       -0.08610648 -0.11953506 0.09958081 -0.0028278083
000070 62 a3 a4 bd f0 b4 71 3c 8a d0 ca 3d 86 01 f3 3d
       -0.08038975 0.0147526115 0.09903057 0.11865525
000080 84 eb be 3d 16 93 87 3d 18 54 a4 bc f0 85 47 3c
       0.09322265 0.06619851 -0.02005963 0.012177929
000090 30 60 25 bc 72 21 d6 bd 1e e6 f9 3d c4 ca 9f 3d
       -0.010093734 -0.10455598 0.122020945 0.07802346
0000a0 0c 1d d4 bd 52 95 eb bd 2a 29 a6 bd b0 c2 e3 3d
       -0.10357103 -0.1150309 -0.0811332 0.11121118
0000b0 60 ba 09 bd 10 32 db 3c e4 cb 89 3d fc 8a 0d 3d
       -0.033625007 0.02675727 0.06728342 0.034556374
0000c0 12 16 b9 3d c2 2c ba bd 90 6d ed bd 70 19 af 3d
       0.09037413 -0.09090568 -0.11593163 0.08549774
0000d0 34 dc 89 3d e0 41 a7 3d c0 cd 98 3c 24 df d1 3d
       0.067314535 0.081668615 0.018652797 0.10247639
0000e0 30 a9 aa bd b0 70 cf 3d 40 d4 7b bb 04 20 21 3d
       -0.08333051 0.10128915 -0.0038426071 0.039337173
0000f0 00 b3 13 bb 7a ce e4 3d a8 c1 b8 bd b8 40 90 3c
       -0.0022537112 0.11172195 -0.09021312 0.017608985
000100 60 67 35 bc 58 b2 fa 3d 92 77 f7 3d 2e eb c3 3d
       -0.01107201 0.122410476 0.12083353 0.09566341
000110 ac 1a 63 bd 38 75 63 3d 14 cb 7b bd 62 1e f3 3d
       -0.05544536 0.05553171 -0.061472967 0.118710294
000120 60 a3 91 bd 54 97 3e 3d a4 01 2c bd 58 52 bb 3c
       -0.071112394 0.046531036 -0.041993752 0.022866413
000130 c4 4a bf bd 00 88 8e 38 58 4b 18 3d 9c af 05 3d
       -0.09340432 6.7964196e-05 0.03718123 0.032638177
000140 b6 95 ca 3d 80 fa fa 3c 30 e9 d3 3c ee f7 94 3d
       0.09891836 0.030637026 0.025868028 0.07273851
000150 50 16 af 3c 80 4f b3 3c e4 ca e5 bd 80 c4 de ba
       0.021372944 0.021888494 -0.11220339 -0.0016995817
000160 94 af da 3d 3a 61 c3 bd ca 34 8d bd 68 88 8b bc
       0.1067802 -0.09540029 -0.06894834 -0.017032817
000170 ee 23 c3 bd 9e 8f b5 3d 88 6a 8b bc 94 92 f0 3d
       -0.095283374 0.088652834 -0.017018571 0.117467076
000180 d0 39 05 bc 84 42 fd 3d c4 32 94 3d c0 73 32 3c
       -0.008131459 0.123662025 0.07236245 0.010891855
000190 80 59 ca ba da 49 8a bd 3e b5 9f bd 4c 46 c6 bd
       -0.001543805 -0.06752367 -0.07798241 -0.09681377
0001a0 14 93 ee bd 9a 0b a6 bd 08 1f d8 bc ee af 8a 3d
       -0.11649147 -0.081076816 -0.026381984 0.06771837
0001b0 14 50 f5 3d 60 41 54 3d 24 09 f3 3d c0 ce b4 bd
       0.11978164 0.05182016 0.11866978 -0.08828497
0001c0 58 a5 0c 3d 28 ed 99 3d f4 a2 0c bd c2 46 ab 3d
       0.03433737 0.07515937 -0.03433509 0.08363105
0001d0 18 49 a2 bd b8 f2 e3 3d a0 13 f0 bc f8 b2 bd 3c
       -0.07924098 0.11130279 -0.029306233 0.023156628
0001e0 e8 b5 df bd 10 90 82 bd dc 5f 5a 3d 30 81 64 bc
       -0.10923368 -0.06375134 0.053314075 -0.013946816
0001f0 d0 70 bc 3d c6 54 80 3d 96 9d b4 bd ca 0f d1 bd
       0.09201205 0.06266169 -0.0881912 -0.1020809
000200 58 0d d9 bc 94 5d dc bd 54 9b 6e bd ae a5 8e bd
       -0.02649562 -0.10760036 -0.0582536 -0.06965195
000210 f8 0c 82 3c 30 f4 5d 3d b4 44 41 bd 50 f8 1e 3c
       0.015875325 0.054187953 -0.04718466 0.009702757
000220 10 5c c1 3d 80 fe 51 bd fa c2 91 bd 64 7a 46 bd
       0.09441388 -0.0512681 -0.07117267 -0.048456565
000230 74 9c 5b bd b4 ea 88 3d 66 14 d2 bd c2 a5 9b 3d
       -0.053616002 0.06685391 -0.10257797 0.07599975
000240 06 4c 96 3d c0 0f c1 bd 70 9c 72 3d a8 4f c0 3c
       0.07338719 -0.09426832 0.05923122 0.023475483
000250 90 f5 c2 bd 18 6b 9f bd ca a7 80 3d a8 08 0f 3d
       -0.095194936 -0.077840984 0.06282003 0.034920365
000260 b0 f8 5b 3d 86 a6 8a bd 18 f9 d9 3c fa 13 d8 bd
       0.053703964 -0.06770043 0.026608035 -0.10550685
000270 8c 63 d2 bd e0 5d b6 bc a4 fe c7 bd 0c 6b 86 3d
       -0.10272893 -0.02226156 -0.09765366 0.06563386
000280 c2 72 81 bd a4 01 e1 3d 00 97 3b 3c e0 b4 88 3d
       -0.063207164 0.10986641 0.011449575 0.06675124
000290 28 cf 98 bd 1e dc fd bd d4 71 6a 3d c6 ff 8b 3d
       -0.07461387 -0.123955 0.05723746 0.06835894
0002a0 a4 aa c2 bd 68 91 e5 3c 00 dc aa 3c ee d3 e4 bd
       -0.09505203 0.028023437 0.020856857 -0.11173235
0002b0 cc 72 4c bd 48 a7 f5 bc b8 e6 f3 bd b6 e4 e6 3d
       -0.049914166 -0.029986992 -0.119092405 0.11274092
0002c0 d0 c5 72 bc 50 2a 6a bd 20 8a 78 3c fe 62 c7 bd
       -0.01481767 -0.05716926 0.01516965 -0.09735678
0002d0 b0 e8 b2 bd 1c b4 90 3d c6 42 8b 3d 28 f1 e7 3d
       -0.08735788 0.07065603 0.067998454 0.11325294
0002e0 80 69 c9 3a 5e 76 f0 bd 9c 5c 5a bd 4a f8 da 3d
       0.0015366524 -0.11741327 -0.053310975 0.10691889
0002f0 54 5c 62 3d 64 ef 51 3d a4 cd 43 3d 70 8a d9 bc
       0.055263832 0.05125369 0.047803536 -0.02655527
000300 38 75 cc bc 7c 1b ec 3d e0 9e c4 bc 34 83 a2 bd
       -0.024958238 0.1152868 -0.024001539 -0.07935181
000310 40 4d d9 bb 52 3e c5 3d 24 0e 3c bd a8 82 ba bc
       -0.0066315234 0.09631027 -0.045911923 -0.02276738
000320 0c 65 1a 3d b6 68 e1 bd fc ab 1c 3d 14 6e c9 bd
       0.037694022 -0.110063 0.038249955 -0.09835449
000330 10 b1 6d 3d 2e 11 eb 3d 28 e7 55 3d a0 74 09 3c
       0.058030188 0.11477886 0.0522224 0.008389622
000340 fc 51 5f 3d 88 0a 43 bd 2c 5c fa bd 00 2c fe 3d
       0.054521546 -0.047617465 -0.12224612 0.12410736
000350 98 1a e7 bc 92 1c dd 3d 18 95 13 3d 98 9c dc 3d
       -0.028210923 0.10796465 0.03603086 0.107720554
000360 18 f2 e4 3c a4 bd 5c bd 70 80 24 bc 50 7e b0 bc
       0.02794747 -0.053891793 -0.0100403875 -0.021544605
000370 28 52 d0 3d 58 be 63 3d de ba ff 3d 12 33 ba bd
       0.1017192 0.055601448 0.12486814 -0.09091772
000380 1c 9b 35 bd 68 89 39 3d 9a 2f a1 bd 74 5c 8b 3d
       -0.044337377 0.045297056 -0.078704074 0.068047434
000390 48 0d 0f 3d e0 02 3d 3c 94 5d 5d bd 30 2c 6d 3c
       0.034924775 0.01153633 -0.05404432 0.014475867
0003a0 04 73 c8 3d 8e e9 ea bd 0e de 8a bd 24 84 c1 3d
       0.097875625 -0.11470328 -0.06780635 0.09449032
0003b0 80 d9 ce ba e8 71 8d 3c b0 5e c0 3d 52 ef e7 3d
       -0.0015781373 0.017266229 0.0939306 0.113249436
0003c0 58 a2 1a bd de 69 d1 bd 86 c2 d8 bd a0 b3 9b bc
       -0.03775248 -0.10225271 -0.105839774 -0.01900655
0003d0 2a 47 fc bd 7c 94 74 bd ce 67 c8 3d 5e 0b 82 3d
       -0.12318261 -0.05971192 0.09785424 0.06349824
0003e0 74 e2 d7 3d ae dc ab 3d 88 6d 8f bd f8 d3 d6 bc
       0.105412394 0.08391701 -0.07003313 -0.026224121
0003f0 9c 43 42 3d a8 f5 c6 3c 82 58 8b bd ac ca f5 bd
       0.04742776 0.02428706 -0.06803991 -0.12001547

bias f4 [128]
000000 32 f8 8a bd f2 fa c3 3d 36 c0 fb bd 4c 1d c8 bd
       -0.06785621 0.095693484 -0.12292521 -0.09771213
000010 20 5a e5 bb 22 72 e8 bd 40 92 f7 bc 04 81 1f bd
       -0.006999269 -0.11349894 -0.030221105 -0.0389414
000020 08 4e 41 bd 00 37 09 3a a8 6f d5 bd fc ab 85 bd
       -0.047193557 0.0005234331 -0.10421687 -0.06526944
000030 58 38 88 bc 02 39 d1 bd 10 1e c8 3d 9a 44 e9 3d
       -0.01662843 -0.102159515 0.09771359 0.11390038
000040 bc 5e 37 bd f2 2a b4 bd b0 a4 31 3c c4 1d 7c 3d
       -0.04476808 -0.08797254 0.010842487 0.061551824
000050 18 5b 98 bd 0a ce 8c 3d 54 b7 9f bd 3a 65 ab 3d
       -0.0743925 0.06875236 -0.07798639 0.08368917
000060 b8 77 ee 3c cc 83 2d bd 9e 02 f5 3d d0 d7 0b bd
       0.02910982 -0.04236202 0.1196339 -0.03414136
000070 f2 3b c5 bd 56 d0 db 3d f0 e8 73 bd 3c b5 a5 3d
       -0.09630574 0.10733096 -0.05954832 0.08091208
000080 98 b1 f7 bc d0 a2 a5 3d 18 48 c2 bc cc 29 81 3d
       -0.03023605 0.08087695 -0.023716018 0.063068
000090 a2 3c e1 bd f8 6f 97 3c 60 20 73 bd 00 d7 79 bb
       -0.10997893 0.018486008 -0.059357047 -0.0038122535
0000a0 80 24 8e ba 9e 10 d3 bd 52 d2 9f 3d a4 56 60 3d
       -0.0010844618 -0.10305904 0.07803787 0.054770127
0000b0 90 a3 7a bc 52 c8 d7 3d 06 6e ac 3d 80 bd fe bc
       -0.015297785 0.10536255 0.08419423 -0.03109622
0000c0 f8 2e fd bd 80 93 bb bb e2 f5 bd 3d 60 45 c5 3c
       -0.12362474 -0.0057243705 0.09275414 0.024080932
0000d0 e4 55 53 bd b6 cb ad 3d 90 60 d6 3c 42 77 92 bd
       -0.051595584 0.084861204 0.026169091 -0.07151653
0000e0 cc 6f d3 bd 6e 5e ce 3d 56 7e d8 bd 38 df 8c 3d
       -0.10324058 0.10076605 -0.10570972 0.06878513
0000f0 f2 d2 81 3d 0e db ea 3d e0 b7 44 3d bc 4d 8f 3d
       0.06339063 0.114675626 0.04802692 0.069972485
000100 20 d8 fc 3c a0 e8 d7 bc 78 e8 b7 bd 50 b7 40 3c
       0.030864775 -0.026356041 -0.08979887 0.011762455
000110 08 cf a6 3c 48 8f 05 3d 10 73 42 3c e4 b8 04 3d
       0.020362392 0.032607347 0.011868253 0.032402888
000120 de 79 e2 3d d2 52 8a 3d 20 4e 89 3c 6c 7d 3c 3d
       0.110584006 0.06754078 0.016760886 0.04601805
000130 e4 cc 2f 3d c0 66 fc 3b 94 9d 03 3d 30 13 94 3c
       0.04292001 0.0077026784 0.0321327 0.018075556
000140 cc 65 fc 3d 44 09 d5 bd 68 25 f7 3c 5a f6 96 3d
       0.12324104 -0.10402158 0.030169204 0.073712066
000150 24 21 47 3d e2 4a ea 3d d0 b4 b5 3c dc 6e 8e bd
       0.04861559 0.11440064 0.022180945 -0.069547385
000160 98 53 da bc a8 cd d4 3d 3c 1d 78 3d c8 46 a9 bc
       -0.026651189 0.10390788 0.060574755 -0.020663634
000170 50 97 d0 3c 24 a1 df 3d ea 63 fd 3d 2a 92 c1 3d
       0.025462776 0.10919407 0.12372573 0.09451707
000180 92 1d 9f 3d 56 06 e8 bd a6 5e e4 bd 4c 8f e8 bd
       0.07769312 -0.113293335 -0.11150865 -0.11355457
000190 e0 4a 63 3c 20 62 1a bd 78 69 05 bd 0c 61 86 3d
       0.013872832 -0.037691236 -0.032571286 0.06561479
0001a0 0e 3e 9b bd a8 fc b0 bd 0e 19 9b 3d 60 e8 4c 3c
       -0.07580195 -0.0864194 0.07573138 0.012506574
0001b0 ac ff 60 bd a0 99 79 3c 90 5a 62 bd f0 9c 44 3c
       -0.054931328 0.015234381 -0.05526215 0.012000307
0001c0 5a 09 cd bd 80 c9 9d bd a8 9c b4 bd 24 b4 f9 bd
       -0.10011549 -0.07704449 -0.08818942 -0.12192562
0001d0 28 77 08 3d d0 05 b6 bc 40 36 21 3b e4 e2 f2 3d
       0.03331676 -0.022219568 0.0024598986 0.11859682
0001e0 e0 15 4d 3d 7e 84 93 bd d0 cb 80 3c 18 4a b9 3d
       0.05006969 -0.07203005 0.015722185 0.090473354
0001f0 ae db cf 3d d2 d9 cb bd b0 6f eb bc a0 3d 97 bd
       0.101493225 -0.09953655 -0.02873978 -0.07384801

weight f4 [4, 128]
000000 54 0a 8d bd 09 25 ab 3d af 40 91 3d 80 51 7f 3a
       -0.068867356 0.08356673 0.070924155 0.00097396225
000010 a2 d8 00 3d a1 82 06 bd 2a 9a 1a 3d 32 cd 3d 3d
       0.031456597 -0.03283942 0.03774468 0.046338268
000020 21 af 80 3d 31 17 99 3d 56 eb 73 3d c0 70 f3 ba
       0.06283403 0.074751265 0.059550606 -0.0018573031
000030 0c 3d c2 3c b6 54 8f bd d5 09 5d bd 96 f7 8f bd
       0.02371075 -0.06998579 -0.053964455 -0.07029645
000040 0b 92 95 bd 50 6f f3 3c b1 43 85 3d bd d3 85 3d
       -0.07303246 0.029716164 0.06507052 0.065345265
000050 ff cb aa bd 8f 9f 93 bd e0 4d a6 bd 54 4b ae bc
       -0.083396904 -0.07208168 -0.08120322 -0.021276154
000060 48 d0 93 3c e2 24 3d 3d 3a 71 d6 bc 64 ad b1 bc
       0.018043652 0.046177752 -0.026177038 -0.021689124
000070 48 fd 01 3c 12 2c 28 3d 50 9e f6 3b 04 f2 0d 3d
       0.007933922 0.041057654 0.0075261965 0.034654632
000080 d4 4c 95 3c 0c 5b 3a bd 52 99 7e 3d 3d 55 09 bd
       0.018225111 -0.045496985 0.062157936 -0.033528555
000090 ae 19 3b bd 7a 29 1f 3d 10 1b a5 bd d8 fa eb 3c
       -0.045678787 0.038857915 -0.080618024 0.028806135
0000a0 e9 ea 9b 3d 37 f4 aa 3d c6 3b 25 3d 78 03 31 bc
       0.07613165 0.083473615 0.040340208 -0.01080405
0000b0 ae 02 01 bd d6 81 44 3d 0c fd a6 bc 8c da 0e 3d
       -0.031496696 0.047975384 -0.020384334 0.03487639
0000c0 d1 4e 03 bd 40 31 68 3c cb da a2 3d 04 ba ad bd
       -0.032057587 0.014171898 0.07951888 -0.08482745
0000d0 32 b8 7f 3d 1b 75 aa 3d 46 7a 8d bd 73 08 8b 3d
       0.06243152 0.08323117 -0.069080874 0.06788721
0000e0 7b 02 9e 3d 69 96 97 3d c0 34 79 bd 46 b8 1f 3d
       0.07715317 0.07401735 -0.060841322 0.038994096
0000f0 52 93 74 bd fb 56 4d bd ee 9d 2e 3d 32 9c 0e 3d
       -0.059710808 -0.05013178 0.042631082 0.03481693
000100 b8 7d 8c 3c 90 17 aa bd a0 b4 d4 3b e4 00 96 bd
       0.017149791 -0.083052754 0.0064912587 -0.073243886
000110 0f cf 1a bd 54 39 d5 bc 78 b0 1d bc 3d b1 81 bd
       -0.037795123 -0.026028313 -0.009624593 -0.06332634
000120 3a d3 83 bd 62 01 51 3d 00 20 64 38 0d b9 85 bd
       -0.06436773 0.05102671 5.438924e-05 -0.06529436
000130 69 6a b3 3d e6 58 59 3d 63 1c 86 3d 24 61 8f 3c
       0.087605305 0.053063296 0.06548383 0.017502375
000140 e6 da 06 bd b9 e2 ab bd 75 17 b4 bd 7d af 95 3d
       -0.0329236 -0.08392853 -0.087935366 0.07308862
000150 f0 04 27 bc 83 f0 79 bd 00 c8 02 3d fb 8c 8c 3d
       -0.010194048 -0.061020385 0.031929016 0.068628274
000160 4d 0d 3e bd e0 d7 8c bd fa b7 22 3d 54 a8 d3 3c
       -0.046399403 -0.068771124 0.039726235 0.025837101
000170 48 41 13 bc ff 16 71 bd 00 cd d5 bb b9 b6 ad bd
       -0.008987732 -0.05885982 -0.006524682 -0.08482117
000180 a8 f5 13 bd 49 1e 37 bd d8 f9 71 bd b4 01 26 bd
       -0.036122948 -0.044706617 -0.05907616 -0.040528968
000190 44 b6 85 bd b6 39 1e 3d fb 5e 82 3d b0 3f ee 3b
       -0.06528905 0.038629256 0.06365772 0.0072707757
0001a0 1c ab 6b bd 00 be 7d 39 de 2a 8d bd a3 d1 ac bd
       -0.05753623 0.0002419874 -0.06892942 -0.084384225
0001b0 e8 51 52 bc a4 8d 95 bd b0 20 f0 bb 78 46 39 bc
       -0.012836911 -0.073024064 -0.0073281154 -0.011308305
0001c0 2c de 82 3c 00 9a 36 3c 02 bb a6 bd 42 d5 1e 3d
       0.01597508 0.011145115 -0.08141138 0.038777597
0001d0 f0 58 65 bc 1a f3 ff bc 38 e6 dd 3c c3 62 8c bd
       -0.013998255 -0.03124385 0.027087316 -0.06854775
0001e0 fa c2 6a 3d 29 a1 01 bd a9 bd 15 bd 3d 28 b0 bd
       0.05731485 -0.031647835 -0.036557827 -0.08601425
0001f0 e8 2e 73 bd 4a aa 68 3d 2f bc 8a bd c7 ea 9e 3d
       -0.059370905 0.056803025 -0.067741744 0.07759624
000200 40 6e 27 3c 60 d8 d6 3c 5a e8 4a bd 18 e7 0d 3d
       0.010219157 0.026226223 -0.049537994 0.034644216
000210 70 56 77 bc 72 47 25 bd 6c 5a ab bd d0 5a c7 bb
       -0.015096292 -0.04035134 -0.08366856 -0.0060838237
000220 c2 6b d4 bc da b4 2a 3d e0 47 6d bc c6 3d 17 3d
       -0.02593029 0.04167638 -0.014482468 0.036924146
000230 3f a5 a1 bd ee 5d 51 3d 88 bb a4 bc 25 74 a6 3d
       -0.07892846 0.05111497 -0.020108953 0.081276216
000240 78 c6 42 3c 7c 29 99 bd 00 6a 6d 3a 30 71 4d bc
       0.011888139 -0.07478616 0.0009056628 -0.012539193
000250 3c e8 01 3d a6 33 7d 3d cc 26 9a 3c 05 3f a8 3d
       0.031715617 0.061816834 0.018817328 0.08215145
000260 d9 4b 8d 3d 75 95 88 3d 87 a7 a3 3d 3d 80 98 3d
       0.068992324 0.06669132 0.07990938 0.074463345
000270 b6 81 6a 3d d8 d8 a3 3c da 99 f6 bc a0 0a c7 3c
       0.05725261 0.02000086 -0.030102659 0.024297059
000280 f2 dc 59 bd 70 a3 80 bc 4a 84 8a bd 45 c2 06 bd
       -0.053189225 -0.015702933 -0.067635134 -0.032900114
000290 f9 49 aa bd 00 12 2e 3a 54 64 d4 3c 92 0f 4f 3d
       -0.083148904 0.00066402555 0.025926746 0.05055196
0002a0 80 61 7d ba c0 9c d7 3a 80 e6 8e bc c6 e6 99 bd
       -0.0009665713 0.0016449913 -0.017443895 -0.0751472
0002b0 30 5f 3d bc 99 6c 52 bd d2 59 39 3d 0c 7c 12 3d
       -0.011558339 -0.051373098 0.045251675 0.03576283
0002c0 40 8d 74 3c 7e 2d 20 3d 5a ee 54 bd 4c 9c 9f bc
       0.014926255 0.039105885 -0.051985122 -0.019483708
0002d0 ba 2d a9 bd 63 fa 30 bd d1 c6 6e bd e2 f7 b3 bd
       -0.08260675 -0.043207537 -0.058295075 -0.08787514
0002e0 ea ca 77 3d b9 9d 87 bd 6d 4a 8b 3d 64 ff a1 3c
       0.06049625 -0.0662188 0.06801305 0.0197751
0002f0 74 6f f6 3c 84 e0 2d bd 02 ef 2f 3d 5c 2d 47 bd
       0.030082442 -0.042450443 0.042952545 -0.048627242
000300 dd 60 76 bd a6 1a 01 3d 55 67 92 3d 90 57 b2 bd
       -0.06015097 0.031519555 0.07148615 -0.087081075
000310 60 1f 94 3b f2 5a 42 3d 45 67 b2 bd 30 81 af bc
       0.0045203418 0.047450013 -0.08711103 -0.021423906
000320 90 68 2b 3c f8 92 69 bc b6 bb 3e 3d 20 b9 40 bb
       0.010461941 -0.0142562315 0.046565734 -0.0029407218
000330 09 57 a4 3d ed 88 b0 3d 36 cf 56 3d 54 c4 9a bd
       0.08024413 0.086198665 0.052443705 -0.07556978
000340 28 a6 d5 3c e2 e2 f1 bc 3c 04 a6 bd b8 bf 74 3c
       0.026080206 -0.029527131 -0.081062764 0.014938287
000350 43 8e a0 3d 92 f2 2f bd 34 b8 6b bd 0f 51 9f 3d
       0.07839634 -0.042955942 -0.057548717 0.077791326
000360 bc 90 e3 bc aa 7a aa bd bb 3b 97 bd 9b 50 9b 3d
       -0.027778976 -0.083241776 -0.073844396 0.07583734
000370 cd 11 b2 3d e4 3d f0 3c c1 01 9e 3d 96 f1 2a 3d
       0.086948015 0.029326387 0.07715178 0.0417343
000380 20 93 3a bb 14 6e c9 3c 80 40 a8 bb 79 19 4d bd
       -0.002846904 0.024588622 -0.005134642 -0.05007312
000390 d2 d0 3b bd 46 b7 6c bd bb e6 8f 3d 3f ec 84 3d
       -0.045853443 -0.05779197 0.0702643 0.06490373
0003a0 3a 67 9e bd a8 c5 8c 3c 1d 7f 90 3d c0 f3 df ba
       -0.07734533 0.017184094 0.07055495 -0.0017086193
0003b0 c1 06 82 3d f2 df 6f 3d b3 fb 82 bd 08 3c ab 3c
       0.063489445 0.05856318 -0.06395664 0.020902649
0003c0 b0 c5 fe 3c ee 7f 1a bd 7c 55 bc 3c ae 03 20 3d
       0.031100124 -0.03771966 0.02298998 0.03906601
0003d0 6a 1d 98 bd 39 02 a4 bd 30 de ca 3b 6f 4d 84 3d
       -0.07427485 -0.080082364 0.0061910376 0.06460082
0003e0 17 0e 8e 3d 5b f1 9d 3d a7 c6 b1 3d 6d 0d a2 3d
       0.06936281 0.077120505 0.08680468 0.07912717
0003f0 c0 30 e6 bb dc 19 b3 bd 64 1c 99 bd 3b 7d 77 bd
       -0.0070248544 -0.08745167 -0.07476118 -0.060422163

bias f4 [4]
000000 4b bf 9c 3d 38 bd 11 bd 51 2e 15 bd 28 08 a9 bd
       0.07653674 -0.035580844 -0.036421124 -0.08253509

weight f4 [1, 128]
000000 90 93 a1 bb 20 63 ce 3c 6a 9e 3b bd 80 62 74 3b
       -0.004930921 0.02519375 -0.045805372 0.0037290156
000010 68 46 9c 3c 2e 77 05 bd 24 c8 d0 bc 07 08 5c bd
       0.019076541 -0.03258436 -0.02548606 -0.053718593
000020 7a 16 38 3d 4a dd 1c bd 76 50 1a 3d d0 c9 56 bc
       0.04494331 -0.038296975 0.03767439 -0.013109639
000030 10 74 b2 3b d9 4b 13 bd 0c 42 eb 3c ab a5 a8 bd
       0.0054459646 -0.035961006 0.028718017 -0.08234724
000040 9c 46 ad bd b7 40 9a bd 10 92 ce bc 84 ca 93 bc
       -0.08460733 -0.075318746 -0.025216132 -0.018040903
000050 69 18 a6 3d ae e4 65 3d 7a c5 93 bd 9a 33 33 3d
       0.081101246 0.05612629 -0.072154 0.043750383
000060 b7 ea 83 3d 42 94 1f 3d b2 a0 45 3d d0 5d 4c 3c
       0.06441253 0.03895975 0.048248954 0.0124735385
000070 22 ee 36 bd 6b 94 9f bd 9c f7 aa 3c ff 17 a5 3d
       -0.044660695 -0.0779198 0.020870022 0.080612175
000080 93 43 ad 3d a3 63 88 3d 1a bf 35 3d 6c 7b 42 bd
       0.084601544 0.06659629 0.0443717 -0.047480986
000090 a0 a6 57 3c e0 2d 3b bc e1 1d 5e bd 68 0e 13 3d
       0.013162285 -0.011424512 -0.054227713 0.03590241
0000a0 40 a9 b7 ba 72 4a 03 3d 48 5e 58 bd 8c 2a ac 3c
       -0.0014012232 0.03205342 -0.05282429 0.021016382
0000b0 62 db 54 3d a9 1b 23 bd a4 fb f8 3c f4 0d 96 bc
       0.051967032 -0.0398213 0.03039343 -0.0183172
0000c0 54 d3 c8 bc cb 11 81 3d 78 5e 9c 3c dc 81 95 bc
       -0.024514832 0.06302222 0.019088015 -0.018250398
0000d0 e6 4a 62 3d 80 23 7d 3a ba 69 44 3d 79 c5 ae 3d
       0.05524721 0.0009656474 0.04795239 0.08533759
0000e0 50 ee e1 3c 92 10 5d 3d 06 13 7d bd d7 16 3f bd
       0.027579457 0.05397088 -0.06178572 -0.04665264
0000f0 fe f9 6a bd 57 5c 8f 3d 47 85 ab 3d 87 37 01 bd
       -0.057367317 0.07000034 0.0837503 -0.031547096
000100 60 75 2d bc 81 3b 96 bd 21 b5 96 3d 60 40 39 bc
       -0.010587066 -0.07335568 0.07358766 -0.011306852
000110 3b 87 96 bd 06 c6 26 3d e1 34 67 bd 40 db ca ba
       -0.07350012 0.040716194 -0.056446914 -0.0015476719
000120 34 d0 91 bd c6 c0 4b 3d f1 04 1b bd 30 7e 09 bc
       -0.0711979 0.04974439 -0.03784651 -0.008391902
000130 19 db ad 3d e0 73 f5 3b 24 fa 37 bd 4c d0 96 bd
       0.08489055 0.00749062 -0.044916287 -0.07363948
000140 c0 50 f0 ba a0 78 3b bb 8d 89 a9 3d da 8b 07 bd
       -0.0018334612 -0.0028605834 0.08278189 -0.033092357
000150 78 a1 a0 3c ad 00 0f bd d8 21 97 bd b0 93 0b bc
       0.019608244 -0.034912754 -0.07379502 -0.008519098
000160 58 b4 f2 bc 8d f8 17 bd ac a5 b6 3c c0 8e 94 bd
       -0.02962701 -0.03710227 0.022295795 -0.0725379
000170 30 0b bb bc b8 be 19 3c 60 9c 78 3b 59 4d 51 bd
       -0.022832483 0.00938385 0.0037935004 -0.051099155
000180 e8 5b 64 3c 0a 59 5b 3d 29 ff 94 3d 44 aa c0 3c
       0.013937928 0.05355171 0.072752304 0.023518689
000190 ec 02 91 bc 0a ce 33 3d cf d5 8e 3d 78 5a 9e 3c
       -0.017701589 0.043897666 0.069743745 0.019330248
0001a0 0e 7c 49 3d e6 bb 6b 3d 90 0e 88 bd 40 a4 c8 bb
       0.049190573 0.05755224 -0.066434026 -0.0061230958
0001b0 3d 7f 9e 3d e0 01 da 3b 2a 8c 54 3d 12 75 89 bd
       0.077391125 0.0066530555 0.051891483 -0.067117825
0001c0 52 17 55 bd 68 b8 6e bc b6 cb 34 3d f8 70 1b bc
       -0.052024193 -0.014570333 0.044139586 -0.009487383
0001d0 8c 7c a7 3c 06 5e 22 bd 9c a2 2f bd 00 72 d4 3a
       0.02044513 -0.03964045 -0.042879686 0.0016208291
0001e0 5e be 68 3d 78 0a 96 bd d2 5b 2f 3d 24 b6 8c bc
       0.056822173 -0.073262155 0.042812176 -0.017176695
0001f0 64 40 fb 3c a9 10 57 bd 24 49 61 bd 48 67 50 bc
       0.030670352 -0.052506123 -0.055001393 -0.012719937
