output/2023-04-09_21-27-46/weight/80_model.pkl (torch, 41177 bytes, 7 tensors)

weight f4 [64, 6]
0	0xbaf83140	-0.0018935576
1	0x3e67a731	0.22622372
2	0xbe945c39	-0.2897661
3	0xbf26932a	-0.65068305
4	0xbeb890a5	-0.36047855
5	0xbdc007f6	-0.093765184
6	0x3c53f7e0	0.012937516
7	0x3ec787f7	0.3897092
8	0xbea61c58	-0.324435
9	0xbee14011	-0.4399419
10	0xbee71390	-0.45132113
11	0xbed0fe5c	-0.4081906
12	0xbc1d0d3b	-0.009585674
13	0xbf101586	-0.5628284
14	0x3f12a221	0.5727864
15	0xbe8e74cc	-0.27823484
16	0x3e41e03c	0.18933195
17	0x3e8d07a4	0.27544892
18	0xbd611faa	-0.054961838
19	0xbef71b75	-0.48263136
20	0x3eab8ade	0.33504385
21	0xbdbde396	-0.09271924
22	0xbea5f04a	-0.32409889
23	0x3d85f875	0.0654153
24	0xbd86c3a4	-0.06580284
25	0x3d30f0d8	0.043198436
26	0x3ebd43f6	0.36965913
27	0xbec1e792	-0.37871987
28	0xbe839686	-0.25700778
29	0xbdd3ab68	-0.103354275
30	0xbe22f454	-0.15913516
31	0x3eb4989e	0.35272688
32	0xbe877c0b	-0.26461825
33	0xbe4070c0	-0.1879301
34	0xbe920832	-0.28521878
35	0xbec3c34e	-0.38234943
36	0x3d90f5be	0.070781216
37	0x3f00ae45	0.50265914
38	0x3f3e9fdb	0.7446267
39	0xbe9f7a10	-0.31147814
40	0xbe8d3b6c	-0.27584398
41	0xbf01b19c	-0.50661635
42	0xba2550a0	-0.00063062645
43	0xbed25eb2	-0.41087872
44	0xbea63d4c	-0.3246864
45	0xbe75ed38	-0.24016273
46	0x3e69594b	0.22787969
47	0x3e56b272	0.20966509
48	0xbc7f30e1	-0.0155756185
49	0x3e142dda	0.14470616
50	0xbeb21513	-0.34781703
51	0x3f09efbb	0.53881425
52	0x3ea99993	0.3312498
53	0x3e65c262	0.22437432
54	0x3d71707d	0.058945168
55	0xbf43e69b	-0.7652375
56	0xbdb3b3b0	-0.08774507
57	0xbf15b765	-0.5848296
58	0xbf237f81	-0.6386643
59	0xbf110d2f	-0.5666074
60	0xbe6ebc85	-0.23314102
61	0x3dd5b588	0.10435015
62	0xbf9325d3	-1.1495918
63	0x3e195471	0.14973618
64	0x3e625aaa	0.22104898
65	0xbd5fa000	-0.054595947
66	0xbe3cb9cb	-0.1843025
67	0xbeb0c584	-0.34525692
68	0xbe245cd5	-0.16051038
69	0x3f228354	0.6348164
70	0xbe8ee3e8	-0.27908254
71	0xbde9a697	-0.114087276
72	0xbd189e67	-0.03726044
73	0x3f129dfa	0.57272303
74	0xbd804d2f	-0.062647216
75	0x3eb5b498	0.35489345
76	0x3e3baf1e	0.1832852
77	0xbe8184fd	-0.25296775
78	0x3c057a1b	0.008146788
79	0xbe91d2c0	-0.28481102
80	0xbed1db7a	-0.4098776
81	0x3eaaa87e	0.33331674
82	0x3e8fe01b	0.28100666
83	0xbedf9053	-0.43664798
84	0xbc32092c	-0.010866445
85	0xbd9913d5	-0.07474486
86	0xbcd7202f	-0.026260464
87	0xbed9a0e9	-0.42505577
88	0x3e73a8be	0.23794839
89	0xbe24b695	-0.16085275
90	0x3ce73e56	0.028227966
91	0xbf028536	-0.50984514
92	0x3e7e8711	0.24856211
93	0x3eaf6535	0.34256902
94	0xbf3fb1f9	-0.7488094
95	0xbf1c0d80	-0.609581
96	0x3d130cc3	0.035900842
97	0x3dd28f96	0.10281293
98	0xbf536dd1	-0.8258944
99	0xbefc4279	-0.49269465
100	0x3e3522ee	0.17689106
101	0x3d8b1840	0.06791735
102	0xbe364758	-0.17800653
103	0xbdd26e88	-0.102749884
104	0xbec71d73	-0.38889655
105	0xbbf072c0	-0.007337898
106	0xbe9d6820	-0.30743504
107	0xbea13b3d	-0.31490508
108	0x3d1226ab	0.035681408
109	0x3d3352a0	0.04377997
110	0xbf16c1a2	-0.5888921
111	0x3f138e3e	0.5763892
112	0xbe92e4bb	-0.28690132
113	0x3ea9f779	0.3319662
114	0x3cac51d9	0.021035122
115	0xbf0ff52b	-0.5623347
116	0xbf1610cf	-0.586194
117	0x3fc1eaca	1.5149777
118	0xbe147056	-0.14495978
119	0xbddc9062	-0.10769726
120	0x3cf7334c	0.030175827
121	0x3b0b4cc4	0.0021255473
122	0xbe366514	-0.17811996
123	0xbdfba91d	-0.12288115
124	0xbf015423	-0.5051901
125	0xbeb60aa3	-0.3555499
126	0xbdd14c84	-0.10219672
127	0xbe4ba2cc	-0.19886321
128	0xbe123f1c	-0.14281887
129	0xbeab51e4	-0.33460915
130	0xbdb1d97c	-0.0868406
131	0x3db2b85c	0.0872657
132	0xbea19e36	-0.31566018
133	0xbdf3695a	-0.118853286
134	0x3e470255	0.19434483
135	0xbe1a14a3	-0.15046935
136	0xbd898870	-0.067154765
137	0xbde8e628	-0.11372024
138	0xbd2c050d	-0.041997004
139	0x3e46dd2c	0.19420308
140	0x3c79f406	0.015255934
141	0xbd3e477d	-0.046454895
142	0x3e413f16	0.18871722
143	0xbe69e2e2	-0.22840455
144	0xbebbc51d	-0.36673823
145	0xbe462fac	-0.19354123
146	0x3e8e5330	0.27797842
147	0xbb2d7080	-0.002646476
148	0xbe4fc9d3	-0.20291834
149	0xbea02d48	-0.31284547
150	0xbec39d5f	-0.38206002
151	0xbeb06ad0	-0.3445649
152	0xbda9971c	-0.08280775
153	0x3e654254	0.22388583
154	0x3e620354	0.22071582
155	0xbec996ad	-0.3937277
156	0x3dcf42c8	0.101201594
157	0xbf38cb65	-0.72185355
158	0xbe3aecce	-0.18254396
159	0x3fc8fc3b	1.5701975
160	0xbf9971ed	-1.1987892
161	0xbf99a3cb	-1.2003111
162	0xbebb9120	-0.3663416
163	0xbeb47a7e	-0.35249704
164	0xbd82d4d0	-0.06388247
165	0x3bad0000	0.005279541
166	0xbe3de86e	-0.18545696
167	0x3e1d7a4c	0.15378684
168	0xbf56a1b1	-0.8384047
169	0xbf67f7ea	-0.9061266
170	0x3f2811a2	0.65651906
171	0xbea01664	-0.31267083
172	0x3e54f860	0.20797873
173	0xbc383d40	-0.011245072
174	0xbed08036	-0.40722817
175	0x3e4f0113	0.20215254
176	0xbd663d1b	-0.05621062
177	0xbe435f76	-0.19079384
178	0x3e8a663e	0.2703113
179	0xbec5a846	-0.38604945
180	0xbf4df9d6	-0.80459344
181	0xbea9c6ad	-0.3315939
182	0xbd89bad3	-0.06725087
183	0x3db92bce	0.09041558
184	0x3d3c0b74	0.04590936
185	0xbbc737b9	-0.0060796407
186	0xbe176c1e	-0.14787337
187	0xbe9c69c2	-0.30549437
188	0xbeb73dd4	-0.3578936
189	0x3d194aff	0.037425037
190	0x3e38b019	0.18035926
191	0x3e0ace5a	0.1355528
192	0xbe9370bd	-0.2879695
193	0x3c952890	0.018207818
194	0xbe9358f8	-0.28778815
195	0xbe6620bb	-0.22473423
196	0xbe73990d	-0.23788853
197	0x3e0edd80	0.13951683
198	0xbe791e89	-0.24328054
199	0xbc11ee00	-0.008906841
200	0x3c8cb100	0.017174244
201	0x3e86bdba	0.26316625
202	0xbe9e0139	-0.30860308
203	0xbe8f7f38	-0.28026748
204	0xbbe6175f	-0.007021829
205	0x3e3d5d6a	0.18492666
206	0xbf9addf4	-1.2098985
207	0xbe55ca7d	-0.20878024
208	0xbdfc01bf	-0.123050205
209	0xbe603c90	-0.21898103
210	0xbb4729e0	-0.003038995
211	0xbe1cb3ab	-0.15302913
212	0x3de15c4a	0.11003931
213	0xbde09d99	-0.10967559
214	0xbd66eb51	-0.05637676
215	0xbab9f488	-0.0014187256
216	0xbec5a617	-0.3860328
217	0xbe99ca8b	-0.3003734
218	0x3e791846	0.24325666
219	0xbef03d52	-0.46921784
220	0xbdecfc1e	-0.11571525
221	0x3ea28965	0.3174545
222	0x3d192554	0.037389114
223	0xbe5d4286	-0.21607408
224	0xbeb3fc75	-0.35153547
225	0xbda1cfc8	-0.07900959
226	0xbeff81e7	-0.49903795
227	0xbea5f55d	-0.3241376
228	0xbc209dc9	-0.009803244
229	0x3e0df0b2	0.13861349
230	0xbee0ad79	-0.4388235
231	0x3dfac578	0.122446954
232	0x3e5e2c8f	0.21696685
233	0x3f081b4c	0.5316665
234	0x3e0995aa	0.13435999
235	0xbf80ae7e	-1.0053251
236	0x3d61e3d8	0.05514893
237	0x3eaa84f8	0.33304572
238	0xbf7837ed	-0.96960336
239	0xbf2d2f47	-0.67650265
240	0x399d0500	0.000299491
241	0x3e91fb3d	0.28511992
242	0xbdae3bef	-0.08507525
243	0x3b8590c4	0.0040760953
244	0xbd05824a	-0.032594956
245	0xbf2338c5	-0.637585
246	0x3edf1deb	0.43577513
247	0xbf30dbd4	-0.6908543
248	0x3f0a0178	0.5390849
249	0xbfb58c59	-1.4183456
250	0xbf280409	-0.6563116
251	0xbec65161	-0.38733962
252	0x3ed10988	0.40827584
253	0xbf4c59a4	-0.7982428
254	0x3e233c7c	0.15941042
255	0xbebd5754	-0.3698069

bias f4 [64]
0	0xbd8ba394	-0.068183094
1	0x3da431a8	0.08017284
2	0x3e780576	0.24220833
3	0x3c607327	0.013699329
4	0xbe12501c	-0.14288372
5	0x3e489710	0.19588876
6	0xbe8035bd	-0.25041
7	0xbe023ed6	-0.12719283
8	0xbd79788f	-0.06090599
9	0xbf15b4bd	-0.5847891
10	0xbea2691f	-0.31720826
11	0x3e9e8239	0.30958727
12	0x3ec8d840	0.39227486
13	0xbd9b62c7	-0.075872
14	0xbe1f060d	-0.15529652
15	0xbcef5f21	-0.029220166
16	0x3d5ce0bf	0.053925272
17	0x3cf899c0	0.030346751
18	0xbe6cc429	-0.23121704
19	0x3e2ecb76	0.17069802
20	0x3d5a9b53	0.053370785
21	0xbe9eadcf	-0.3099198
22	0x3e9fdaf8	0.31221747
23	0x3de399ca	0.11113317
24	0xbe185fc2	-0.14880279
25	0x3e6b01b0	0.22949862
26	0xbfad121d	-1.3521153
27	0xbd830714	-0.063978344
28	0x3e3da7e9	0.18521084
29	0xbd20e9ab	-0.039285343
30	0xbee0c147	-0.4389746
31	0xbe8f7a70	-0.280231
32	0xbde2f408	-0.110817015
33	0xbda14e6c	-0.07876286
34	0xbe6d2a2c	-0.23160619
35	0x3ea5e9c4	0.32404912
36	0xbd843190	-0.06454766
37	0xbeebaf5f	-0.46032235
38	0x3e3f6a48	0.18692887
39	0xbf19cf84	-0.6008227
40	0xbd24ef0e	-0.040267043
41	0xbf507d5e	-0.81441295
42	0xbf625855	-0.88416034
43	0xbea69fe7	-0.3254387
44	0xbe87bf01	-0.26512912
45	0x3e169e8c	0.14708918
46	0xbf3bae67	-0.7331299
47	0xbe40f1ea	-0.18842283
48	0x3e1604bc	0.14650244
49	0xbb533a90	-0.003223095
50	0xbe8b4fb4	-0.27209246
51	0xbe527496	-0.20552287
52	0xbe1dd4be	-0.15413186
53	0xbefcc212	-0.49366814
54	0x3cc6d8b6	0.024273258
55	0xbe805404	-0.250641
56	0xbf10579a	-0.5638367
57	0xbeb8c42b	-0.36087164
58	0xbe3ffeb8	-0.18749511
59	0x3e82ae16	0.25523442
60	0xbf30c5b3	-0.69051665
61	0xbeed2b8b	-0.46322283
62	0xbe61099a	-0.21976319
63	0x3caa6aff	0.020802973

weight f4 [128, 64]
0	0x3e422bc5	0.18962009
1	0x3f4e4c38	0.8058505
2	0xbf5c76ba	-0.8611866
3	0xbeec3ea7	-0.4614155
4	0x3dfe7680	0.12424946
5	0x3d815596	0.06315152
6	0xbba3362c	-0.004980823
7	0x3d98d3d1	0.07462276
8	0xbefae10c	-0.48999822
9	0x3d7951e2	0.060869105
10	0x3c54d0df	0.012989252
11	0xbe8d2dcb	-0.27574
12	0x3ed4bd13	0.41550502
13	0xbd72cd1b	-0.059277635
14	0xbf170af8	-0.5900111
15	0xbf922a95	-1.1419245
16	0x3efd7954	0.4950663
17	0x3d896c2c	0.06710085
18	0xbd3179a0	-0.04332888
19	0xbe8a0b41	-0.2696171
20	0xbe1dae98	-0.15398633
21	0xbd1df5e4	-0.038564578
22	0x3d5d0e0e	0.05396848
23	0xbee3c710	-0.4448781
24	0x3d93351a	0.07187863
25	0xbc669fb0	-0.014076158
26	0x3e8311a9	0.2559941
27	0xbdfb26f0	-0.12263286
28	0x3e9a4cba	0.30136663
29	0x3dc8bd3c	0.098017186
30	0x3e448cb1	0.19194295
31	0xbd3ebfa2	-0.046569474
32	0xbdb4b7f8	-0.08824152
33	0xbd7d9964	-0.061913863
34	0x3dcbedb3	0.09957447
35	0x3dd51727	0.104048066
36	0xbb0c29f0	-0.0021387301
37	0x3ca66296	0.020310681
38	0xbe652f0f	-0.22381233
39	0x3e808422	0.2510081
40	0x3c9a5088	0.018837228
41	0xbfa30bf5	-1.2738024
42	0xbf8fe96f	-1.1243113
43	0xbf89a14a	-1.0752347
44	0xbe586bea	-0.21134916
45	0xbdb359dc	-0.08757374
46	0xbfadfe4e	-1.3593233
47	0xbeb04491	-0.34427312
48	0xbe7533a9	-0.23945488
49	0xbd9efd79	-0.0776319
50	0x3de2836a	0.110602215
51	0xbf8d6e33	-1.1049255
52	0xbe7cf04b	-0.2470104
53	0x3efcb717	0.49358436
54	0x3f1a5eed	0.60301095
55	0xbd45b636	-0.048269473
56	0x3e8032bc	0.25038707
57	0xbcde3689	-0.027125614
58	0xbd8dcb57	-0.069235496
59	0x3d7ce87d	0.061745156
60	0x3c97bcfe	0.018522736
61	0x3ed48f7e	0.41515726
62	0xbc8c7696	-0.01714639
63	0xbe2c4eef	-0.16826986
64	0x3d941b92	0.07231821
65	0xbdb89d19	-0.09014339
66	0xbe4fec90	-0.20305085
67	0xbe44d708	-0.19222653
68	0xbd7a2610	-0.061071455
69	0x3c350a30	0.011049792
70	0xbd8f991f	-0.070116274
71	0xbcb55916	-0.022137206
72	0x3e612077	0.2198504
73	0xbe7db87f	-0.24777411
74	0x3c8dea3d	0.017323608
75	0xbe88bef1	-0.26708177
76	0xbe8af68f	-0.27141234
77	0xbd97a2a2	-0.074040666
78	0xbde92af3	-0.11385145
79	0xbe64540e	-0.2229769
80	0xbc981890	-0.0185664
81	0xbd780fcc	-0.06056194
82	0xbecd4d6f	-0.4009814
83	0xbda58283	-0.08081534
84	0xbe2ed3a0	-0.17072916
85	0xbdcf8810	-0.10133374
86	0xbd9af4bf	-0.07566213
87	0xbe6189b7	-0.2202519
88	0xbd0282c4	-0.03186299
89	0xbda7904e	-0.08181821
90	0xbe662e7e	-0.22478673
91	0x3cc17718	0.023616359
92	0xbe5c684b	-0.2152416
93	0x3d2064c3	0.039158594
94	0xbdcfe49a	-0.10151024
95	0xbe853aee	-0.26021522
96	0x3c8caec8	0.017173186
97	0x3dd27f84	0.10278228
98	0xbed5a5ab	-0.41727957
99	0xbd9f1f24	-0.077696115
100	0x3b7d3294	0.0038634883
101	0xbca155f0	-0.019694299
102	0x3deb2cce	0.11483155
103	0xbf0d5693	-0.55210227
104	0x3e0ac112	0.13550213
105	0xbe897212	-0.2684484
106	0xbda2e2bb	-0.07953402
107	0xbe4cefcf	-0.20013355
108	0xbe658719	-0.22414817
109	0xbce4b548	-0.027918473
110	0x3b430a8c	0.0029760925
111	0x3df6794b	0.120348535
112	0xbee58883	-0.44830713
113	0xbdab9952	-0.08378853
114	0xbd2e8a7c	-0.042612538
115	0xbdc8a65e	-0.09797357
116	0xbc84d228	-0.016213492
117	0xbea61223	-0.32435712
118	0xbbbb3860	-0.0057135075
119	0xbf5c350d	-0.8601845
120	0x3ddf6b91	0.109091885
121	0xbe10ed50	-0.14153028
122	0xbc9ad164	-0.018898673
123	0x3da9c5a4	0.0828965
124	0xbd8baeaa	-0.06820424
125	0xbe367de6	-0.17821464
126	0x3dada672	0.084790125
127	0x3d3df19b	0.04637299
128	0xb8eb8580	-0.000112305395
129	0x3e1947ba	0.14968768
130	0xbe20edae	-0.15715668
131	0x3ea40c0d	0.32040444
132	0xbd11c200	-0.035585403
133	0xbdd3f95a	-0.103502944
134	0x3e43b895	0.19113381
135	0x3c3e76d3	0.01162501
136	0xbe9df1f7	-0.30848667
137	0xbdf7ef5d	-0.12106202
138	0x3e90f306	0.28310412
139	0xbcd0eb74	-0.025502898
140	0x3eb98275	0.36232343
141	0x3d9dcb3a	0.07704778
142	0xbe3c9c2c	-0.1841895
143	0xbec4f29f	-0.38466355
144	0x3e5b7e45	0.21434887
145	0x3def0648	0.1167112
146	0x3dfdab33	0.12386169
147	0xbe157622	-0.14595845
148	0xbdcd37a7	-0.100203805
149	0x3ded0f5e	0.11575197
150	0x3df0ac7e	0.1175165
151	0x3f44cb31	0.76872545
152	0xbdd7f530	-0.10544813
153	0xbd413088	-0.047165424
154	0xbf1e7a10	-0.61905
155	0x3df26c56	0.1183707
156	0x3e20e972	0.15714052
157	0xbc8e3cf0	-0.017363042
158	0x3a739e20	0.0009293277
159	0xbe149fce	-0.14514086
160	0xbd7c2bdc	-0.061565265
161	0xbc332440	-0.010933936
162	0x3f14ba71	0.58096987
163	0xbdc3c954	-0.09559885
164	0x3deb1fea	0.114806965
165	0xbc1cb098	-0.009563588
166	0xbd218bb1	-0.03943986
167	0xbe9ab984	-0.30219662
168	0xbe7643cf	-0.24049304
169	0x3ccae6b7	0.024768217
170	0xbf368bd5	-0.71307117
171	0x3f03ca4e	0.5148057
172	0x3e557d02	0.20848468
173	0x3df22d06	0.11824994
174	0xbdbe52ee	-0.09293161
175	0xbef7caa4	-0.4839679
176	0x3e261308	0.16218197
177	0xbdc2dbb1	-0.09514559
178	0x3de072e2	0.10959412
179	0x3ce08be8	0.027410462
180	0xbf198b99	-0.59978634
181	0xbf189e54	-0.5961659
182	0x3f2056ac	0.6263225
183	0xbed520eb	-0.41626677
184	0x3defbc77	0.11705869
185	0x3e3cdf72	0.18444613
186	0xbda592df	-0.08084654
187	0xbe1aa09d	-0.15100332
188	0xbebe3c47	-0.37155363
189	0xbf3cc9b0	-0.7374525
190	0xbd9a509c	-0.07534906
191	0x3eaee217	0.34156868
192	0xbcb589f7	-0.022160513
193	0x3cb0e2ce	0.021592524
194	0xbe947b76	-0.29000443
195	0xbdb74a89	-0.08949763
196	0xbda5fa40	-0.08104372
197	0x3df4d1f0	0.11954105
198	0x3e38c2b2	0.1804302
199	0x3da8fba0	0.08251119
200	0xbd9141a4	-0.07092598
201	0xbe210258	-0.1572355
202	0xbd4549fa	-0.048166253
203	0xbec494b3	-0.38394699
204	0x3e789538	0.24275672
205	0xbdd920cd	-0.106019594
206	0xbe36ccff	-0.17851637
207	0xbe5233a0	-0.20527506
208	0x3ca6e074	0.0203707
209	0x3debb6a8	0.11509448
210	0xbe099f49	-0.13439669
211	0xbdba240c	-0.09088907
212	0xbcbfa3b8	-0.023393497
213	0xbcde1128	-0.02710779
214	0x3dbb99fb	0.09160229
215	0xbe5cfc8e	-0.21580717
216	0x3c598660	0.013276666
217	0x3df0bea8	0.11755115
218	0xbefa5e9c	-0.48900306
219	0x3dc6c4a6	0.097054765
220	0x3e4c0299	0.19922866
221	0x3de0bde4	0.10973719
222	0xbc5e8c57	-0.013583264
223	0xbdc0cd26	-0.09414129
224	0xbcb3dca8	-0.021955803
225	0x3d25ee78	0.040510625
226	0x3e87e32b	0.26540503
227	0x3e0bd653	0.13655977
228	0xbd8bea4b	-0.06831797
229	0x3dc489d0	0.09596598
230	0xbe22eb89	-0.15910162
231	0xbc01cb08	-0.007921942
232	0xbe8ea809	-0.27862576
233	0xbf0a788a	-0.5409018
234	0xbd935481	-0.07193852
235	0xbce5d430	-0.02805528
236	0x3d2c8846	0.042122148
237	0x3daf0566	0.085459515
238	0xbe58775e	-0.21139285
239	0xbdcb8a7c	-0.09938523
240	0xbe125d93	-0.14293508
241	0x3ce06464	0.02739162
242	0x3d4dab88	0.050212413
243	0xbdd02c24	-0.10164669
244	0xbf276fea	-0.6540514
245	0x3f2217ff	0.63317865
246	0xbda3c190	-0.079959035
247	0xbefcbc30	-0.49362326
248	0xbc64dc4f	-0.013968541
249	0xbdc90148	-0.098146975
250	0xbd1d6785	-0.038428802
251	0x3ce6a6e1	0.028155746
252	0xbe3635cc	-0.1779396
253	0xbed214a4	-0.41031373
254	0xbdbe6f7d	-0.092986085
255	0xbdc6f26e	-0.097142085

bias f4 [128]
0	0xbee14b73	-0.44002876
1	0xbe790c60	-0.24321127
2	0xbecd6901	-0.40119174
3	0xbe3dc144	-0.18530756
4	0x3f07afa4	0.5300238
5	0x3d9858f8	0.074388444
6	0x3cf5f591	0.030024322
7	0xbe02ef05	-0.12786491
8	0xbd1fb59e	-0.038991563
9	0x3d39a1ac	0.045320198
10	0x3e16a087	0.14709674
11	0xbd94aab8	-0.072591245
12	0x3e083c15	0.1330417
13	0x3e15f0b8	0.14642608
14	0xbda84e96	-0.08218114
15	0xbd07a374	-0.033114865
16	0xbe598f5a	-0.2124609
17	0xbde48646	-0.11158423
18	0x3de3b344	0.111181766
19	0x3d3fc154	0.04681523
20	0xbe15c808	-0.14627087
21	0xbd20f950	-0.039300263
22	0xbd531d63	-0.051541697
23	0x3d49bb83	0.04925109
24	0xbd6afb1e	-0.05736839
25	0xbbf56030	-0.007488273
26	0x3b1607fa	0.0022892938
27	0x3d986e59	0.07442922
28	0x3f0ac088	0.5420003
29	0xbe37ed47	-0.17961608
30	0xbe2c3220	-0.16815996
31	0xbe9f19f4	-0.31074488
32	0x3dc125a2	0.09431006
33	0x3d9bc4ed	0.0760592
34	0xbddb1c71	-0.10698784
35	0xbd8d3aa8	-0.068959534
36	0xbe002500	-0.12514114
37	0x3e413214	0.1886676
38	0x3e8c720c	0.2743076
39	0xbd7aa6fb	-0.0611944
40	0xbe7225d0	-0.23647237
41	0xbe24511c	-0.16046566
42	0x3e258a28	0.16165984
43	0xbde49e6e	-0.111630306
44	0x3c31a2ed	0.010842067
45	0x3d89dcf0	0.067315936
46	0x3c1c004b	0.009521554
47	0xbd57b6d0	-0.052664578
48	0xbcc55b40	-0.024091363
49	0xbddb9f77	-0.10723775
50	0x3ebab7e2	0.36468416
51	0xbd851b94	-0.06499401
52	0x3bb8a0a9	0.0056343866
53	0x3d1ce24a	0.038301744
54	0xbc84c5ae	-0.016207542
55	0xbcc3f66e	-0.023921218
56	0x3d2330e1	0.039841536
57	0xbe1c56f0	-0.15267539
58	0x3bef46ee	0.0073021566
59	0xbe58a1b7	-0.2115544
60	0xbbf02089	-0.0073280972
61	0xbe18d3b8	-0.14924514
62	0x3df9e360	0.122015715
63	0xbf0462b2	-0.517131
64	0xbd00a6b8	-0.031408995
65	0xbad31c34	-0.0016106428
66	0x3e63afd0	0.22235036
67	0xbda522ff	-0.080633156
68	0xbdac22ef	-0.084051006
69	0x3e85fc9c	0.26169288
70	0xbe4f7ff3	-0.20263653
71	0xbd5149b6	-0.051095687
72	0xbd3cfe74	-0.046141103
73	0xbe85848f	-0.26077697
74	0x3e217d12	0.15770367
75	0x3d1b8b21	0.03797448
76	0x3dd48abe	0.103780255
77	0xbebb47e3	-0.36578283
78	0xbe03cd6a	-0.12871328
79	0x3d4531e7	0.048143294
80	0x3d9224d7	0.07135933
81	0xbe134276	-0.14380822
82	0x3e939330	0.28823233
83	0xbd8305f8	-0.06397623
84	0x3ce33556	0.027735393
85	0x3c152402	0.009102823
86	0xbe73d517	-0.23811756
87	0xbe2af573	-0.16695194
88	0x3ddc05a1	0.10743261
89	0x3dc1025c	0.09424278
90	0xbd4e0df5	-0.05030628
91	0x3e18d34e	0.14924356
92	0xbd1bd324	-0.038043156
93	0x3d6c310c	0.057663962
94	0xbc7b19bb	-0.015325959
95	0xbb6030d6	-0.0034208796
96	0xbdad66d0	-0.084668756
97	0x3ea0f2c3	0.31435212
98	0xbe9c45d6	-0.3052203
99	0x3ed13984	0.40864193
100	0x3ef844e6	0.48490065
101	0x3d97cc92	0.074120656
102	0x3d8ca9a3	0.06868293
103	0x3d61eb7a	0.05515621
104	0x3ed458a0	0.41473866
105	0xbe94151f	-0.28922364
106	0xbcf7e4c7	-0.030260457
107	0x3e5963bd	0.21229453
108	0xbe297de6	-0.16551933
109	0xbe566666	-0.209375
110	0x3bb6198e	0.0055572456
111	0xbe1ca374	-0.15296727
112	0x3f07303b	0.5280797
113	0xbe6e5b18	-0.23276937
114	0x3e58ed46	0.21184263
115	0xbb61acb0	-0.0034435205
116	0x3d3cf777	0.04613444
117	0xbe3d03fd	-0.18458553
118	0xbcbbb0a6	-0.022911381
119	0xbd86502b	-0.065582596
120	0x3d561eb2	0.052275367
121	0xbbe156cb	-0.0068768016
122	0xbd22b4fb	-0.039723378
123	0xbe2e91c1	-0.17047788
124	0xbb022cf6	-0.0019863225
125	0x3d15f3f8	0.03660962
126	0xbe12043a	-0.14259425
127	0xbc8d7287	-0.017266525

weight f4 [4, 128]
0	0x3e5758e3	0.21030001
1	0x3bedbc63	0.0072551235
2	0x3f9e62f9	1.2373954
3	0x3ef94330	0.48684072
4	0x3efcb131	0.49353936
5	0xbdefe4f7	-0.117135935
6	0x3e86c69b	0.263234
7	0xbeea6611	-0.45780995
8	0xbba6845d	-0.005081697
9	0xbd41068d	-0.047125388
10	0x3ddf59e4	0.10905817
11	0xbc9bc9ee	-0.019017186
12	0xbe2fc354	-0.17164356
13	0x3e86cb5c	0.26327026
14	0xbc85c496	-0.016329091
15	0xbc8bc387	-0.017061008
16	0x3d50c1e2	0.05096615
17	0xbcf7654e	-0.030199673
18	0x3f0a49de	0.5401896
19	0xbdb75243	-0.08951237
20	0xbf1f38ef	-0.6219625
21	0xbc52dd59	-0.012870156
22	0x3e31698e	0.17325422
23	0x3f77e891	0.96839243
24	0xbcf0db48	-0.029401436
25	0xbee36b0f	-0.44417617
26	0xbcafb2b7	-0.021447523
27	0x3e875191	0.26429418
28	0xbf273200	-0.6531067
29	0xbe2b6cd6	-0.16740736
30	0xbdc58a90	-0.09645569
31	0xbee7576f	-0.45183894
32	0x3da8497b	0.0821714
33	0x3e72a5be	0.23696038
34	0xbcf8e17d	-0.030380959
35	0xbe8d3aec	-0.27584016
36	0x3f57eb65	0.8434356
37	0x3ebf87f9	0.37408426
38	0xbef75888	-0.4830973
39	0x3e8f169d	0.2794694
40	0x3e9fe483	0.31229028
41	0x3d516b30	0.051127613
42	0x3d218f3b	0.039443236
43	0x3ee8cf5b	0.454707
44	0xb8fb24a0	-0.000119754346
45	0x3e4df4b0	0.20112872
46	0xbdbbcf5a	-0.091704085
47	0x3df05153	0.11734261
48	0xbd79a3ec	-0.060947344
49	0x3d0446c0	0.032294035
50	0x3ecf46ba	0.40483648
51	0xbdcdc779	-0.10047812
52	0xbd842841	-0.0645299
53	0xbb9ce8ca	-0.004788493
54	0x3d9891bc	0.074496716
55	0x3df96c50	0.12178862
56	0x3d375142	0.044755228
57	0xbd7026b5	-0.058630664
58	0x3d820026	0.063476846
59	0x3e045961	0.1292472
60	0x3d983eff	0.074338906
61	0xbdaed42d	-0.08536563
62	0xbe8c117f	-0.27357098
63	0x3f25efdc	0.6481912
64	0x3cd228f6	0.025654297
65	0x3fe41078	1.7817526
66	0xbdfb4f75	-0.122710146
67	0xbe1bf57c	-0.15230364
68	0x3da0802f	0.07836949
69	0xbc00d068	-0.007862188
70	0x3e2b4fee	0.1672971
71	0x3d0d51fc	0.034502015
72	0x3e9c60de	0.30542654
73	0xbd9eadb6	-0.077479765
74	0xbb0020ba	-0.0019550757
75	0xbd703f6a	-0.058654226
76	0xbeac6968	-0.3367417
77	0xbda0b233	-0.07846489
78	0x3da44ace	0.0802208
79	0x3cea4d0c	0.028601192
80	0xbe96b9ca	-0.2943862
81	0xbc1cd14c	-0.009571385
82	0x3f4625a5	0.7740119
83	0x3d5cbb9b	0.053889852
84	0x3d85c2ba	0.06531282
85	0x3dfd7060	0.123749495
86	0xbd4bdd78	-0.049771756
87	0xbd2f11c6	-0.04274156
88	0xbe4159a7	-0.18881856
89	0xbd979e92	-0.07403292
90	0xbea8d714	-0.32976592
91	0xbcc45133	-0.0239645
92	0xbd5abd9a	-0.053403474
93	0x3e4faeae	0.20281479
94	0x3f2d7f5f	0.6777248
95	0xbd21299b	-0.03934632
96	0xbedd39b6	-0.43208092
97	0x3f1d79bd	0.6151388
98	0xbf4e6721	-0.8062611
99	0x3b1d5102	0.0024004583
100	0xbedff10d	-0.43738595
101	0x3e0654ce	0.13118288
102	0x3ea37503	0.3192521
103	0x3e3055a1	0.17220165
104	0xbee9b2fd	-0.4564437
105	0xbeec307e	-0.46130747
106	0xbe1192a9	-0.14216103
107	0xbf72e66a	-0.94882834
108	0x3cc1c487	0.023653282
109	0x3c8cd717	0.017192407
110	0xbbc3744c	-0.0059647914
111	0xbc6bf6d2	-0.014402108
112	0x3d34363c	0.043997034
113	0x3e32c6b3	0.1745861
114	0xbe0163fc	-0.12635797
115	0x3c844c5a	0.016149689
116	0x3d73bdf8	0.05950734
117	0x3d97dd05	0.07415203
118	0x3e9754d6	0.29556912
119	0x3cc0d0d6	0.02353708
120	0xbb96b9ae	-0.0045997715
121	0xbe4851d8	-0.19562471
122	0xbd0c689a	-0.034279443
123	0x3db8d5d4	0.090251595
124	0x3c4b9717	0.012426159
125	0x3d6c475d	0.057685245
126	0xbbc0b723	-0.0058812066
127	0xbd831397	-0.06400221
128	0x3fa5ecd8	1.2962904
129	0x3e7e0bce	0.2480919
130	0x3e5a12ac	0.21296185
131	0xbe01b75e	-0.12667605
132	0x3f8b4b81	1.0882417
133	0x3d6ef14c	0.058335587
134	0x3df5aa84	0.11995414
135	0xbe731247	-0.23737441
136	0x3e8497fc	0.25897205
137	0xbf4620e5	-0.77393943
138	0xbe6d3770	-0.23165679
139	0x3e6a4d50	0.22881055
140	0x3e835d6a	0.25657207
141	0x3f0185cc	0.5059478
142	0x3cc84e55	0.024451414
143	0x3d2e9524	0.0426227
144	0x3e57cd98	0.21074522
145	0x3ed4cb3a	0.415613
146	0xbd7b96fe	-0.061423294
147	0x3a52c2c8	0.0008039889
148	0xbe174dd6	-0.14775786
149	0xbdc363d2	-0.095405236
150	0xbdcbdb4c	-0.09953937
151	0xbe66893e	-0.22513291
152	0xbb9418f2	-0.0045195753
153	0x3f28b29c	0.65897536
154	0xbed17607	-0.4091036
155	0x3dcb91c0	0.09939909
156	0xbf134d7c	-0.57540107
157	0x3c159f15	0.009132166
158	0x3d45125f	0.048113223
159	0xbe163707	-0.14669429
160	0xbda1ee6b	-0.07906803
161	0x3dd4b477	0.103859834
162	0x3dfaa51a	0.12238522
163	0x3f8c3839	1.0954658
164	0x3f19ddf5	0.60104305
165	0x3f8efaa6	1.1170242
166	0x3d948ddb	0.07253619
167	0x3da17516	0.078836605
168	0x3e2cb284	0.16864973
169	0x3dc11e65	0.094296254
170	0xbedad82f	-0.4274306
171	0x3e8a36a9	0.26994827
172	0xbd6e2133	-0.05813713
173	0xbdbbb147	-0.09164672
174	0x3edce129	0.43140534
175	0x3da916e2	0.08256318
176	0xbcadbe8e	-0.021209028
177	0xbd4184b6	-0.047245704
178	0xbe334c58	-0.17509592
179	0xbb026268	-0.001989508
180	0xbacef11c	-0.0015788409
181	0xbb8b5b3c	-0.0042528193
182	0x3d201d2a	0.039090313
183	0x3e688e23	0.22710471
184	0x3e3752ec	0.17902726
185	0x3dcb7009	0.099334784
186	0x3c96f1b8	0.018425807
187	0xbd971b40	-0.073782444
188	0x3d373267	0.0447258
189	0xbe0da1cc	-0.13831252
190	0x3ea4369e	0.3207292
191	0x3c1dcd08	0.009631403
192	0x3d1a4053	0.037659
193	0x3ead72a9	0.3387654
194	0xbe8e3f86	-0.2778284
195	0xbcb540b7	-0.022125585
196	0xbcc8e86b	-0.024524888
197	0x3e8ac204	0.27101147
198	0x3ea55a17	0.32295296
199	0x3d0bcea1	0.034132604
200	0xbf39c64c	-0.725682
201	0x3eb253d8	0.34829593
202	0x3eed434e	0.46340412
203	0x3de72f44	0.11288312
204	0xbeba7ad4	-0.36421835
205	0xbe95f3fb	-0.29287705
206	0xbdd0503e	-0.10171555
207	0xbe8d6bee	-0.27621406
208	0xbf2208c6	-0.6329464
209	0x3d122294	0.035677508
210	0x3e977956	0.2958476
211	0x3d490fb3	0.049087238
212	0x3d30bdd3	0.04314978
213	0xbf2c2e9b	-0.67258614
214	0x3e975216	0.29554814
215	0xbe7fa63e	-0.2496576
216	0xbec68144	-0.38770497
217	0xbd9123c2	-0.070868984
218	0x3e0a2112	0.13489178
219	0xbe4e055d	-0.20119233
220	0xbf3be02c	-0.73388934
221	0x3fc51744	1.5397725
222	0x3f10faae	0.56632507
223	0x3da40456	0.080086395
224	0x3e6e741b	0.23286478
225	0xbe6f0587	-0.23341952
226	0x3ee2eee6	0.4432289
227	0x3c93f51b	0.018061211
228	0xbe6001b3	-0.21875648
229	0x3d10ae9f	0.03532278
230	0x3ee9dcb2	0.4567619
231	0xbf06455f	-0.524496
232	0x3d63d0be	0.055618994
233	0xbefa1acb	-0.48848566
234	0xbf1fc069	-0.6240297
235	0xbf823a15	-1.0173975
236	0xbb237532	-0.002494168
237	0x3d5675dd	0.052358497
238	0x3d879d66	0.06621818
239	0x3d8e3a74	0.06944743
240	0xbf0ab5f6	-0.541839
241	0xbe0e2c1a	-0.13884011
242	0x3ebc8b68	0.3682511
243	0xbca915d8	-0.020640299
244	0xbcb42163	-0.021988576
245	0xbce378de	-0.027767595
246	0xbe5f2f67	-0.21795426
247	0x3d3a76c7	0.04552343
248	0x3e19d6d2	0.15023354
249	0xbf73ae02	-0.9518739
250	0x3cea1a66	0.02857704
251	0x3e138b15	0.14408524
252	0x3e12162d	0.14266272
253	0xbde6eba7	-0.11275416
254	0x3f26835d	0.65044194
255	0x3c9d57f0	0.01920697

bias f4 [4]
0	0xbec9a670	-0.39384794
1	0xbe87ffc5	-0.26562324
2	0x3ebf4656	0.3735835
3	0x3e534d1c	0.20634884

weight f4 [1, 128]
0	0xbe96220c	-0.2932285
1	0xbe14d9a7	-0.14536153
2	0xbdecaa96	-0.11555974
3	0x3d2dff00	0.042479515
4	0xbe47f2d0	-0.1952622
5	0xbe4d8404	-0.20069891
6	0xbdc9b80a	-0.09849556
7	0x3e5a49f3	0.21317272
8	0xbe4f6a42	-0.20255378
9	0x3ec5aad2	0.38606888
10	0xbd88cbe3	-0.06679513
11	0xbcee4f1b	-0.029090455
12	0x3e6690c0	0.22516155
13	0xbd67f478	-0.056629628
14	0xbcdea0d4	-0.027176298
15	0xba87c9d8	-0.0010359837
16	0xbd74de2b	-0.05978219
17	0xbd7735c5	-0.060354013
18	0xbf208565	-0.62703544
19	0x3d26f291	0.040758673
20	0xbdb19dfe	-0.08672713
21	0x3c8231e6	0.015892934
22	0xbcf40c38	-0.029790983
23	0xbe82e03d	-0.25561705
24	0x3cbc72c3	0.023003941
25	0xbe479198	-0.19489133
26	0xbeebb33e	-0.46035188
27	0x3eafacc1	0.34311488
28	0xbe8d986d	-0.27655354
29	0x3da522bf	0.08063268
30	0xbd309ade	-0.043116443
31	0x3ee7a54c	0.452433
32	0x3d0f6ee5	0.035017867
33	0xbe398b18	-0.18119466
34	0xbdd56f60	-0.10421634
35	0xbe6c184c	-0.23056144
36	0xbe92bc01	-0.2865906
37	0xbdb3505a	-0.0875556
38	0xbef95670	-0.4869876
39	0xbce279cc	-0.027645968
40	0xbdd8d604	-0.10587695
41	0xbd53dac9	-0.05172232
42	0xbeec0b80	-0.46102524
43	0xbed1d315	-0.40981355
44	0x3c161b04	0.009161714
45	0xbdb28495	-0.08716694
46	0xbec38922	-0.38190562
47	0xbd9c608a	-0.07635601
48	0x3c964b8e	0.018346574
49	0xbd1aa0dc	-0.037751064
50	0x3e46ed34	0.19426423
51	0x3cd817be	0.026378509
52	0x3be00ca5	0.006837445
53	0x3cb75752	0.022380505
54	0xbcd1569b	-0.025553992
55	0xbdcc62f6	-0.09979813
56	0xbda8ddcf	-0.08245432
57	0xb9feb9d0	-0.00048585096
58	0xbcf59fa2	-0.029983345
59	0x3da31cc2	0.079644695
60	0xbb297b9e	-0.0025861035
61	0xbd541abd	-0.051783312
62	0xbe8983fc	-0.2685851
63	0x3df68766	0.12037544
64	0x3cc08ff0	0.023506135
65	0xbf6e3757	-0.9305319
66	0xbeae22c0	-0.34010887
67	0xbd8b4039	-0.06799359
68	0x3d69a714	0.057044104
69	0xbe711bb2	-0.23545721
70	0xbe2a46f1	-0.16628624
71	0x3b77659a	0.0037749768
72	0xbd9d18e4	-0.07670763
73	0xbd426338	-0.047457904
74	0xbe9f17c0	-0.31072807
75	0x3ded26ef	0.115796916
76	0x3f033027	0.5124535
77	0x3dd6e569	0.10492975
78	0x3d5c89e3	0.053842437
79	0x3d2ae626	0.041723393
80	0x3ea35104	0.31897748
81	0x3c83d528	0.016092852
82	0xbf11288b	-0.5670249
83	0xbcbe9192	-0.023262773
84	0xbd3b34cb	-0.045704644
85	0x3eb0e32d	0.3454832
86	0xbd4e109b	-0.050308805
87	0x3e365355	0.17805226
88	0xbe6fe81c	-0.23428386
89	0x3d6acfea	0.05732719
90	0xbdab0f52	-0.083525315
91	0xbddc8ff4	-0.107696444
92	0x3e04dc92	0.12974766
93	0xbe3557b0	-0.17709231
94	0xbe5a52ee	-0.21320698
95	0x3a93666e	0.0011245736
96	0xbe9977bf	-0.29974172
97	0xbe98934c	-0.2979988
98	0x3ce0a583	0.027422672
99	0xbea09640	-0.31364632
100	0xbf841cf1	-1.0321332
101	0xbd06c4e8	-0.03290263
102	0xbe9b2004	-0.30297863
103	0xbc8b5393	-0.017007625
104	0xbee1f47e	-0.44131845
105	0x3e7b1234	0.24518663
106	0xbd6a7fe2	-0.057250865
107	0x3f2e93e2	0.681944
108	0xbddcd85e	-0.10783456
109	0x3cdd0b87	0.026983036
110	0x3d050a0a	0.032480277
111	0x3d0ad9f5	0.033899266
112	0xbeef3192	-0.46717507
113	0x3daea693	0.08527865
114	0xbed5d594	-0.4176451
115	0x3cab54aa	0.020914394
116	0xbc24a5da	-0.010049308
117	0xbba46e95	-0.005018065
118	0xbe39acb2	-0.18132284
119	0x3d550f34	0.052016452
120	0xbbba0b83	-0.005677642
121	0x3ee6ab1d	0.45052424
122	0xbd57181a	-0.05251322
123	0xbd9456cd	-0.072431184
124	0x3deb403f	0.11486863
125	0x3d8a2254	0.06744829
126	0xbe44adad	-0.19206877
127	0x3c7e8275	0.015534033
