output/2023-04-09_21-30-46/weight/5_model.pkl (torch, 40783 bytes, 7 tensors)

weight f4 [64, 6]
00000000: c223 81bd 33c7 4b3e 6d98 eebe 8ba2 2bbf
00000010: 147e 35be 8c3e b73d 671a e6bc 558b 793e
00000020: 0514 c5bd e5e0 a7bd 1738 79be b10d 4dbe
00000030: d448 97bf c9a6 f63d 2036 d2be 7607 8f3e
00000040: cc77 113f 2adc 263f 63cc 343f 9047 78bf
00000050: 95c4 c03f 8676 0f3f d341 1fbf 942a 6ebe
00000060: a4c3 86bd d8f0 303d f643 bd3e 92e7 c1be
00000070: 8696 83be 68ab d3bd 54f4 22be 9e98 b43e
00000080: 0b7c 87be c070 40be 3208 92be 4ec3 c3be
00000090: 4218 51bd f6fb c73e 5c02 3f3e aee2 7abd
000000a0: ff4d 3ebe d34e d5be c4d3 f73e 0d9c d4bd
000000b0: 0753 cc3e 7d8b 95bd 5eb8 043f a30e 003f
000000c0: 9890 f2be 04f2 86be d34c a23e 525f 403c
000000d0: 7d9e 00be e90e 6ebe 8c82 113d 7d97 b7be
000000e0: 0e7f 3abe d84c d9be 021c ecbe 5f37 c7be
000000f0: ba4f 813d 1ca4 4f3e 49dd c6bf d55a 9c3e
00000100: 2a3f 4b3e 1d07 9ebd 3562 4fbe 156e a93d
00000110: ce8c 793f 1131 033f fd1e 8bbe 0c93 dabd
00000120: 636e 0fbd aac3 673e 4370 633e e078 75bf
00000130: 9382 04bd deec efbe 8696 f73b 4220 92be
00000140: f428 d2be a21d a03e a392 8f3e cddd dfbe
00000150: 8021 d23b 8595 22be 6379 0cbe ae52 68be
00000160: 6634 893d 93e2 a9be a00e a13c 3551 153d
00000170: bf25 263e 8443 a93d bad6 0dbf 8564 d4be
00000180: e92f 0b3e f1c9 893e ee11 b1be c81b 32bf
00000190: 2316 ba3e a94a 823e 5847 36be 886e d2bd
000001a0: 731d c7be c072 f0bb 2068 9dbe 3d3b a1be
000001b0: 02af 1d3e e40b 743e 8441 efbb de1c 37be
000001c0: 1e4f 0fbe 9934 f53e d31c 203c d795 e8be
000001d0: ea29 6dbe 5244 53bd de95 4ebd 83d6 57bc
000001e0: c08d cb3c 97ff e0bd 5865 aabe 8330 3d3e
000001f0: 5f97 fabe 96f9 adbe 844c d1bd cca2 4bbe
00000200: 1c3f 12be e451 abbe 7cd9 b1bd 5cb8 b23d
00000210: 58be 32bd 0753 8bbe e6cd 0a3f 081f 7cbf
00000220: fd02 0abe 733a 39be 3994 153e 7b11 d43e
00000230: afe3 f13e 59ff 8ebd a673 e93e 6e15 1f3d
00000240: 1dc5 bbbe ac2f 46be 3053 8e3e 8070 2dbb
00000250: d3c9 4fbe 482d a0be 5f9d c3be d06a b0be
00000260: 1c97 a9bd 5442 653e 5403 623e ad96 c9be
00000270: ed27 703c 163e ebbe 9c4c 2abe fdf3 87be
00000280: 2a2b 70bd b866 76bd 2091 bbbe 7e7a b4be
00000290: d0d4 82bd 0000 ad3b 6ee8 3dbe 4c7a 1d3e
000002a0: 3e77 04bf 61cf 35be 2a85 6a3e c1d4 80bf
000002b0: 69e6 5f3e 18cb 0cbb b488 a83d b7ae 6d3e
000002c0: 4222 b23e d8bd d0be 2f51 bc3e 52bd 93be
000002d0: 5943 8abc e8e9 01bf 61f7 063f 3600 9e3d
000002e0: f83a 8bbe 46d9 a5be e8e7 76bf b68f 5d3e
000002f0: 7b65 c3bd ccdf a63e f7c2 b53e b26d a03e
00000300: bd70 93be 9028 953c f858 93be bb20 66be
00000310: 0d99 73be 80dd 0e3e 891e 79be 00ee 11bc
00000320: 00b1 8c3c babd 863e 3901 9ebe 387f 8fbe
00000330: ce26 223d 3e99 8c3e 0a23 57bd 811d a63e
00000340: 7664 fcbd d26d 60be 81a1 55bc 96c2 b9bd
00000350: 8ed8 ad3c 8a5b fcbd 87d6 52bc 2e66 2c3d
00000360: b556 c7be 67d1 a4be 290b 633e 014c c7be
00000370: 538b 0cbe cb82 973e c418 223d 1830 35be
00000380: e262 ecbe d768 583e f053 ffbe 6cc7 a5be
00000390: 007d 71b8 fb56 c3be aa9a 94be bffb 7f3e
000003a0: c7e5 f6bd 94cd 463e a980 223c de69 edbe
000003b0: 3862 8c3d 260c e0bd 00b9 84be 8ac2 0a3d
000003c0: 060a b23d 2db5 b73e 1b62 85bd c1ae 4cbe
000003d0: 25c6 313e 20de dcbe 2e88 d03c b5be 68be
000003e0: 7eaf 9bbe aa21 4fbf 457e b0be 541e 9bbd
000003f0: 751c 033f 3237 6ebf 2c00 413f 744d 5ac0
-0.063056484 0.19900207 -0.46600667 -0.67044896 -0.17723876 0.08947477 -0.028088761 0.24369557
-0.09622959 -0.08197192 -0.24337803 -0.20024754 -1.18191 0.120435305 -0.4105692 0.2793538
0.5682342 0.65179694 0.7062437 -0.96984196 1.5059992 0.5604023 -0.62209815 -0.2325843
-0.06580284 0.043198436 0.36965913 -0.37871987 -0.25700778 -0.103354275 -0.15913516 0.35272688
-0.26461825 -0.1879301 -0.28521878 -0.38234943 -0.051048525 0.39059418 0.18653244 -0.061251335
-0.1858444 -0.416617 0.48403752 -0.10381327 0.39907095 -0.07301996 0.5184382 0.50022334
-0.4737594 -0.26356518 0.31699237 0.011741476 -0.12560458 -0.23247875 0.03552489 -0.35857764
-0.1821253 -0.4244144 -0.46115118 -0.38909432 0.06314035 0.20277447 -1.5536281 0.3053805
0.19848314 -0.077162005 -0.20252307 0.082729496 0.97480476 0.51246744 -0.2717208 -0.10672578
-0.035017382 0.22633234 0.22210793 -0.95887566 -0.032351088 -0.46860403 0.0075557856 -0.28540236
-0.4104687 0.31272608 0.28041562 -0.43723908 0.006412685 -0.1587735 -0.1371818 -0.2268779
0.06699447 -0.33180675 0.019660294 0.0364544 0.16225336 0.08264831 -0.5540577 -0.4148294
0.13592495 0.26911882 -0.34583992 -0.6957364 0.36345014 0.25447586 -0.17800653 -0.102749884
-0.38889655 -0.007337898 -0.30743504 -0.31490508 0.15398791 0.23832661 -0.0073015112 -0.17882106
-0.13995025 0.4789169 0.009772497 -0.4542682 -0.2316052 -0.051578827 -0.050435893 -0.013173702
0.024847865 -0.1098625 -0.33280444 0.18475537 -0.48943612 -0.3397948 -0.10219672 -0.19886321
-0.14281887 -0.33460915 -0.0868406 0.0872657 -0.043638557 -0.27211782 0.54220426 -0.9848485
-0.13477702 -0.18088703 0.14607324 0.41419587 0.4724402 -0.069822975 0.45596045 0.038838796
-0.36673823 -0.19354123 0.27797842 -0.002646476 -0.20291834 -0.31284547 -0.38206002 -0.3445649
-0.08280775 0.22388583 0.22071582 -0.3937277 0.014657957 -0.45945805 -0.16630787 -0.26553336
-0.058634914 -0.060156554 -0.3663416 -0.35249704 -0.06388247 0.005279541 -0.18545696 0.15378684
-0.5174445 -0.1775489 0.2290236 -1.0064927 0.21865238 -0.0021483358 0.08229199 0.2321118
0.34791762 -0.4076984 0.36780688 -0.28855377 -0.016877817 -0.5074754 0.5272122 0.07714884
-0.27193427 -0.3239233 -0.9644761 0.21636853 -0.0954084 0.32592618 0.3550031 0.3133369
-0.2879695 0.018207818 -0.28778815 -0.22473423 -0.23788853 0.13951683 -0.24328054 -0.008906841
0.017174244 0.26316625 -0.30860308 -0.28026748 0.03958779 0.27460665 -0.05252365 0.32444385
-0.12323849 -0.21916893 -0.013038994 -0.090703174 0.021221425 -0.12322147 -0.01286853 0.042089634
-0.3893334 -0.3219101 0.22172226 -0.38925174 -0.13725023 0.29591975 0.0395744 -0.17694128
-0.46169192 0.21133743 -0.49868727 -0.3237871 -5.7575293e-05 -0.38152298 -0.2902425 0.24998377
-0.12055545 0.1941436 0.00991837 -0.46369833 0.06854671 -0.10939817 -0.25922394 0.033876933
0.08693318 0.35880414 -0.06512853 -0.19988538 0.17360742 -0.43138218 0.02545556 -0.22728999
-0.30407327 -0.8091074 -0.34471336 -0.07574144 0.51215297 -0.9305297 0.7539089 -3.4109774

bias f4 [64]
00000000: dda1 eb3d fe83 933e 545b 1e3f d88c 91be
00000010: 1c50 12be 1097 483e af3f 24be 8548 273e
00000020: 5989 04bf 6086 d0be c6f7 adbe 2247 a23e
00000030: 70e0 343e 1199 9cbd d109 a7be 4682 293e
00000040: 6d3b 763e c099 f83c ef92 acbd 90c8 873e
00000050: f1ac 8d3d cfad 9ebe 8cb8 7a3e acba c13e
00000060: c25f 18be b001 6b3e 300c 59be 1407 83bd
00000070: 9d64 493e a274 6e3d 9ebf 41bf 0b07 d5bd
00000080: 08f4 e2bd 6c4e a1bd 3a5a 6dbe d730 bc3e
00000090: 1a48 b0bd f280 ebbe 3f40 1abe 6e5d e03d
000000a0: 0bec 293e 72b8 00bf 5d07 10be 82ba c8be
000000b0: 0cf9 20be 8c9e 163e 0cf0 28bf d003 543d
000000c0: 2f0b 923e e51c 08bd b44f 8bbe 1e80 34be
000000d0: 0948 79bd 1e81 bfbe b66b 053e edde 523e
000000e0: 4663 46bf 86a0 2dbf 7f5c 723e d1b5 b2be
000000f0: a531 f7be f43a 25bf d16a b8bd a52c 0a3e
0.11505482 0.2881164 0.61858106 -0.28427768 -0.14288372 0.19588876 -0.16039918 0.16336258
-0.51772076 -0.4072752 -0.339781 0.31694895 0.17663741 -0.076463826 -0.32624677 0.16553602
0.24046107 0.030346751 -0.08426463 0.26520205 0.069177516 -0.3099198 0.24484462 0.37837732
-0.14880279 0.22949862 -0.21196055 -0.063978344 0.19667287 0.0582167 -0.7568301 -0.10401734
-0.110817015 -0.07876286 -0.2317895 0.36756012 -0.08607502 -0.45996815 -0.1506357 0.1095532
0.1659395 -0.5028144 -0.14065309 -0.39204794 -0.15720004 0.14708918 -0.6599128 0.05176145
0.28524157 -0.03323068 -0.27209246 -0.17626998 -0.060859714 -0.37403196 0.1302937 0.20592852
-0.7749523 -0.67823064 0.23668097 -0.3490434 -0.48280063 -0.6454308 -0.090047486 0.13493593

weight f4 [128, 64]
00000000: d85b 6abc afed 57bd 418f ba3e 6f3b cc3e
00000010: 8076 fe3d 9655 813d 780d fe3a b0ad 29bd
00000020: 9456 bebd 8a42 753d f2a4 123c f913 3d3e
00000030: 3451 3fbd 8326 a1bd dccc 46bb 7c85 b4bd
00000040: 9cdd 273d 2c6c 893d 0d74 983d 62b9 e8bd
00000050: 9621 a1bd e4f5 1dbd 78f0 6f3b d7d8 fe3d
00000060: 1a35 933d b09f 66bc aeb7 823d f026 fbbd
00000070: dc3a 9dbd 60f2 2e3d ba12 39bd 571c 633e
00000080: f8b7 b4bd 6499 7dbd 6190 09bd 6012 9a3d
00000090: 90b3 f5ba f6eb 003e 98a9 14be 0163 783d
000000a0: 80fd 12bd a922 edbc 0df7 f0bd cd7c 253d
000000b0: c63a 2e3d dc59 b3bd b433 c23d aa6f 013e
000000c0: cc23 00bd 01a0 4a3c 6a83 e23d d1ad ac3d
000000d0: c0c2 29be 2270 3ebc 1cfa 923b 6495 4dbe
000000e0: 24b2 ee3c cf28 b5bd 6448 6d3e 02f9 123c
000000f0: 6e90 8e3c a208 5b3d d185 233e 00bf 713d
00000100: afe0 eabd 4fe8 d9bc 90a9 80be ba05 bd3d
00000110: 1026 7abd 300a 353c fdd7 a83d 8ca1 aabd
00000120: 24e0 1b3d 9e12 a5bc d789 ffbe e9c2 31bf
00000130: acd8 80bd d8e9 aabd d0d3 ad3d 42bc 32bd
00000140: 425d 05be cc0f 78bd f67c a63d 0c40 073e
00000150: 98ef 46be 1088 cfbd 7daa 51be d0f7 38bd
00000160: c482 02bd 4e90 a7bd 3b12 0abe 1877 c13c
00000170: 5eeb b5be 3785 c0bc f60f cabd 59a0 43be
00000180: c8ae 8c3c 847f d23d 7025 46be 5678 813c
00000190: 26d4 c7bb 33bb b93c ce6d d5be 39de 56be
000001a0: 4082 cf3c db7d 8dbd 7000 bebd 40c1 30bc
000001b0: 2ff6 b7bd 48b5 e4bc 8e27 b73d a11a 873d
000001c0: ce3e f9bd fda9 d63c 7c8a 2ebd 4ec4 063d
000001d0: ae3b 39be 10d2 5d3d 57ca 96bd 4c3f 053d
000001e0: ab7d 9e3d 8f26 8fbd 30f3 bdbe 8f1a 00be
000001f0: 3451 1bbd 5dcb 00be 30ac 363d 3e10 9f3d
00000200: 771e 033e 8bf1 00be 2c9f 2d3d 39a2 263e
00000210: 00c2 11bd 5af9 d3bd 31c4 aabd 41b0 4ebf
00000220: 2336 f1bc 57ac 07bd 00fa 6abb 8e82 983c
00000230: 3329 8e3d f4aa 693d d7ad b5bd 204e 2ebe
00000240: 1df8 06be 4806 ef3d 251c 153d 3c2f 5f3d
00000250: f437 6ebd 5e0f ed3d e4c4 3dbc 2a34 5d3d
00000260: 30f5 d7bd 8830 41bd b04c 8dbe 566c f23d
00000270: f3f5 96bd a67c 9bbd 64c4 7d3c 5ff4 eebd
00000280: dc2b 7cbd 4024 33bc fb68 27bd 5e09 42bd
00000290: ad25 283e 84e3 99bd f2a8 5bbe 5f3f 12bf
000002a0: e6fc 343d 06b9 2b3e 6aff 853c 08a7 893c
000002b0: d302 c6bd 062d f23d 4526 f9bc 9bc9 f9bd
000002c0: 18c3 11bd 45e6 1f3f e272 e03d e86e 4fbd
000002d0: 65bf 713e 1b12 c6bd bb66 223d 3083 c13c
000002e0: 91df f13c 165d edbb 209f 1a3d 26a7 6bbf
000002f0: 78ac 4bbd b8d7 2abe 2bfc d2bd 7c46 99bb
00000300: c783 e9bd a049 6d3d e0ac 063e 2263 26be
00000310: 40fa a5bd f0d1 f43d 3d7a 36be c875 f5be
00000320: 5844 01bd 2b9f 4abd 9fc2 53bc dc8e 91bd
00000330: 191a 2d3e ce20 d9bd e03f 0fbd 12df 66bd
00000340: fcfd d93c a8b6 eb3d 48dd b7bd da24 0e3d
00000350: a780 5fbe 2811 debc 49da 0e3e b6b2 b5bd
00000360: 6086 593c a8be f03d 987f dbbd a6c4 c63d
00000370: 17c2 3c3c 3adf 1f3e 71dd 64be 7f9e f03d
00000380: a8dc b3bc 78ee 253d ae03 8d3e edff 003e
00000390: 8c06 a1bd 3f21 9abd af3d aa3d e023 d7bd
000003a0: f292 c43d 9cfb fcbd 1300 9ebe d2ee 8b3c
000003b0: 7e72 05bd 6605 af3d 5426 a4bd 074c 96be
000003c0: 3be8 1d3e aafa b23d 88ab 4d3d 9e65 b2bd
000003d0: d003 f2bc f151 15bf a104 7e3c a9a2 bebe
000003e0: 4d40 aabe 0736 12be 7ee3 093d 9c3f f1bd
000003f0: aa1a b53b 5cf6 4ebf 6815 d6bd 3cd8 0e3d
-0.014304124 -0.052716907 0.3643742 0.39889094 0.12424946 0.06315152 0.0019382676 -0.041425407
-0.09293857 0.05987791 0.008950459 0.1846465 -0.0467083 -0.07868674 -0.0030334508 -0.088145226
0.040982828 0.06710085 0.0744401 -0.11363484 -0.07867734 -0.038564578 0.0036611836 0.12443703
0.07187863 -0.014076158 0.0638269 -0.12263286 -0.07677242 0.042711616 -0.045183875 0.2217878
-0.08824152 -0.061913863 -0.033584956 0.07523036 -0.001874553 0.12590012 -0.1451782 0.060641292
-0.035886288 -0.028947191 -0.11765871 0.040402222 0.04253652 -0.08757374 0.09482518 0.12640253
-0.03128414 0.0123672495 0.110602215 0.0843159 -0.16578197 -0.011623414 0.0044853818 -0.20076519
0.029137678 -0.08845674 0.23172146 0.008970501 0.017402854 0.05347503 0.15969016 0.059020042
-0.11468636 -0.026600031 -0.25129366 0.09229608 -0.061071455 0.011049792 0.082443215 -0.08331594
0.038055554 -0.020150479 -0.4990985 -0.69438034 -0.06291327 -0.083453834 0.08487666 -0.043636568
-0.13023856 -0.06056194 0.08129303 0.13208026 -0.19427335 -0.10133374 -0.20475192 -0.045158207
-0.03186299 -0.08181821 -0.13483517 0.023616359 -0.35531133 -0.023501022 -0.098663256 -0.19104137
0.017173186 0.10278228 -0.19350219 0.015804451 -0.006098288 0.022672271 -0.41685337 -0.20983209
0.025330663 -0.06908771 -0.09277427 -0.010788262 -0.08982503 -0.027918473 0.08943091 0.06596876
-0.12170182 0.026204104 -0.042612538 0.032902054 -0.18089172 0.05415541 -0.07362812 0.032531068
0.07738813 -0.06989776 -0.370996 -0.12510131 -0.03791924 -0.12577577 0.044597805 0.0776677
0.1280459 -0.12592141 0.042388126 0.1627282 -0.035585403 -0.103502944 -0.08338202 -0.8073769
-0.02944476 -0.03312334 -0.0035854578 0.01861694 0.06941452 0.0570478 -0.08871048 -0.1702199
-0.13180585 0.1167112 0.036403794 0.054488406 -0.05815883 0.11575197 -0.011582587 0.054004826
-0.10544813 -0.047165424 -0.2759757 0.1183707 -0.0737113 -0.07592134 0.015488718 -0.11667704
-0.061565265 -0.010933936 -0.0408716 -0.047372214 0.16420622 -0.07514098 -0.21451166 -0.57127947
0.044186495 0.167698 0.016357142 0.01680328 -0.096685074 0.11824994 -0.030413756 -0.12196656
-0.035586447 0.6246074 0.10959412 -0.050642878 0.23608167 -0.09671422 0.039648753 0.023622125
0.02952555 -0.0072437627 0.03774941 -0.92051923 -0.049725026 -0.16683853 -0.103020035 -0.004677592
-0.11402088 0.057931542 0.13151884 -0.16248754 -0.08104372 0.11954105 -0.17820068 -0.47941422
-0.03155932 -0.0494682 -0.012924819 -0.071073264 0.16904487 -0.1060196 -0.034973025 -0.05636508
0.026610367 0.11509448 -0.08977753 0.034703113 -0.2182642 -0.02710779 0.13950457 -0.08871977
0.013276666 0.11755115 -0.10717696 0.097054765 0.011520884 0.15612498 -0.22350098 0.11748981
-0.021955803 0.040510625 0.2754187 0.12597628 -0.07862577 -0.075258724 0.083125465 -0.105048895
0.0959834 -0.12352678 -0.30859432 0.017081652 -0.03257989 0.085459515 -0.08015123 -0.2935488
0.1542062 0.087392166 0.050212413 -0.08710788 -0.029542834 -0.5832816 0.015504033 -0.37233475
-0.33252183 -0.14278422 0.03366422 -0.11779711 0.0055268602 -0.80844665 -0.10453302 0.034874186

bias f4 [128]
00000000: e469 5a3d 160e d7bd 723e 813d 1961 2c3d
00000010: 7b56 e9bd e365 04be 3d1f acbd 2c3d f6bd
00000020: cd63 27bd 8c73 ac3d e8ad 193d b10f 9dbd
00000030: 9a2f b33c 04b9 49be 9881 babc 38b6 ee3c
00000040: 8c1e 75bd 5694 9abd c18a 453e 5101 cd3c
00000050: 7558 27be e000 abbd 4afc 49bd e463 533e
00000060: 70d2 c6bc 741c 063f 9c5a b5be c1a2 0e3d
00000070: ece1 81bd 1c42 1cbe c653 cebd ba98 39be
00000080: 5c58 2d3d 784c b3bd 95ef c6bd c0ea 823c
00000090: a6fd dcbd 9331 f33c 29d2 22bd 84d3 213d
000000a0: 4865 69be e347 fcbd 9e39 cc3d 4090 a9bd
000000b0: d0dc ad3c d561 5f3d 2459 983d d0b3 a1bd
000000c0: 82c5 863b aa9b a7bd 1282 9a3d d819 f23a
000000d0: 48ba 233d 59f3 9ebc b0fb 303d 6fe1 0b3d
000000e0: fef1 093d 3375 81bd fecc 3c3d c464 9f3d
000000f0: f277 ff3c 3e7a 96bc 780d 8bbd dd78 d43e
00000100: a0b6 753b 020c b53c a0db 273d 8dd9 b0bd
00000110: c58b b8bc 2840 81bd 366f e9bd 424e d4bc
00000120: 3ea1 43bd 9fb1 76be 2bab 383d 76cb 2b3d
00000130: d1be bf3d e2e6 81bd 2c8a 38be 0b45 8cbd
00000140: 7e2e 943c c6a6 d2bd ab84 853e 685e 00be
00000150: 6ce5 aa3d 8709 24be 4cc7 21be 0053 14be
00000160: e6c5 a5bd 409f c13d 9d1e 43be 0cbe 843c
00000170: 70e0 8f3d aef2 9e3c 2c7b 29bd 3787 293d
00000180: 5d5f 9bbd b9cb 45bd cda7 a53d 9440 c5bd
00000190: 7726 c13e c41a 713e 84ff ea3c 68c8 063d
000001a0: 032f 28bc e1c6 bebd 7086 393d 8ce1 4a3d
000001b0: fb97 273d 0140 13be 6407 443d d731 a4bd
000001c0: 716c 303c f40a bebd f9d7 bdbd 7663 5d3d
000001d0: 76f2 e63c 01ac 11be 6e00 aabd 047f 593d
000001e0: 0956 6e3d 2108 e53d c21b 673d 076f 88bd
000001f0: c558 3ebc 5673 fc3c c7ac 21be cab9 ac3c
0.05332364 -0.105007336 0.063107386 0.042084787 -0.11393448 -0.12929492 -0.08404396 -0.12023386
-0.04086666 0.08420476 0.037519366 -0.076690085 0.021873284 -0.19699484 -0.022766873 0.029139623
-0.059843585 -0.07547824 0.19291212 0.025025042 -0.16342337 -0.08349776 -0.049312867 0.20643574
-0.024270266 0.52387166 -0.35420692 0.034823183 -0.06341919 -0.15259594 -0.10074572 -0.18124667
0.042320594 -0.0875482 -0.097136654 0.015981078 -0.10790567 0.029686725 -0.039751206 0.039508358
-0.22792542 -0.12318399 0.09971927 -0.08279467 0.021223456 0.05453666 0.07438877 -0.07895625
0.0041129002 -0.081839874 0.0754434 0.0018470837 0.039972574 -0.019403147 0.043208778 0.034150537
0.033678047 -0.06321182 0.046093933 0.077828914 0.031185124 -0.018368836 -0.06789678 0.4149846
0.0037492886 0.022100452 0.040980935 -0.086352445 -0.022527585 -0.06311065 -0.11398165 -0.025916222
-0.047761194 -0.24091195 0.045085113 0.041942082 0.09362567 -0.063428655 -0.18021458 -0.068491064
0.018088575 -0.10285716 0.2607778 -0.12536013 0.0834454 -0.1601926 -0.15798682 -0.14484787
-0.08094387 0.09454203 -0.19054647 0.016203903 0.0702523 0.019402828 -0.04137723 0.041388717
-0.075865485 -0.04828999 0.08088646 -0.09631458 0.3772466 0.23545367 0.028686292 0.032905966
-0.010265115 -0.09315277 0.045294225 0.049531505 0.040916424 -0.14379884 0.04785861 -0.08017319
0.010768042 -0.09279433 -0.09269709 0.05404993 0.028191786 -0.1422577 -0.08300863 0.053099647
0.05818752 0.11183191 0.056422956 -0.06661802 -0.011617844 0.030816715 -0.15788566 0.021084685

weight f4 [4, 128]
00000000: 9125 69be a046 413d e546 183e b232 943e
00000010: 6c08 62bd 381e ea3d 295f 383d c03a 5dbd
00000020: a491 fdbc ac25 66bd 4687 4f3d 8bd8 05bc
00000030: 35c5 8b3d 1659 9dbf 2403 85bd 5aff d0bb
00000040: 5c81 acbc 38bc be3d 3922 1c3f 3cf5 e0bc
00000050: ce07 b0bd 81f5 6bbc ecff 2b3b 14cc 093f
00000060: 43e3 683d a87e 0840 8814 d03d 8754 823d
00000070: ff9d 6c3e 9368 76bd de07 32be 9c32 103d
00000080: 18b2 34bb f44a 08be 3a7d 2d3d 2ea3 623d
00000090: b8f5 763e 4b7c 6f3d 5d73 1a3d 063b ca3e
000000a0: 80cb 3fbb aae5 493e 84d9 f93c f7c9 5ebc
000000b0: d0df 12bd 5492 c23d a9d5 df3f 3848 e6bc
000000c0: 7ae7 6bbd e40a aa3c fdb6 4dbd fcb2 b2bd
000000d0: 4cf6 a6bc 1a3a 793c 6b67 9c3d 62b9 853d
000000e0: 13bf 2e3d 9f4e d73e b4c0 a93d 5de6 2fbf
000000f0: 9879 283d dc4e 99bd 80d5 fabc 44dc 91be
00000100: 74d3 bcbb d8e4 2240 da14 fa3d c5cc 8bbe
00000110: 8cde 42bd 9431 b03c 9d11 efbc 1c84 0abc
00000120: e2a8 d83c 874d 893d fe78 313c ad45 853c
00000130: c5b6 923d 20cb 693d 5502 a83d b3ca 333d
00000140: 494b ccbd 30f8 74be fd2d 0abe 860f 303d
00000150: 1904 7a3d aaa2 b03c ecc2 44bc 3408 91bd
00000160: a941 603d 7fbc bebd 730e bbbd 87b0 763d
00000170: 3659 8a3e ba71 cebc f219 533e 0b83 01be
00000180: 38f7 06bd 7f20 6e3e 4452 833d 8289 dd3c
00000190: 494c 213e c6cc 293e 10fe 0540 b79f a13e
000001a0: 97a9 5ebe 48e6 2bbd 96fc a4bd abc8 423d
000001b0: 7a11 dcbd 6e1c 74bd 44ee 8c3c 2aea 853c
000001c0: 0658 523e cffd 843d b2d4 553e f845 e73b
000001d0: 26b7 913d 15fb 003e 0aa1 2fbc c024 12bc
000001e0: b4d2 84bd 432f e43d 8d49 17be f296 a63d
000001f0: 501a 143d 70b7 3abd 1816 583e ba38 183d
00000200: 0f84 d2be 41b5 d2be b525 db3d 5121 5dbd
00000210: c91f 1e3e f0e4 febb 38f1 1e3e c766 8cbd
00000220: ba53 00be af88 683c 1dcb ae3d ad67 b53c
00000230: a87d c7bd 952d 4a3f bc54 84bd 9085 793d
00000240: d6ec 9f3d e62c 9d3c 4202 24be 9447 a2bd
00000250: c343 833e ffc8 b4bd 54d1 9d3d 70b0 ad3e
00000260: dc49 053d 9c77 253d 18b3 c83d 7eea a7bd
00000270: efa6 f03d 70d6 ebbd cc4b 8fbd a280 c93c
00000280: 14a9 573d 62b4 a5bb d75b 8f3d b311 a5bd
00000290: 80ce c83c 747e b2bd 98e7 783d 9577 403c
000002a0: 2f73 053d 4de3 86bc ec1f 3d3b 3b71 6f3c
000002b0: 956e 813d 2e76 ae3d f7a6 e7be a04f 54bc
000002c0: 9c65 813c 1b2f 14bd d466 4cbe f074 c83c
000002d0: 3acb 973d 0006 093d a5b9 563d 4aa2 ffbc
000002e0: 18fa 2e3d 21df 89be 4bf7 1a3d 1e9d adbe
000002f0: cffb e5bd beb4 6bbd b114 67bd 388d 5e3f
00000300: 6078 fa3c e226 cfbd c10f a23c 714c 37bf
00000310: 2367 cebc c645 743d 69b3 a43d a420 4a3d
00000320: d5ea 313c 879c 853c 547c 4a3c 1b41 61bd
00000330: a9c5 c5bd 53bd b33d 19b9 2d3d b6bb 003e
00000340: 0dd3 77bc a739 fa3c 4914 7c3e 0ea4 973c
00000350: 8db3 0f3d fcce 92bc 7a42 503d df02 07be
00000360: d7af 8fbd 9ffc dfbd 7c7d 11be d827 e13d
00000370: c087 bebd ae6a 9fbd e8ec b93b 04e2 e1bd
00000380: a0d2 42bc 7ed2 5d3e 59d3 29bd 056f 29be
00000390: 8e4a d73e 7d5e 26be 38e8 413f f018 af3b
000003a0: 9bba 7d3d 50d5 27bb 445d cfbd 9cc5 30bd
000003b0: 8842 0bbe 915d 95bd 7e1d 60bd 1409 8e3d
000003c0: b23d b7bc bba1 66bd ac6c 39bc c41a a33c
000003d0: 5112 883d 3a50 f1bb 484e 94bd 48c7 cd3c
000003e0: cefd abbd 6435 503d fc2e 983e 7a73 ed3c
000003f0: e53d 7bbd 3152 433d 25be 8f3d 222e 343d
-0.22768237 0.047186494 0.14870794 0.28944927 -0.055183813 0.11431545 0.045012627 -0.054011106
-0.030953236 -0.05618827 0.050666116 -0.008169304 0.06824724 -1.2292812 -0.0649474 -0.0063780965
-0.021057777 0.09313244 0.6098972 -0.027460687 -0.085952386 -0.014401794 0.002624507 0.53827024
0.05685736 2.1327305 0.10160166 0.063637786 0.23107146 -0.060158323 -0.17385814 0.035204515
-0.0027571972 -0.13309842 0.042355753 0.0553314 0.24117172 0.058468144 0.037707675 0.39498156
-0.0029265583 0.19716516 0.030499227 -0.013597957 -0.035857975 0.09500566 1.7487079 -0.028110608
-0.0575938 0.020757146 -0.05022334 -0.08725545 -0.020381115 0.015211606 0.07636913 0.065294996
0.04266269 0.4205217 0.08288708 -0.6871088 0.041131586 -0.07485744 -0.030619383 -0.28488362
-0.005762512 2.5452175 0.12211008 -0.27304664 -0.04757552 0.021508016 -0.029183203 -0.008454349
0.026447717 0.0670424 0.010832069 0.016268576 0.07163767 0.05707848 0.0820357 0.04389448
-0.09975297 -0.23922801 -0.13494106 0.042983554 0.061039064 0.02156194 -0.012009364 -0.07081643
0.05475012 -0.093132965 -0.09133615 0.060226943 0.27021188 -0.025200713 0.20615366 -0.12647645
-0.03295061 0.23254584 0.06412175 0.027043108 0.15751757 0.16582021 2.0936317 0.31567165
-0.21744381 -0.04196766 -0.080559894 0.047554653 -0.10745521 -0.059597425 0.017203458 0.01634701
0.20541391 0.06493723 0.20881918 0.0070579015 0.07115011 0.1259578 -0.010719547 -0.008919895
-0.06485501 0.11141827 -0.14774151 0.08134259 0.036157906 -0.045585096 0.21102178 0.037163474
-0.41116378 -0.4115391 0.107005514 -0.05398685 0.15441813 -0.0077787563 0.15521705 -0.06855541
-0.12531939 0.014192744 0.085348345 0.022144163 -0.09740764 0.789758 -0.06461474 0.06091839
0.07808845 0.019186448 -0.16016486 -0.07923809 0.25637636 -0.088273995 0.07705942 0.33923674
0.03254114 0.04039727 0.097997844 -0.08199023 0.1175059 -0.1151551 -0.06996879 0.02459747
0.05265148 -0.0050569037 0.06999939 -0.080600165 0.02451253 -0.08715525 0.06076774 0.011747261
0.03258055 -0.016465807 0.0028858138 0.014614399 0.0631992 0.08518635 -0.45244572 -0.012958437
0.015795521 -0.036177736 -0.19961101 0.024469823 0.07411809 0.033452988 0.05242314 -0.031205315
0.042718977 -0.26928046 0.037833493 -0.33908933 -0.11229669 -0.057545416 -0.056416217 0.8693423
0.030574977 -0.10114838 0.019782903 -0.71601015 -0.025195664 0.059636854 0.08042032 0.049347535
0.010859211 0.01630999 0.012358744 -0.05499373 -0.09656841 0.08776345 0.04241285 0.12571606
-0.015126002 0.030545069 0.24617113 0.018510845 0.035083342 -0.017920963 0.050844647 -0.13184689
-0.07015961 -0.109368555 -0.14208025 0.10993928 -0.09303236 -0.077840194 0.0056739934 -0.11029437
-0.011891037 0.21662328 -0.041461322 -0.16546257 0.42049068 -0.16246982 0.7574496 0.005343549
0.06194554 -0.0025609322 -0.10125211 -0.043157205 -0.13599598 -0.07293237 -0.054715626 0.06935325
-0.022368286 -0.056306582 -0.011317413 0.019910224 0.066441186 -0.0073643 -0.072414935 0.025119439
-0.08398019 0.050832167 0.29723346 0.028985728 -0.061338324 0.047685806 0.07018689 0.04398931

bias f4 [4]
00000000: 12cc d9be 747f d8be a212 133e 6b2a 5abd
-0.42538506 -0.4228474 0.14362577 -0.05326311

weight f4 [1, 128]
00000000: ddbd 4ebe a0bb 613c 0acb 3cbe 6023 81bd
00000010: 5c25 00bb d3ec 80be 94e7 ddbc 2202 163d
00000020: 54e2 efbd c626 c9bc 0668 e5bc 6747 cdbc
00000030: dedb 843b 0688 f8be 0a24 af3b d8a4 7f3b
00000040: 0a02 33bd 1bc2 71bc a66f 30bf f543 343d
00000050: 92d3 5fbd 7858 a6ba 815d 40bc 9b6c e0be
00000060: 2a89 b7bc 4425 00bf d5fe 68bd 1aa2 b13d
00000070: 9e6e adbd 08bc c33d 6c12 00be 9bf3 fc3c
00000080: c6c0 73bd b48c 953c d4be 90bd abdb 22bd
00000090: ea17 003c 4a53 9a3d d9ad 7cbd 15ff 41be
000000a0: 30ee 5f3a ede4 25be b06c 3dbd 8781 adbc
000000b0: d0b8 1e3d e43b 97bd 8aa1 a5be faac 543d
000000c0: f6f7 053d a4c0 1abd 82f7 933d 870f 0b3d
000000d0: 846d e0bc c956 90bc 2f85 32bd 4464 883d
000000e0: f8df 3bbd b1ff 94be f04f 4abd a30c 95be
000000f0: be3d 793c 5983 90bd cc19 cebc ffa5 fdbe
00000100: aa74 373d e547 debe 3e38 43bc 55d8 cfbd
00000110: c08b c33d 07f3 8c3d 9832 ef3a 6ac6 7d3c
00000120: 6dd5 523d 9f93 8dbe 8f78 8abc 2df7 bb3d
00000130: 40d9 51bc 5653 64bd 507d 573d 6fa2 82bd
00000140: 19e4 00bc beac 863c 67ac 04bf 3064 39bb
00000150: 17c5 4fbd 8a20 5ebc 3a40 5d3c bdd3 c73d
00000160: 20e2 ef39 580a 6c3d e1d9 6dbc 8492 27bd
00000170: f65b 39be a5da 43bd 8a9f 48be 5388 4f3d
00000180: 9ef9 53bc 830f d1be b34c 393d 546c 50bd
00000190: cb2c f4bd 1e5c cebd da05 5abe 8901 22be
000001a0: 835e 6fbd c0bd f03b e6d8 d43c 4027 1839
000001b0: d0ad 85bb ff1d 89bd 2539 0d3c 2884 38bc
000001c0: 5668 2ebe b243 01bc 6b3d d1bd b9ff 703d
000001d0: e8f6 cfbb c1a4 f93c f4e4 593c 6724 953d
000001e0: d4ea f9bc 1c22 94bd ef4f 98bd 9bd9 403d
000001f0: 2cd4 af3d a087 553d 20e9 24bd eacd 60bc
-0.20189615 0.013777643 -0.18436828 -0.06305575 -0.0019553518 -0.25180683 -0.027087964 0.036623128
-0.117130905 -0.024554621 -0.028003704 -0.025058461 0.0040545305 -0.48541278 0.0053448724 0.0039008167
-0.043703116 -0.014755751 -0.6892036 0.04401012 -0.05464513 -0.0012691161 -0.011741043 -0.4383286
-0.022404272 -0.5005686 -0.05688365 0.086734965 -0.08468364 0.095573485 -0.12507027 0.030877879
-0.059510015 0.018255569 -0.070676476 -0.039760273 0.007818202 0.075354174 -0.06168923 -0.18944962
0.00085422676 -0.1620061 -0.04624623 -0.021179928 0.03875047 -0.0738447 -0.32349807 0.051922776
0.032707177 -0.037781373 0.07224943 0.033950355 -0.027395971 -0.017619507 -0.043584045 0.06659749
-0.04586789 -0.29101327 -0.04939264 -0.29111204 0.015212474 -0.070563026 -0.025158785 -0.49540707
0.044788994 -0.43414226 -0.011915265 -0.10148684 0.095481396 0.06882291 0.0018249331 0.0154892
0.05147307 -0.27651688 -0.01690319 0.091780044 -0.012808144 -0.055743538 0.05260974 -0.06378638
-0.007866883 0.016439792 -0.51825565 -0.0028288476 -0.05072507 -0.013557563 0.013504082 0.09757183
0.0004575411 0.057627052 -0.014517278 -0.040911213 -0.18101487 -0.047815938 -0.1959211 0.05066712
-0.012937931 -0.40832147 0.04523916 -0.05088456 -0.11922606 -0.10076164 -0.21291295 -0.15820898
-0.058439743 0.0073468387 0.025982331 0.00014510471 -0.004079558 -0.066951744 0.008619581 -0.011261977
-0.17031989 -0.007889675 -0.10216793 0.058837626 -0.006346572 0.030474069 0.013299216 0.07282334
-0.030507483 -0.07233068 -0.07437121 0.047082525 0.085853904 0.052131295 -0.040261388 -0.013720969
