output/2023-04-09_21-25-01/weight/4_test_model.pkl (torch, 41217 bytes, 7 tensors)

weight f4 [64, 6]
000000 3a 72 d0 be e0 c7 fb bd f0 2a 26 3e ba f3 99 3e
       -0.40712148 -0.122939825 0.16227317 0.3006876
000010 36 d5 8f 3e 90 9f 99 be 0c db 17 be f9 a7 3e be
       0.28092355 -0.3000455 -0.14829654 -0.18618764
000020 d7 1f 77 be 90 a7 a2 be f0 f5 1c 3e 8a 7c 9b be
       -0.2413324 -0.31768465 0.15328193 -0.30368453
000030 e8 73 c9 3d 48 e3 59 bd c0 dd 17 3d 9e ad 8b 3e
       0.098365605 -0.053195268 0.03707671 0.27280897
000040 94 8b c6 be d8 4b 7a 3e ec b6 76 3e a8 f5 74 be
       -0.38778365 0.24442995 0.24093217 -0.23921835
000050 6c db 51 be 6c 77 1d 3e 36 1c 50 be 8e 85 6b be
       -0.20493859 0.15377587 -0.20323262 -0.23000166
000060 20 ab 1b 3e dc cc a7 3e 80 84 68 3d 90 3e 67 bd
       0.15201998 0.32773483 0.056766987 -0.05645615
000070 be 99 b7 be 28 e6 11 3e 30 0c 75 be ad 2d 98 be
       -0.35859483 0.14247954 -0.2393043 -0.29722348
000080 78 3c 1d be b0 f4 96 bd 80 18 18 3c 2e 07 98 be
       -0.15355098 -0.07370889 0.009283185 -0.29692978
000090 28 57 60 3e 94 66 86 3d 96 8d c2 be e8 ba 89 3e
       0.21908247 0.06562534 -0.37998646 0.2690041
0000a0 e0 05 cb 3d 8e fc 71 be 8c f1 1d 3e e4 25 b1 3e
       0.0991323 -0.23631498 0.15424174 0.3459922
0000b0 08 23 cf 3d 60 dd 6f 3e e0 fd 52 3e 01 4f 8f be
       0.101141036 0.23424292 0.20604658 -0.27989963
0000c0 cc 8b ca bd 90 75 51 3e 47 4f 92 be a0 23 8d be
       -0.098899454 0.20455003 -0.2857611 -0.27566242
0000d0 78 96 9b bd 6c ea a8 3d 13 70 c0 be b8 38 06 3d
       -0.07597059 0.082478374 -0.37585506 0.032768935
0000e0 1e 5d af 3e d0 44 0a be f9 b9 28 be 88 81 93 be
       0.3425073 -0.13502812 -0.16477193 -0.28809762
0000f0 e5 65 4e be 84 9a b0 3e 86 72 9a 3e d3 ee b2 be
       -0.20156057 0.34492886 0.301655 -0.34947833
000100 38 d1 67 be 67 d9 41 be d4 c5 cc 3e 1d 8e c2 be
       -0.22638404 -0.18930589 0.3999468 -0.3799905
000110 de 99 c5 be 48 6c bb bd 2c 0d c5 bd c4 56 3e 3e
       -0.38593954 -0.091515124 -0.09621653 0.18587786
000120 64 3c bc 3e 90 e1 ce be 24 a8 08 be 3a b8 ae 3e
       0.36764824 -0.40406466 -0.1334539 0.3412493
000130 56 e5 35 be 48 da fb 3d 34 c0 b8 be 7a 3e b7 3e
       -0.17763266 0.12297493 -0.3608414 0.35789853
000140 a0 17 20 bc e0 dd fd 3c 90 26 84 3d 0d ec 58 be
       -0.009771258 0.030989587 0.06452668 -0.21183796
000150 ec d3 38 3e 68 95 48 3d 64 7a 9f bd 98 a8 8b bd
       0.18049592 0.04897061 -0.07787016 -0.06819266
000160 07 5b c8 be 78 0a 1b 3d 48 5e 8f be c0 31 81 3b
       -0.39131948 0.03785178 -0.28001618 0.0039426982
000170 20 39 ed bd 08 52 ad 3e e4 89 fb bd 74 88 6a 3e
       -0.11583161 0.33851647 -0.1228216 0.22903615
000180 b0 96 00 3e 70 55 fc 3d 13 9f 49 be 80 86 95 3c
       0.12557483 0.123209834 -0.19689588 0.018252611
000190 e9 b4 6b be 4c da 79 3e 76 5b a4 be 3e 15 8f be
       -0.2301823 0.2439968 -0.3210103 -0.27945894
0001a0 76 8a ab be 07 d2 aa be e8 0d 9a 3d 54 21 16 3e
       -0.33504075 -0.33363363 0.07522184 0.14661151
0001b0 c8 41 f1 3d 61 44 3c be 04 5b c7 3e 70 04 90 3e
       0.11780125 -0.1838546 0.38936627 0.28128386
0001c0 80 65 c0 bb f4 61 b8 3d b4 df b2 3e 88 c8 44 3e
       -0.0058714747 0.09003058 0.34936297 0.19217122
0001d0 1c 8b ce 3e 48 f4 93 3e 28 95 0d 3e 48 de 4a 3e
       0.40340507 0.2889731 0.1382643 0.19811356
0001e0 ef e2 7b be 38 cc da 3d 2c 59 4e 3e a0 f8 12 3d
       -0.24598287 0.10683483 0.20151204 0.03588164
0001f0 2e 41 09 be 8b 15 aa be b8 24 a1 3e 40 c1 94 be
       -0.1340377 -0.3321956 0.31473327 -0.29053688
000200 75 83 cd be 65 77 b8 be 68 32 84 3e f6 eb 8d be
       -0.40139356 -0.3602859 0.25819707 -0.27719086
000210 9a 79 c3 3e 20 db 90 3e 34 71 3f 3e d0 53 ee bc
       0.38178712 0.2829218 0.18695527 -0.0290927
000220 dc 28 b2 3e f8 05 60 3d 12 19 8f be e0 be 4a 3e
       0.34796798 0.054693192 -0.27948815 0.19799376
000230 d0 d1 ab be 20 76 0b bc 40 97 d6 3d 88 3c 8f 3d
       -0.33558512 -0.00851205 0.104780674 0.06993967
000240 b4 31 9e 3d 72 47 ca 3e f0 e3 d4 3d 20 d5 3b bc
       0.07724324 0.39507633 0.10395038 -0.011464387
000250 88 e9 ce 3e e8 0a b6 3e 7d ee bb be f2 f7 06 be
       0.40412545 0.35555196 -0.3670539 -0.13180521
000260 ab dc d0 be 80 6f 2b 3b 2c 04 a2 be a8 c2 a9 be
       -0.40793356 0.0026158988 -0.31643808 -0.33156323
000270 34 25 b4 3d 26 38 68 be 24 05 a1 3d a6 f2 3c be
       0.087961584 -0.22677669 0.078623086 -0.18451938
000280 7e 5f b0 3e b0 a8 92 bd 08 87 9e 3e 9c 1c cf bd
       0.34447855 -0.07161081 0.30962396 -0.10112879
000290 56 cd ae 3e 9c 47 39 3e 00 92 32 bd ca c2 cb 3e
       0.34141034 0.18093723 -0.043596268 0.3979705
0002a0 70 25 97 3d c9 e1 5c be 88 96 9d 3e 70 e9 91 3e
       0.073801875 -0.21570505 0.3077891 0.2849841
0002b0 4a c0 b8 be 88 3e c7 3e 72 35 af 3e 88 b1 6a bd
       -0.36084205 0.38914895 0.34220463 -0.057298213
0002c0 50 0c 82 bd a8 3e 64 bd b9 0d a1 be 14 c8 79 3e
       -0.06350005 -0.055723816 -0.31455782 0.2439273
0002d0 83 49 7a be 32 89 6e be 18 71 56 3e a4 81 49 3e
       -0.24442105 -0.23294523 0.2094158 0.1967836
0002e0 d1 1e 82 be 5c db a3 3e b6 ca 87 3e 9c 00 2b 3e
       -0.25414136 0.32003295 0.26521844 0.16699451
0002f0 fa 8c 81 be d2 eb b9 3e 50 bc ac bc a0 c3 13 3e
       -0.2530287 0.3631273 -0.021085888 0.14430094
000300 bc 9d b4 3e 32 84 c1 3e 02 66 ae 3e 51 fb a4 be
       0.35276592 0.3779617 0.340622 -0.3222299
000310 02 63 bd be 32 0e 91 be d6 38 85 be 14 15 5a be
       -0.369896 -0.28331143 -0.26019925 -0.21297103
000320 a2 76 8b be be 5e 99 3e 80 f2 bb be aa 61 84 3e
       -0.27238947 0.29955095 -0.3670845 0.25855762
000330 f0 47 1d bd ea 0f 02 be 58 5d f8 3d 9a b0 cf be
       -0.038398683 -0.12701383 0.12127179 -0.40564424
000340 24 ab 31 3e 50 b9 af bc 54 cb c1 be 66 7b b7 be
       0.17350441 -0.021450669 -0.3785044 -0.35836333
000350 30 7b e3 bc 89 c3 9c be 14 7a 97 be 12 0a 83 be
       -0.027768701 -0.3061793 -0.29585326 -0.2559362
000360 80 31 27 bb 0a 1d 96 3e 76 32 9c be d0 b1 c0 bd
       -0.0025511682 0.2931903 -0.3050725 -0.09408915
000370 5c b4 9b 3e 08 ca 00 3d 24 72 b0 be a6 67 97 be
       0.3041104 0.031442672 -0.34462082 -0.29571265
000380 70 00 01 bd f4 9b 5f 3e 38 41 25 3e 88 e6 c1 3e
       -0.031494558 0.21836835 0.1613816 0.37871194
000390 98 62 fc 3d e8 e9 3e 3e 8a 75 56 be 8c 8e 1d 3e
       0.12323493 0.18643916 -0.20943275 0.15386409
0003a0 fc b7 23 3e b6 17 c5 3e a4 ed cc be 80 84 0e 3d
       0.15988153 0.38494653 -0.40025055 0.03479433
0003b0 34 7a 71 3e 16 93 ab 3e 34 27 19 3e e8 7d 07 3e
       0.23581773 0.33510655 0.14956361 0.13231623
0003c0 3f b5 58 be 30 91 24 3d a0 20 10 3c 80 3d b4 3b
       -0.2116289 0.040177524 0.008796841 0.0055004954
0003d0 7a 81 8a 3e 00 4d ba bd 09 fe 5a be 12 57 b0 be
       0.27051908 -0.09096718 -0.21385969 -0.3444143
0003e0 48 28 dd 3d 5d 66 bf be 20 b4 8f 3e b7 a8 6b be
       0.10798699 -0.37382784 0.28067112 -0.23013578
0003f0 f4 84 93 3e e8 5b f5 3d 0e 89 b7 3e 50 cb f2 3d
       0.28812373 0.1198042 0.35846752 0.11855185

bias f4 [64]
000000 30 67 77 3d 58 20 86 3e d8 29 07 3e 86 2c 05 be
       0.06040114 0.2619655 0.13199556 -0.13005266
000010 6d d0 55 be fa f6 a5 3e 3c 89 10 3e 1f 92 92 be
       -0.2088029 0.3241499 0.14114851 -0.28627107
000020 d4 52 85 bd 2c 91 c4 bd c8 2c c4 be 40 61 69 3d
       -0.06509939 -0.09598002 -0.38315415 0.05697751
000030 94 04 5d 3e 55 cc 83 be a0 25 cc bd 0e 57 a2 be
       0.21583778 -0.2574183 -0.09968114 -0.31707042
000040 30 8a 17 3e c8 63 fc bd 88 d2 04 be a0 5d bd 3d
       0.14798808 -0.12323719 -0.12970936 0.09246373
000050 0f 5a 9b be 00 b9 c1 bc 80 22 c6 bb 38 04 3c 3d
       -0.30342147 -0.023647785 -0.006046593 0.04590246
000060 d0 da 60 3e c0 f6 d2 bc 91 d1 2f be 0b 37 30 be
       0.2195847 -0.025752425 -0.17169787 -0.17208497
000070 d8 bc 8a 3d ec c0 8c 3e ea b3 82 be 80 6a 02 bb
       0.067743 0.27490938 -0.2552789 -0.0019899905
000080 04 42 cc 3e 44 47 cd 3e 73 01 74 be 18 1b 06 3e
       0.39894116 0.40093434 -0.23828678 0.13096273
000090 54 ad a6 3d ca 10 c3 3e e8 f9 4b be aa d9 9d 3e
       0.081385285 0.38098747 -0.1991955 0.30830127
0000a0 2c 9e 9c 3d 6c f6 84 3e 3c 9b 37 be 90 97 2f bd
       0.076473564 0.25969255 -0.17930311 -0.04286915
0000b0 8a 76 13 be 80 3f 44 3e c6 ac cd 3e c8 89 f5 3d
       -0.14400688 0.19164848 0.40170878 0.1198917
0000c0 b4 1e b4 bd d8 56 8e 3d f3 24 28 be a0 7a 3d bd
       -0.08794919 0.06950158 -0.16420345 -0.046259522
0000d0 1e 01 bc 3e fc 81 1e 3e 84 9a 03 3e 74 4b 6c 3e
       0.36719602 0.15479273 0.12851912 0.23075658
0000e0 68 34 e3 3d 54 ca 54 3e 38 98 8d 3d 16 bc bc 3e
       0.1109398 0.20780307 0.06913799 0.36862248
0000f0 6c 90 db bd cc d0 9e 3e 91 51 89 be 8d 3e b7 be
       -0.10720906 0.31018674 -0.26820043 -0.3578991

weight f4 [128, 64]
000000 38 bd 4c bd b4 a2 70 3d ce af 9d 3d 1c 12 c5 bd
       -0.04998514 0.058748916 0.07699548 -0.09622595
000010 0c f8 2d 3d 28 c2 36 3d c0 9f 7e bb d8 f4 c6 3c
       0.042472884 0.044618756 -0.0038852543 0.024286672
000020 10 d8 1e 3d 9e a2 ed bd c4 88 79 3d 34 8d 8e bd
       0.038780272 -0.116032824 0.060921445 -0.06960526
000030 04 75 b2 3d d6 f9 c1 bd 62 ba 92 bd 8c 62 63 3d
       0.08713725 -0.094714805 -0.07164456 0.055513903
000040 be 2a a8 bd 60 ee ad bd 00 00 80 b5 a8 d4 43 3d
       -0.082112774 -0.08492732 -9.536743e-07 0.047810227
000050 d0 25 2d 3c 26 80 e9 3d 4e ef a6 3d e0 5e de bd
       0.010568097 0.114013955 0.081511125 -0.1085794
000060 02 fb c2 3d 62 83 ab bd 60 f1 60 bc 04 21 5f bd
       0.09520532 -0.08374669 -0.013729423 -0.054474846
000070 a4 df 78 bd ac 92 f4 3d c4 f3 28 3d be e9 a4 bd
       -0.060760155 0.11942038 0.041248098 -0.08052395
000080 40 e8 d2 bb 68 46 07 bd 78 69 0d 3d 1c 09 c1 bd
       -0.0064363778 -0.03302613 0.03452441 -0.094255656
000090 c2 37 dc 3d 20 a3 b5 bb 8e ac 85 bd ac b6 15 3d
       0.107528225 -0.0055431277 -0.06527053 0.036551163
0000a0 d0 63 22 3d 78 f6 af 3d 64 ac 63 bd c2 8a 9f 3d
       0.03964597 0.08591932 -0.055584326 0.07790138
0000b0 78 b1 ba 3d 94 10 45 bd de 19 8f bd e8 27 a9 bc
       0.09115881 -0.048111513 -0.06987356 -0.020648912
0000c0 a0 6b 2f 3d e8 c2 e8 3d c0 2b 51 3b 40 13 03 bb
       0.04282725 0.113653004 0.0031916946 -0.0020000488
0000d0 94 10 f3 3d 78 a8 f6 bc dc 0a 06 bd 90 3b 39 bc
       0.118683964 -0.030109629 -0.0327252 -0.011305705
0000e0 82 6a 8e bd d4 8f a6 3d 20 84 70 bd c0 f4 b6 3b
       -0.069539085 0.08132902 -0.058719754 0.0055833757
0000f0 64 fe 50 3d 28 a5 fd bd 88 e9 d4 3c 80 dd 9f ba
       0.051023856 -0.12385017 0.025990263 -0.001219675
000100 40 d5 30 bc 40 f6 40 3d b8 2f 5f 3d a0 84 c8 3d
       -0.01079303 0.047109842 0.054488868 0.09790921
000110 40 ba d8 3c 14 0a 43 3d 28 9b b7 3d 04 5b 4d bd
       0.026455998 0.047617033 0.089651406 -0.050135627
000120 a0 a1 f0 bd a8 31 c6 3d 46 8a fd bd b6 d3 c2 bd
       -0.117495775 0.0967744 -0.12379889 -0.09513037
000130 b8 98 75 3d b4 9b 2b bd 80 06 1c 3b e8 5c d9 3c
       0.059960097 -0.041896537 0.0023807585 0.026533559
000140 02 4d cc bd 24 70 06 3d b8 5b f3 3d 9a b8 98 3d
       -0.099756256 0.03282179 0.11882728 0.07457085
000150 88 ed d0 bd 64 a6 47 3d 58 c4 9f 3c 64 60 28 3d
       -0.102015555 0.048742667 0.019502804 0.04110755
000160 44 6f 50 3d 1a 32 ca bd c8 97 5a bd 44 0a 21 3d
       0.05088736 -0.09872837 -0.053367406 0.03931643
000170 d6 10 f3 3d 9c 19 1f bd c2 b0 de bd 1e 9d 81 bd
       0.118684456 -0.038842782 -0.108735576 -0.06328796
000180 54 63 9d bd bc 66 e7 bd b8 0e f7 bc 40 40 5e bd
       -0.07684961 -0.11298892 -0.030158386 -0.054260492
000190 48 19 d4 bc 70 4e 46 bc 0e b4 de 3d 30 bd 73 bd
       -0.025890961 -0.012103662 0.108741865 -0.059506595
0001a0 30 ae 69 3d 94 b1 d3 3d a0 0f 22 bd b0 66 3e 3d
       0.057050884 0.10336605 -0.039565682 0.04648465
0001b0 80 ce 1f 3c 82 9a 9c 3d e4 ac b5 bd fc 7a 6a 3d
       0.009753823 0.076466575 -0.08870867 0.057246193
0001c0 58 ac bc 3d fe 50 87 bd 9a 92 db 3d b8 23 76 3d
       0.092125595 -0.06607245 0.107213214 0.060092658
0001d0 94 18 c0 3d 60 24 4e 3d 3a a1 d7 bd 62 0c 9d bd
       0.09379688 0.05032766 -0.105287984 -0.076683775
0001e0 ea d5 cf 3d 94 aa c3 3d 48 70 ee bc ea f1 ee bd
       0.10148223 0.095540196 -0.029106274 -0.11667235
0001f0 68 4b 69 3d 10 4b 24 bc 04 30 2d 3d 40 80 6f 3d
       0.05695668 -0.010027662 0.04228212 0.058471918
000200 e0 52 9a bc 66 04 aa 3d 46 09 8b 3d 6e aa d7 3d
       -0.018838346 0.0830162 0.06788878 0.10530554
000210 5c 83 ad 3d 50 59 9b 3d fc 12 53 3d 7c dd c3 bd
       0.084723204 0.075853944 0.051531777 -0.09563729
000220 28 a8 67 bd 3e 93 bf 3d 4c c0 a7 bd 96 5b d2 3d
       -0.05655685 0.09354256 -0.081909746 0.10271375
000230 4c 8b 01 3d 7c 24 2b bd e0 ae 45 3c 32 8b f9 bd
       0.031626984 -0.04178284 0.012065619 -0.121847525
000240 50 0b ca 3d d4 1a 7c bd 8e 7e 99 3d 34 0b 82 bd
       0.09865439 -0.061549023 0.074948415 -0.06349793
000250 28 81 b5 bc 40 05 a1 bd c8 68 fd bc b0 08 24 3d
       -0.022156313 -0.078623295 -0.030933753 0.040047348
000260 a0 6f 40 bc f8 06 fd 3d 94 0b 55 3d 44 1e 85 bd
       -0.0117453635 0.12354845 0.052012995 -0.06499913
000270 a8 1e 93 3d 40 1b ce bc dc 4a 76 3d f0 a8 79 3d
       0.071835816 -0.025159478 0.060129985 0.060952127
000280 8c aa 3c 3d 00 05 b5 bc 68 04 9b 3d 7e dd e7 3d
       0.046061084 -0.02209711 0.075692 0.11321543
000290 30 80 32 bd 58 04 23 3d bc 24 84 bd 7a 13 dd bd
       -0.04357928 0.039799064 -0.06452319 -0.107947305
0002a0 2a 80 a6 bd d0 b3 4b 3d 18 e3 52 bd 14 c7 80 3d
       -0.08129914 0.04973203 -0.051486105 0.06287971
0002b0 5c 78 5a bd 82 0d e3 3d 08 f9 19 bd 06 a6 9f bd
       -0.05333744 0.11086561 -0.03759101 -0.07795338
0002c0 c2 11 dd 3d cc 6b 48 bd ec 0f 94 3d 78 35 97 bc
       0.10794403 -0.048930928 0.07229599 -0.018458113
0002d0 2c 1f 2e 3d 40 c5 90 3c 00 51 f4 3c 8e 66 ad bd
       0.042510197 0.017672181 0.02982378 -0.084668264
0002e0 6c 30 7d 3d 58 7e 6a 3d 10 05 08 3c 5c 86 87 bd
       0.061813757 0.057249397 0.008301988 -0.06617424
0002f0 f0 70 88 3d 70 ee 85 3d b8 df fc 3d bc 55 5f 3d
       0.06662166 0.06539619 0.123473585 0.054525122
000300 10 04 eb bc 12 d8 9e bd ba 29 fc bd 80 19 f3 3c
       -0.02868846 -0.07756056 -0.12312646 0.029675245
000310 dc 97 80 bd dc 67 49 bd b0 46 5f bc 68 73 7b 3d
       -0.06278965 -0.049171314 -0.013627693 0.061389357
000320 50 fb 8c 3c 30 54 48 3c 16 c2 9e 3d 4c 28 5a 3d
       0.017209679 0.012227103 0.07751863 0.053261086
000330 74 1f 12 3d 40 28 bf 3d 16 73 e5 3d d4 1e 7a 3d
       0.035674527 0.09333849 0.112035915 0.061064556
000340 ac 63 6a bd c8 39 87 bd 36 d0 d5 bd 78 fe 21 3d
       -0.05722396 -0.06602818 -0.10440104 0.03954932
000350 28 7f e6 bc 68 77 6e bd c4 20 c6 bd 68 f8 39 bd
       -0.028136805 -0.058219343 -0.09674218 -0.045402914
000360 a0 7f a7 bd e0 ae c1 bd 98 2b 4d 3d e4 3d 90 3d
       -0.081786394 -0.09457183 0.050090402 0.07043055
000370 64 33 60 3d 38 2f da bd 60 60 a2 bd 5c 0a 11 bd
       0.05473651 -0.106535375 -0.07928538 -0.03541027
000380 34 70 b8 3d 54 30 18 3d 50 a7 62 bc 6c ad 35 bd
       0.09005776 0.037155464 -0.013833836 -0.04435484
000390 46 06 ed 3d 00 49 dc bc 00 7f ea ba d6 12 8c 3d
       0.11573462 -0.026890278 -0.0017890632 0.0683953
0003a0 50 60 0b 3d 40 5f 9f 3d 20 b0 b9 3b 1c 3e 14 3d
       0.034027398 0.07781839 0.0056667477 0.036192045
0003b0 70 7b 5e 3d 28 da 81 bd 96 28 a5 3d 6c 0c 1d 3d
       0.054316938 -0.06340438 0.08064382 0.038341925
0003c0 bc 9b 44 bd 84 cb 26 bd 90 2a 0f bd 28 ee 77 3d
       -0.048000082 -0.04072143 -0.0349527 0.060529858
0003d0 4a 89 ef bd 38 e4 ba 3d bc 78 ec 3d d0 6e 24 3d
       -0.11696108 0.091255605 0.11546466 0.04014474
0003e0 38 f3 e8 bc 48 38 1e 3d 40 b0 96 3b 44 9c c8 3d
       -0.028436288 0.038627893 0.0045986474 0.0979543
0003f0 48 45 0b bd fc 08 79 3d 22 1d e3 3d a0 c1 7f bc
       -0.03400162 0.060799584 0.11089541 -0.015610129

bias f4 [128]
000000 f4 68 26 3d 80 95 0d bb fe 67 82 bd 68 d9 90 bd
       0.040627435 -0.0021604002 -0.06367491 -0.07072717
000010 4e c2 83 3d 8e 42 84 bd e0 7b e0 bc 18 22 8c bc
       0.06433545 -0.06458007 -0.027402818 -0.0171061
000020 1a 5a b1 3d 20 90 96 3d 9c fa c4 bd 40 cf 15 3b
       0.08659764 0.073517084 -0.096181124 0.0022859126
000030 40 79 04 bc 92 c6 d6 3d 2c 97 0a bd dc 83 37 bd
       -0.008085549 0.10487093 -0.033835575 -0.044803485
000040 d0 a4 c7 bc 08 8b 6e bd a0 d2 91 3d 10 83 ca 3d
       -0.02437058 -0.05823806 0.07120252 0.098882794
000050 88 17 15 bd 48 d7 85 bc e0 5f 11 bc d0 59 30 3c
       -0.036399394 -0.016338006 -0.008872956 0.0107636005
000060 46 b1 b9 bd b0 a8 34 bc 40 af 03 bc 84 0f c4 bd
       -0.09067015 -0.011026546 -0.008037388 -0.09573272
000070 e0 7a c2 bb aa cb e9 bd f4 e9 58 3d 86 35 f3 bd
       -0.005935058 -0.11415799 0.05295749 -0.11875443
000080 80 a1 fb 3c 46 ec 88 3d 9c cf 9c bd 00 77 91 3d
       0.030716658 0.066856906 -0.07656786 0.071027756
000090 c4 41 85 3d c8 d8 32 3d e2 41 80 3d 58 a5 97 3c
       0.065066844 0.04366377 0.06262566 0.01851146
0000a0 c0 7c 71 3c 24 0f db bd c8 f8 11 bd 00 d4 7d bc
       0.014739215 -0.10696247 -0.035637647 -0.015492439
0000b0 f0 f9 7e bd e6 51 c1 3d da 7c 9f 3d 42 08 81 bd
       -0.062250078 0.09439449 0.077874854 -0.06300403
0000c0 ac 79 d5 bd 30 e9 91 bd c4 74 34 bd e4 01 fe 3d
       -0.10423598 -0.07124555 -0.04405667 0.12402704
0000d0 f8 32 7d 3d ba f9 af bd 24 e8 13 3d 50 bc 16 bd
       0.061816186 -0.085925534 0.03611006 -0.036800683
0000e0 18 c3 fa bc d0 62 27 bd e0 c1 9b bd c0 51 a3 bd
       -0.030610606 -0.04086572 -0.07605338 -0.07974577
0000f0 62 ef b4 3d b4 65 18 bd 68 2c c6 3c 60 1b ad bb
       0.08834721 -0.037206367 0.024191096 -0.0052828044
000100 60 fa cf 3d 8a ee 88 3d 92 a2 c2 3d f0 3e c7 3c
       0.10155177 0.06686123 0.09503664 0.024322003
000110 18 5a 2a bd fa 51 8f 3d 84 3b eb 3d 76 38 94 3d
       -0.041589826 0.06998058 0.11485961 0.072373316
000120 68 01 66 3d f8 04 46 3d 10 6f 94 3c 4e 5d 98 3d
       0.056153685 0.048344582 0.018119365 0.074396715
000130 98 75 50 3d 70 20 3a bd 28 24 09 3d 6e 5f 8d bd
       0.050893396 -0.04544109 0.033481747 -0.069029674
000140 c0 05 3d 3d b8 09 2a bd 0c fa eb bd 80 65 ca ba
       0.04614806 -0.041513175 -0.11522302 -0.0015441626
000150 b4 fd 9e bd 80 2c c8 ba 56 34 99 3d a0 09 47 bd
       -0.07763234 -0.0015272051 0.074806854 -0.048593163
000160 d0 28 50 bc 84 4d d4 3d b0 39 00 3d 08 06 a8 bd
       -0.012705043 0.103663474 0.031305015 -0.08204275
000170 e4 d8 63 bd a4 a6 f4 3d bc 4e d4 bd 9a 4a 8c 3d
       -0.055626765 0.11945847 -0.1036658 0.068501666
000180 c4 37 0d 3d f8 22 3d bd 6e 53 83 bd 32 d8 aa 3d
       0.03447701 -0.046175927 -0.06412397 0.08342017
000190 a8 d5 f1 3c 40 93 be bd 16 f5 9e 3d 1e e6 a2 bd
       0.029520825 -0.093054295 0.0776159 -0.079540476
0001a0 98 c6 bc bd 30 1d 10 3c 70 3d 77 3d 30 7b f4 3c
       -0.09217566 0.008796021 0.060361326 0.029843897
0001b0 ba 86 f5 bd f2 bd c2 3d 90 92 12 bc c0 c1 1a 3d
       -0.11988588 0.095088854 -0.008946076 0.03778243
0001c0 f0 9e aa bc b0 97 d4 3d ac 15 ce bd 4c 69 2c bd
       -0.02082774 0.103804946 -0.10062727 -0.042092606
0001d0 60 44 b6 bc 08 b7 c9 3c 88 2b c6 3c 36 57 ad 3d
       -0.0222494 0.024623409 0.02419068 0.084639
0001e0 d4 98 a1 3d 80 c0 b0 ba 2e 29 98 bd 28 e3 4f 3d
       0.07890478 -0.0013485104 -0.074297294 0.050753742
0001f0 f8 26 c5 3c c0 d0 5e 3c 80 9e e4 bb 5a ae c9 bd
       0.024066433 0.013599575 -0.0069769025 -0.09847708

weight f4 [4, 128]
000000 24 b8 e1 3c 30 aa 90 3b 6e 8c da bc 4a b1 06 3d
       0.027553625 0.004414819 -0.02667829 0.03288392
000010 c0 69 2f 3b e4 d3 d7 3c 26 76 8c bd 0a 71 1e 3d
       0.0026765913 0.026346155 -0.068584725 0.03868202
000020 34 95 c4 bc 00 6f 93 ba 12 94 44 3d cf 5c 90 3d
       -0.023996927 -0.001124829 0.047992773 0.07048952
000030 ad 04 98 3d 13 a1 b2 3d 50 09 86 bb 87 50 8a 3d
       0.07422767 0.08722129 -0.0040904656 0.067536406
000040 1a 3f 11 3d ea e9 5b 3d 51 97 68 bd 00 cb 05 bc
       0.03546057 0.053689875 -0.05678493 -0.008166075
000050 38 9b 03 3c 43 47 81 3d 96 7d f2 bc 08 0b 7d 3c
       0.0080326125 0.0631242 -0.0296009 0.015444525
000060 5c 48 91 bc 63 32 47 bd e8 9d 78 bd 80 b6 dc 3b
       -0.017734699 -0.048632037 -0.060697466 0.006735623
000070 ca 05 47 3d b3 c3 3a bd 30 8a 8a bb 0a 91 78 3d
       0.048589505 -0.04559679 -0.004227899 0.060685195
000080 c2 53 a0 bd 60 7b 0f 3b f3 e1 62 bd 26 f9 5b 3d
       -0.078284755 0.0021893606 -0.055391263 0.053704403
000090 48 ca 03 3c e2 ea 3f 3d c4 dc cc 3c 8e 8a 50 3d
       0.008043833 0.04685486 0.025007613 0.050913386
0000a0 88 c5 03 3c a0 18 97 3b 1b 36 ac 3d 0c f2 34 bd
       0.008042701 0.00461109 0.08408757 -0.044176146
0000b0 5f c9 83 3d d0 66 45 bc 9d 47 9c bd aa 8c 3f 3d
       0.06434893 -0.012048438 -0.07630847 0.046765007
0000c0 92 b7 74 bd a1 ae 97 3d 88 d2 66 bc e3 0e a4 3d
       -0.05974538 0.07406355 -0.0140882805 0.08010652
0000d0 38 70 2d bc aa b1 1a 3d 88 36 25 bd c1 e1 b0 3d
       -0.010585837 0.03776709 -0.04033521 0.08636809
0000e0 9a 51 58 3d 8a 7f 7f 3d a1 57 87 bd e5 63 86 bd
       0.052812196 0.06237749 -0.06608511 -0.06562022
0000f0 12 56 3f bd f2 c7 00 bd 2e df 2d bd 86 91 06 3d
       -0.046712942 -0.031440683 -0.04244917 0.032853626
000100 57 f5 af 3d 14 58 11 bd 4e b2 4f 3d a0 37 6d 3b
       0.08591717 -0.03548439 0.050707154 0.0036196485
000110 17 e8 a1 bd 54 c3 24 bd 52 0a 79 3d 6d 0c 9e 3d
       -0.07905596 -0.040225342 0.060800858 0.07717214
000120 30 35 a4 bd ef 2b a5 3d c6 87 3f 3d 68 2f 0d bc
       -0.08017957 0.0806502 0.046760343 -0.00861726
000130 4e 06 3a bd 8d 23 84 3d 00 3d 8b 39 30 7f 55 bd
       -0.04541617 0.06452093 0.00026557595 -0.05212325
000140 b4 08 91 bd 3b fc 86 3d 70 c6 52 bc 90 86 08 bc
       -0.07081738 0.06591078 -0.012864694 -0.008332863
000150 25 4d 21 bd c2 36 4d 3d e0 2b 0e bb 0e 5b 4f 3d
       -0.03938021 0.05010105 -0.0021693632 0.050623946
000160 e6 ce 06 bd b1 9a 0d bd 7e 6b 51 3d 68 31 51 bd
       -0.032912157 -0.034571353 0.051127903 -0.051072508
000170 b1 a1 95 3d 4a c9 35 3d b0 68 2c bc 2e 15 0d 3d
       0.07306231 0.044381417 -0.010523006 0.034444027
000180 d2 78 e8 bc 14 54 df 3c 96 d0 98 bd b8 35 d6 bc
       -0.028377924 0.027261771 -0.074616596 -0.026148662
000190 d7 1e 82 3d dc 50 10 bd 00 f1 b0 b9 c3 78 98 bd
       0.063535385 -0.035233364 -0.00033748895 -0.074449085
0001a0 e1 59 24 bd 20 f3 9c 3c 20 81 f7 3c 62 af 36 3d
       -0.040124778 0.0191589 0.030212939 0.04460085
0001b0 46 40 3b 3d b9 a6 2a bd fa b4 6c 3d aa 6a 83 bd
       0.045715593 -0.041662905 0.05778978 -0.06416829
0001c0 12 55 2e 3d 2e 5c 93 bd c0 ac 33 3b 86 76 54 3d
       0.042561598 -0.07195316 0.00274162 0.051870845
0001d0 e8 40 81 3c 7d a5 8d 3d 92 10 1b 3d d8 eb 0d bc
       0.01577802 0.0691633 0.0378576 -0.008662187
0001e0 c5 a0 95 bd 98 47 1e bc 54 21 c8 3c c7 1e 85 3d
       -0.07306055 -0.009660624 0.024429955 0.06500011
0001f0 dd 4d a3 3d 8a d5 32 3d 50 1d 89 3c 28 aa b8 3c
       0.079738356 0.043660678 0.01673761 0.022542074
000200 ff 21 ad 3d 0c 27 39 bd a0 48 aa bd 10 2a f3 3c
       0.0845375 -0.045203254 -0.08314633 0.029683143
000210 b1 04 81 3d 21 6f 8d 3d b7 69 93 3d 8a 77 29 3d
       0.06299723 0.06905962 0.07197898 0.041373767
000220 3b b5 0d bd 62 cb 73 3d 36 3d 54 3d 7e 2d 65 3d
       -0.034596663 0.059520133 0.051816188 0.055951588
000230 80 df 3b bb 9f ed ac 3d e3 2d 63 bd 40 db 9d 3b
       -0.0028667152 0.0844376 -0.055463683 0.0048173964
000240 3f 69 84 bd 3b 45 a6 bd c2 5d 50 bd 62 ce 4f bd
       -0.064653866 -0.081186734 -0.050870664 -0.05073393
000250 d2 41 11 3d 54 39 92 3c 50 f3 a0 bb 73 3e 6b bd
       0.03546316 0.017849602 -0.0049118176 -0.057432603
000260 18 16 b5 bc 80 87 54 3b f3 b9 9a 3d 28 7d 13 3d
       -0.022105262 0.0032429397 0.07554998 0.03600803
000270 d3 4a a2 3d 02 13 69 3d 5a 24 53 3d 82 76 27 3d
       0.07924428 0.056902893 0.05154834 0.040884502
000280 92 4f b0 bd d0 28 44 bd c3 9c b4 3d 40 85 7f bc
       -0.08608927 -0.047890484 0.088189624 -0.015595734
000290 da ec 9f bd 97 80 96 3d be 15 54 3d 3f d3 af 3d
       -0.07808848 0.07348745 0.051778547 0.08585214
0002a0 0d 2f 86 3d 73 aa a3 3d b9 15 ae bd a2 5e 26 bd
       0.06551943 0.07991495 -0.08500237 -0.040617593
0002b0 f4 46 0f bd df df 87 3d 88 ad 2f 3c 77 38 b0 3d
       -0.034979776 0.06634497 0.010722525 0.0860452
0002c0 98 a9 d2 bc 40 8c 45 3b 57 09 45 bd e5 0e 8e 3d
       -0.025715634 0.003014341 -0.04810461 0.06936435
0002d0 a5 bc af bd 74 07 bd 3c f0 c8 6e 3c 38 e0 48 bc
       -0.08580903 0.023074843 0.014574274 -0.012260489
0002e0 30 2d da 3b 7f bd b0 3d a8 5d 84 bd b4 78 18 bd
       0.006658219 0.086298935 -0.06463176 -0.037224486
0002f0 e1 8f b3 3d 84 a0 63 bd 12 0a 8d bd a1 76 9e 3d
       0.08767677 -0.055573 -0.068866864 0.077374704
000300 2b 75 01 bd a6 f1 56 3d 4a 7a 7a bd 70 b0 fc 3b
       -0.03160588 0.052476548 -0.06115178 0.0077114627
000310 bc d4 0e bd 34 26 f9 3c 11 06 a8 3d 4e 70 1e 3d
       -0.034870848 0.030413724 0.08204282 0.03868132
000320 c8 70 8e 3c 2e c7 78 3d a6 cf 02 bd 90 16 c0 bc
       0.017387763 0.060736828 -0.03193631 -0.023448259
000330 1b 4f 8d 3d d0 a8 41 bd a0 ab eb 3c a0 f8 a7 bd
       0.06899854 -0.047280133 0.02876836 -0.08201718
000340 c3 50 09 bd 68 59 58 3c ca 1e a3 bd 98 33 b2 bc
       -0.033524286 0.01320491 -0.07964857 -0.021753117
000350 00 5b fe 39 00 ca a0 39 57 5d 56 bd e4 22 ae bd
       0.00048514456 0.0003066808 -0.05233511 -0.085027486
000360 2b 4f 99 3d 74 ec 95 3c b0 fc a3 bc e2 ec 64 3d
       0.07485803 0.018301226 -0.020017952 0.05588997
000370 e3 d1 93 3d 59 a5 4b bd 97 be a0 3d 22 98 77 3d
       0.07217767 -0.049718235 0.07848852 0.06044782
000380 02 54 44 3d 48 2f 3f 3c 76 16 6e bd ef 02 8d bd
       0.04793168 0.011668988 -0.05812689 -0.06885325
000390 b0 03 c7 bc b8 07 4e 3c 0f 42 a7 3d 3b 1a 3f bd
       -0.02429375 0.0125750825 0.081668966 -0.046655875
0003a0 42 18 7b 3d 5a b0 12 3d b6 5e 74 3d fc a0 e1 3c
       0.06130243 0.035812713 0.059660636 0.027542584
0003b0 f0 77 a4 bc 2a 0d 1c 3d 38 1d f7 3c 60 de 11 3d
       -0.020076722 0.03809849 0.0301653 0.035612464
0003c0 ea 09 f5 bc a0 64 1a 3b e8 a5 10 3c 76 c3 2a bd
       -0.029911954 0.0023558512 0.008828618 -0.041690312
0003d0 dd 77 18 bd bc e7 8f bd 72 05 5c 3d 0e f3 9b bd
       -0.037223686 -0.07026622 0.05371613 -0.076147184
0003e0 1d 2d 80 3d 2b 31 89 3d d0 90 c7 bc 60 9e 15 3c
       0.06258605 0.06698831 -0.024361044 0.009131998
0003f0 00 6c f4 3a 88 12 10 3d fd 49 89 3d fe b3 53 3d
       0.0018647909 0.035173923 0.06703565 0.051685326

bias f4 [4]
000000 30 c7 e3 3b dc 44 5c bd f2 12 61 3d 66 40 5f 3d
       0.0069512352 -0.053776607 0.05494971 0.054504775

weight f4 [1, 128]
000000 d2 b8 95 bd 8d 49 76 bd b2 c9 7c bd e8 01 31 bc
       -0.07310642 -0.060128737 -0.06171579 -0.010803677
000010 a5 3e 82 3d 8f 4b 80 3d 9f a3 5a bd f7 7a 98 3d
       0.06359605 0.06264412 -0.053378697 0.07445329
000020 cc 2c fa 3c 69 b6 ad 3d 2e d7 a4 bd 70 3d fe 3c
       0.030538939 0.084820576 -0.08048855 0.031035155
000030 90 54 51 bd e5 31 b3 bd 27 8b 99 bd 9e e0 8a bd
       -0.051106036 -0.08749751 -0.07497244 -0.067811236
000040 d6 b4 21 bd 03 c0 94 3d 80 9c 42 3c 70 21 79 bd
       -0.0394791 0.07263186 0.011878133 -0.060822904
000050 10 a4 6d bc 7e 4e 20 3d 03 5c 2f bd 40 53 02 3c
       -0.014504448 0.039137356 -0.04281236 0.007954419
000060 50 2c 4a bc 5a 63 1c 3d 40 1c 6f 3c 30 c8 ae bd
       -0.0123396665 0.038180687 0.014594138 -0.085342765
000070 e0 a5 7b bc 18 11 08 3d 40 a6 20 bc 65 b1 93 3d
       -0.015359372 0.033219427 -0.009805262 0.0721157
000080 5e 7d d4 bc 9c 4b 87 bc 15 8b a3 3d 9a cf 31 3d
       -0.025938686 -0.016515546 0.07985512 0.043410875
000090 27 2d 8d 3d b0 b3 db bb 5d 93 5b bd 7e 58 33 3d
       0.06893378 -0.00670477 -0.053607333 0.043785565
0000a0 43 5d 97 bd 15 1b b0 bd f8 ee a2 bd b0 f5 7a bd
       -0.07390835 -0.085989155 -0.07955736 -0.061269462
0000b0 7a 73 71 3d 5c cc 9e 3c b4 a3 4d bd 43 a8 9c 3d
       0.058948018 0.019384556 -0.050204948 0.07649281
0000c0 30 c3 e7 bc ea 08 a9 bd 8d 10 97 3d 8a f8 af bd
       -0.028291315 -0.08253653 0.07376204 -0.08592327
0000d0 d4 b8 eb 3c 86 25 5c 3d ac 70 8b bd 6f cb 55 bd
       0.028774656 0.053746723 -0.068086 -0.052195963
0000e0 b3 75 92 3d 96 a6 4e 3d 9c 43 ac bd 41 d8 20 bd
       0.071513556 0.050451837 -0.08411333 -0.039268736
0000f0 c2 46 3b bd 6a 83 78 bd 14 0e c1 bc ca 41 5e bd
       -0.045721777 -0.0606722 -0.023566283 -0.05426196
000100 de 21 4c 3d 17 1c 23 bd 00 ab 41 3a af b8 8a 3d
       0.049836986 -0.03982171 0.00073878467 0.06773507
000110 f0 85 9a bc 60 32 a3 bd 40 e3 77 3c 90 05 d0 bc
       -0.018862695 -0.07968593 0.015129864 -0.025393277
000120 42 f6 a4 bd 8a 01 1d 3d 95 79 b3 3d a8 90 af bc
       -0.080547825 0.038331546 0.08763424 -0.021431282
000130 d0 18 21 bc 83 1b 92 bd 87 64 6a bd 1e 90 5b 3d
       -0.009832576 -0.07134154 -0.057224777 0.053604238
000140 e9 04 4f bd a2 1f 18 3d 98 2a 07 bc f8 56 78 3c
       -0.050541792 0.037139542 -0.008249901 0.015157454
000150 40 c9 2f bc 38 f7 6c bd 02 d1 94 bd 54 60 ac bc
       -0.010729134 -0.057852954 -0.072664276 -0.021042027
000160 6d fa ac 3d f0 3e 9a bb de 90 49 3d 36 ce 7b 3d
       0.084462024 -0.0047072098 0.04921042 0.061475955
000170 3c ec d4 bc 53 33 4b bd c2 cc fb bc 9a bb 39 3d
       -0.025991552 -0.049609493 -0.030737285 0.045344926
000180 43 40 52 bd 36 b2 51 3d 23 87 95 3d f0 fc 85 bc
       -0.051330816 0.051195346 0.07301166 -0.016355962
000190 5b af ab 3d 6f 37 69 bd 70 a1 7f bd 40 1b 5c bb
       0.08383056 -0.05693763 -0.06240982 -0.0033585578
0001a0 18 93 ac bd 9a 4a 63 bd a5 62 8b 3d e0 fc d0 3c
       -0.084264934 -0.055491067 0.06805924 0.025511205
0001b0 dd f4 47 bd 9e c7 2f 3d 7d 70 85 3d 18 30 c0 3c
       -0.048817504 0.04291498 0.06515596 0.023460433
0001c0 ff 11 a9 bd 46 61 1d bd d8 cb bd 3c 22 fd 07 3d
       -0.082553856 -0.038422845 0.02316849 0.03320039
0001d0 58 7b 31 bd c7 60 a7 3d 00 70 de ba 8e cd 03 bd
       -0.04333052 0.08172756 -0.0016970634 -0.032178454
0001e0 10 db b3 3c 5d 26 30 bd e0 fd 18 bb 75 6c 8f 3d
       0.021955043 -0.043005336 -0.002334468 0.070031084
0001f0 19 71 30 bd 30 09 77 bd 00 e5 65 ba 10 92 b0 bb
       -0.04307661 -0.060311496 -0.00087697804 -0.0053885058
