output/2023-04-09_21-24-36/weight/1_test_model.pkl (torch, 41217 bytes, 7 tensors)

weight f4 [64, 6]
0.3125847 -0.389399 0.044846296 0.031490743 0.14931309 0.07939038 0.32884097 0.063046396
-0.0705356 -0.3820405 -0.16168693 0.32033956 0.027501673 -0.12086111 -0.276737 -0.10796812
-0.35482997 0.16206974 -0.09187248 0.12049949 -0.3150764 0.25876677 -0.38449135 -0.24295618
0.26768166 -0.31726587 -0.012635797 -0.0869059 -0.3398949 0.28848428 -0.12480301 -0.30443144
-0.0833863 -0.22013062 0.34185618 0.2644713 -0.075947165 0.38720447 -0.050513953 -0.39836603
-0.24047329 -0.13900962 0.048519492 -0.04311809 0.027334452 -0.01840952 -0.35941064 -0.27656507
0.021803945 -0.070696056 -0.27900267 0.0052774847 -0.127123 -0.19289346 -0.26899102 0.12108922
-0.3652939 -0.21056391 -0.07893625 0.10560709 0.105071604 0.25295478 -0.12844786 -0.38335368
0.18448204 -0.17052077 -0.32424563 0.35951883 0.02912262 0.106142044 0.21269202 0.023298144
0.38884538 -0.105840445 -0.27950713 0.2708475 -0.19558854 -0.3000066 -0.10435596 -0.2575899
0.12686193 0.36885953 -0.31210804 0.2822376 -0.18106237 -0.20755202 0.17248946 -0.35636765
-0.068537 -0.36154264 -0.31996945 -0.10588023 -0.21489178 0.16242015 0.2393564 -0.37773177
0.09231162 -0.39295033 -0.11270052 0.14529377 0.0069044232 0.22616822 0.26248592 -0.25840166
-0.100025326 -0.37925324 -0.13263097 0.24240589 -0.06285414 0.13282901 -0.12615919 -0.09343153
0.21382117 0.09413105 -0.25728917 -0.12658942 -0.18000187 0.17730969 -0.31793422 -0.37371597
-0.047273397 -0.035934925 0.325477 -0.09297955 -0.21724473 0.23940992 -0.07523006 -0.2333426
0.09220582 -0.21614388 -0.23851074 0.12789917 -0.278772 0.26663297 0.23298287 -0.12016609
0.056381643 0.38629377 0.11171919 0.17771333 -0.2804022 -0.11050272 -0.05345291 -0.39442596
-0.3333879 -0.16982433 -0.21570782 -0.20654334 -0.26213238 0.3845104 0.21259588 -0.11005533
0.09028545 0.2827236 0.32018185 0.31110948 -0.079909384 0.37128294 -0.38469425 0.20344341
0.26956713 0.0059190392 0.26966906 0.31651706 0.2552088 -0.0938122 0.19997287 -0.27692476
0.10935676 -0.15310645 0.30030304 0.007461041 -0.30349243 -0.25714558 0.38227832 -0.32918498
-0.30866036 -0.034641653 -0.33908933 -0.1992357 -0.11532161 0.30290383 -0.052490175 0.22681129
0.0832645 -0.037671864 0.28225154 -0.22258432 -0.12124547 -0.0366264 -0.14514843 0.21914059
0.32095414 -0.08018309 -0.35380113 0.12643784 -0.07197419 -0.14200103 -0.0894039 0.1057111
0.2374174 0.06676805 -0.32009575 0.2405883 0.22091848 0.38742673 -0.10408026 0.067947626
-0.15081617 0.15268141 0.21609181 -0.33324137 -0.34693947 -0.054315954 0.3199138 -0.12076306
-0.1185216 0.32189053 0.30787027 0.032056034 -0.066966504 -0.2526397 0.17284638 -0.034603894
0.23711431 -0.38781056 -0.30428356 0.17044938 -0.13666177 0.29482287 -0.3315729 0.28403997
-0.34635133 0.36354804 0.29441512 0.1159718 0.31183386 0.3012606 -0.33764967 0.26094466
0.045052975 -0.40485486 0.046071976 0.15639985 -0.047490805 -0.36784044 0.22388917 -0.21049875
0.0014358759 -0.11965504 0.32740194 -0.10108596 0.2989245 0.07679248 -0.34500146 -0.0053103566
00000000: 1a0b a03e 4e5f c7be c0b0 373d 70fc 003d
00000010: 88e5 183e 6c97 a23d d85d a83e 781e 813d
00000020: f874 90bd d09a c3be 4291 25be 8c03 a43e
00000030: 304b e13c 0886 f7bd 79b0 8dbe 641e ddbd
00000040: 46ac b5be 9cf5 253e a427 bcbd 70c8 f63d
00000050: b251 a1be 147d 843e 0ddc c4be 81c9 78be
00000060: 920d 893e ac70 a2be 6006 4fbc b8fb b1bd
00000070: b406 aebe 36b4 933e b898 ffbd 70de 9bbe
00000080: 70c6 aabd ec69 61be c607 af3e c868 873e
00000090: 308a 9bbd aa3f c63e b8e7 4ebd a2f6 cbbe
000000a0: a13e 76be 8a58 0ebe 60bc 463d 989c 30bd
000000b0: 80ec df3c 90cf 96bc ac04 b8be f099 8dbe
000000c0: 309e b23c 18c9 90bd 70d9 8ebe c0ee ac3b
000000d0: 882c 02be dd85 45be 31b9 89be a0fd f73d
000000e0: cd07 bbbe 119e 57be 54a9 a1bd 8848 d83d
000000f0: c82f d73d 4a83 813e d687 03be ef46 c4be
00000100: dce8 3c3e ff9c 2ebe 8603 a6be da12 b83e
00000110: 9092 ee3c 0061 d93d f0cb 593e c0db be3c
00000120: be16 c73e e0c2 d8bd 8f1b 8fbe 86ac 8a3e
00000130: 5d48 48be 779a 99be 94b8 d5bd d3e2 83be
00000140: 18e8 013e 28db bc3e a0cc 9fbe 7281 903e
00000150: 6a68 39be 8488 54be 14a1 303e d275 b6be
00000160: 205d 8cbd 1e1c b9be 09d3 a3be bcd7 d8bd
00000170: 970c 5cbe 7851 263e d819 753e 0f66 c1be
00000180: e00d bd3d c930 c9be 88cf e6bd e4c7 143e
00000190: 803e e23b a498 673e 8e64 863e 394d 84be
000001a0: 14da ccbd 7b2d c2be 6ad0 07be 4039 783e
000001b0: acb9 80bd 5404 083e e02f 01be 0859 bfbd
000001c0: f0f3 5a3e c8c7 c03d 68bb 83be a8a0 01be
000001d0: 6952 38be ac90 353e 46c8 a2be b357 bfbe
000001e0: c0a1 41bd 8030 13bd eca4 a63e 106c bebd
000001f0: 6775 5ebe e027 753e 3812 9abd 5df1 6ebe
00000200: 68d6 bc3d d254 5dbe 293c 74be 00f8 023e
00000210: 34bb 8ebe 1e84 883e 1093 6e3e a419 f6bd
00000220: 70f0 663d 4cc8 c53e 08cd e43d 7cfa 353e
00000230: e190 8fbe 404f e2bd 70f1 5abd 33f2 c9be
00000240: d2b1 aabe 6ee6 2dbe 83e2 5cbe 1980 53be
00000250: 3736 86be 8cde c43e bcb2 593e b064 e1bd
00000260: 94e7 b83d 26c1 903e e0ee a33e be49 9f3e
00000270: 88a7 a3bd cc18 be3e a5f6 c4be 7853 503e
00000280: b404 8a3e 80f4 c13b 1012 8a3e 860e a23e
00000290: baaa 823e 9c20 c0bd b0c5 4c3e 15c9 8dbe
000002a0: 70f6 df3d f0c7 1cbe 52c1 993e c07b f43b
000002b0: 5c63 9bbe 96a8 83be fcb9 c33e ef8a a8be
000002c0: bb08 9ebe 68e4 0dbd 1e9d adbe 7104 4cbe
000002d0: bc2d ecbd 3616 9b3e f0ff 56bd 3841 683e
000002e0: 9486 aa3d d04d 1abd 4683 903e 25ed 63be
000002f0: 8c4f f8bd 9005 16bd caa1 14be 6466 603e
00000300: 1a54 a43e 0837 a4bd 6c25 b5be ec78 013e
00000310: 3467 93bd b868 11be 6419 b7bd 107f d83d
00000320: 8c1d 733e b0bd 883d 97e3 a3be c85c 763e
00000330: 7438 623e cc5c c63e 0828 d5bd 2028 8b3d
00000340: 8e6f 1abe 8458 1c3e 2c47 5d3e 9d9e aabe
00000350: 0da2 b1be 687a 5ebd becb a33e a052 f7bd
00000360: 74bb f2bd d6ce a43e 2ca1 9d3e 304d 033d
00000370: bc25 89bd fe59 81be a4fe 303e d0bc 0dbd
00000380: 18ce 723e 1b8f c6be 0ecb 9bbe 488a 2e3e
00000390: 10f1 0bbe 06f3 963e ecc3 a9be b06d 913e
000003a0: f654 b1be f822 ba3e 94bd 963e a082 ed3d
000003b0: b0a8 9f3e d43e 9a3e 6be0 acbe 8a9a 853e
000003c0: 7889 383d 2349 cfbe f8b5 3c3d 4827 203e
000003d0: b885 42bd 9555 bcbe 3443 653e fc8c 57be
000003e0: 0034 bc3a b40d f5bd 3aa1 a73e 2806 cfbd
000003f0: a20c 993e 6045 9d3d 08a4 b0be 8002 aebb

bias f4 [64]
0.10244745 0.28673762 -0.39363497 -0.3040194 -0.18361083 0.31777048 -0.0034120977 -0.29713413
0.026428133 -0.3970261 0.059971064 -0.03988716 -0.020184249 0.16075045 0.10332036 -0.405391
0.2940969 -0.40329623 0.2412417 0.20602679 0.016552031 -0.24073084 -0.28540558 0.11198449
-0.1626775 0.03182915 -0.3091356 0.17711943 0.28954756 0.018342942 -0.30779523 -0.01776585
-0.049324423 0.10333496 -0.31503496 -0.3218907 -0.31519264 -0.15461162 0.32512063 -0.055600196
0.36326963 -0.13635659 0.026013523 0.26221162 0.38252962 0.38675398 -0.05911556 -0.16551098
-0.27514082 -0.043400496 0.3162526 0.21917379 0.21320409 0.33402932 -0.04739818 0.024621993
0.11484814 -0.14033759 -0.17069285 0.08059278 -0.20384003 0.21650565 -0.03881201 -0.15945122
00000000: f8cf d13d 46cf 923e 868a c9be 6ea8 9bbe
00000010: 7a04 3cbe d0b2 a23e 809d 5fbb f721 98be
00000020: d07f d83c 0147 cbbe 38a4 753d b860 23bd
00000030: 7059 a5bc c49b 243e a099 d33d 698f cfbe
00000040: de93 963e d87c cebe 1008 773e b0f8 523e
00000050: 2098 873c 2582 76be ae20 92be 2058 e53d
00000060: ee94 26be 485f 023d 0547 9ebe cc5e 353e
00000070: 943f 943e f043 963c 5697 9dbe b089 91bc
00000080: 6808 4abd 48a1 d33d 434c a1be dcce a4be
00000090: ee60 a1be 8252 1ebe 3676 a63e 08bd 63bd
000000a0: 7afe b93e 10a1 0bbe 501a d53c 9a40 863e
000000b0: ecda c33e 9e04 c63e 2823 72bd b67b 29be
000000c0: 42df 8cbe b8c4 31bd dceb a13e 186f 603e
000000d0: 2c52 5a3e e405 ab3e 9824 42bd 10b4 c93c
000000e0: 8035 eb3d a8b4 0fbe 1bca 2ebe d40d a53d
000000f0: 71bb 50be a8b3 5d3e 58f9 1ebd 2e47 23be

weight f4 [128, 64]
-0.10743825 -0.09773165 0.0069333613 -0.12078351 0.019966796 0.090001285 0.0054721087 0.027019382
0.058936626 0.036863327 -0.048599318 0.07151294 0.02425544 -0.091334835 -0.10225579 -0.10488927
-0.12396687 0.03509003 0.016351655 0.043188915 -0.054622456 -0.020411491 0.10324724 -0.09782399
-0.1137242 -0.102057576 -0.07526614 -0.086698905 -0.06836577 -0.056523666 -0.11468004 -0.0011804253
0.054516092 -0.090413526 -0.06785481 0.05190812 -0.056448936 -0.0017786622 0.07934828 -0.04034394
0.09035635 0.034225523 0.10590324 -0.03208165 0.048075974 -0.024627417 -0.085190594 -0.069637656
-0.124324724 0.120220244 0.069043815 -0.12157197 -0.066535175 0.07683128 0.06314947 -0.03582558
-0.10877867 -0.108511016 0.017047226 0.0048675835 -0.00895682 -0.03451997 -0.08609229 -0.033555582
0.11313979 -0.1023936 -0.04599838 0.022111565 0.0018928051 -0.1041113 -0.1198152 0.0039328337
-0.10763712 -0.11424841 -0.009352088 0.09267868 0.04971385 -0.024435893 0.074124426 0.0062615275
-0.06476562 -0.03614521 -0.07892789 0.07363391 0.116378665 -0.046765372 -0.123952076 0.008171499
0.0075012147 -0.07572298 0.028776586 -0.02976343 0.026841119 0.110431 -0.09550181 0.030679151
-0.10056038 -0.10915795 0.06086859 -0.02452436 -0.07398252 -0.0018354356 0.05500418 0.03665614
-0.09966646 0.116844356 0.021287665 0.094243586 -0.08321966 0.07056779 -0.041404694 0.03604494
0.020029113 -0.06809074 -0.12157531 0.08919579 0.07182409 0.119380146 -0.064732775 0.07874569
0.116436645 -0.07832375 -0.098600045 0.03187792 0.10531533 -0.11607155 0.06378144 0.04038909
-0.03916116 -0.036716074 -0.055156857 -0.10013977 0.119861335 0.11118914 0.055604517 0.055504397
0.11452846 -0.008528873 0.058972746 -0.06399673 -0.07035391 0.12487303 0.08752011 0.11894432
-0.068039104 0.009386286 0.048371077 -0.055886194 -0.018288583 0.056420162 -0.10921045 -0.028742403
0.0066459924 -0.019449875 0.08561857 0.07953556 0.08625744 0.035826027 -0.009420872 0.01619716
0.12408218 -0.090788424 0.11169116 0.02063398 0.015719414 -0.04922189 -0.07091546 0.024860963
-0.09868099 0.06434098 -0.05616826 -0.08458832 0.020983875 0.09405784 -0.096879825 -0.018417552
0.022221312 0.05440867 -0.007349655 0.067628264 0.08111079 -0.11296223 0.03350033 0.09807223
-0.024648309 0.10898726 -0.060602143 -0.104010865 -0.023333237 0.112601936 -0.06164664 0.004760176
0.05510655 0.1174103 -0.07739757 -0.006182134 0.025778398 -0.088569984 0.10249928 -0.010047883
0.079179436 -0.010864571 -0.06971225 0.07587002 -0.005030304 -0.040786758 0.10328932 0.018745974
0.1249793 0.042074576 0.056904063 0.08467494 0.029395804 0.08963995 -0.09821947 -0.010099441
-0.023510233 0.07482667 0.0896287 -0.03174606 0.0044947565 -0.050604165 0.0488697 -0.019570976
0.10557653 -0.013301387 0.055653244 0.06470676 0.08343005 0.09699683 -0.1213108 0.0065954477
0.042378202 -0.11329119 0.055823818 0.03195332 -0.0035386384 0.024985656 0.03217934 0.08158946
-0.03117299 -0.07965249 -0.055942595 -0.008991793 -0.07547903 0.05810961 -0.07701334 -0.045161188
0.075272545 0.01672037 0.05939795 -0.09752309 0.08595668 -0.07034354 0.07052031 0.026651025
00000000: 9608 dcbd 8827 c8bd 4031 e33b 585d f7bd
00000010: 6891 a33c 9852 b83d 604f b33b c057 dd3c
00000020: 8867 713d 00fe 163d 1410 47bd 6075 923d
00000030: 58b3 c63c c20d bbbd 7c6b d1bd 30d0 d6bd
00000040: 58e2 fdbd 90ba 0f3d e8f3 853c dce6 303d
00000050: ccbb 5fbd 0036 a7bc 4a73 d33d f257 c8bd
00000060: 3ce8 e8bd 9003 d1bd 2225 9abd 328f b1bd
00000070: 5a03 8cbd 5c85 67bd 5edd eabd 80b8 9aba
00000080: 444c 5f3d ba2a b9bd 76f7 8abd 9c9d 543d
00000090: 0037 67bd 0022 e9ba 5a81 a23d b03f 25bd
000000a0: c00c b93d 1030 0c3d cce3 d83d 0c68 03bd
000000b0: 50eb 443d 70bf c9bc 6878 aebd 309e 8ebd
000000c0: f69d febd 0836 f63d d866 8d3d bafa f8bd
000000d0: 9843 88bd b859 9d3d 8254 813d d8bd 12bd
000000e0: 5ac7 debd 063b debd a0a6 8b3c 4080 9f3b
000000f0: a0bf 12bc d064 0dbd 2851 b0bd 9471 09bd
00000100: d6b5 e73d bcb3 d1bd cc68 3cbd 5023 b53c
00000110: 0018 f83a 4e38 d5bd ac61 f5bd 00df 803b
00000120: da70 dcbd 12fb e9bd 8039 19bc 52ce bd3d
00000130: c0a0 4b3d c82d c8bc 8cce 973d 802d cd3b
00000140: d6a3 84bd 000d 14bd f2a4 a1bd 60cd 963d
00000150: f057 ee3d 0c8d 3fbd 96da fdbd c0e1 053c
00000160: c0cc f53b a614 9bbd e0bc eb3c 70d2 f3bc
00000170: e8e1 db3c a629 e23d 7496 c3bd d852 fb3c
00000180: 9af2 cdbd 348e dfbd 5851 793d 50e7 c8bc
00000190: 2684 97bd 0093 f0ba 104c 613d c024 163d
000001a0: ee1d ccbd 184c ef3d 7863 ae3c c802 c13d
000001b0: 126f aabd d885 903d f897 29bd dca3 133d
000001c0: 1814 a43c 2873 8bbd 7afc f8bd 48ac b63d
000001d0: 8218 933d 947d f43d 9e92 84bd 6c45 a13d
000001e0: 5676 ee3d 3468 a0bd d2ee c9bd 6c92 023d
000001f0: 90af d73d ecb6 edbd d89f 823d 086f 253d
00000200: 7467 20bd 9863 16bd 28ec 61bd 1416 cdbd
00000210: dc79 f53d 22b7 e33d 90c1 633d 9458 633d
00000220: e68d ea3d b0bc 0bbc 688d 713d b810 83bd
00000230: b615 90bd 6ebd ff3d be3d b33d 1499 f33d
00000240: 1658 8bbd f0c8 193c c020 463d ece8 64bd
00000250: f0d1 95bc d418 673d baa9 dfbd 3075 ebbc
00000260: a0c6 d93b 5855 9fbc ca58 af3d 8ae3 a23d
00000270: bea7 b03d 50be 123d 005a 1abc e8af 843c
00000280: cc1e fe3d 48ef b9bd 56be e43d 9808 a93c
00000290: 00c6 803c e49c 49bd 203c 91bd 38a9 cb3c
000002a0: 4219 cabd 34c5 833d b010 66bd a43c adbd
000002b0: 60e6 ab3c 66a1 c03d ee68 c6bd 68e0 96bc
000002c0: 7809 b63c a0db 5e3d 60d5 f0bb b080 8a3d
000002d0: 6a1d a63d be58 e7bd a437 093d 18da c83d
000002e0: 40eb c9bc b634 df3d f439 78bd a603 d5bd
000002f0: 5825 bfbc d89b e63d 3081 7cbd 40fb 9b3b
00000300: 68b7 613d d074 f03d 9e82 9ebd 8093 cabb
00000310: 382d d33c 2e64 b5bd 24eb d13d e09f 24bc
00000320: d428 a23d 5001 32bc 4cc5 8ebd be61 9b3d
00000330: 40d5 a4bb 0410 27bd 5a89 d33d 2891 993c
00000340: 26f5 ff3d 6456 2c3d 3c14 693d 0e6a ad3d
00000350: 78cf f03c 2695 b73d 4a27 c9bd 2078 25bc
00000360: 8898 c0bc ba3e 993d 408f b73d 2808 02bd
00000370: c048 933b 5046 4fbd 982b 483d 5053 a0bc
00000380: 8238 d83d 10ee 59bc a8f4 633d fa84 843d
00000390: 60dd aa3d 46a6 c63d cc71 f8bd a01e d83b
000003a0: c494 2d3d 3605 e8bd 84a7 643d 7ce1 023d
000003b0: 80e8 67bb b8ae cc3c 7cce 033d 6018 a73d
000003c0: 805e ffbc d820 a3bd 1024 65bd 5052 13bc
000003d0: c094 9abd 5804 6e3d 2cb9 9dbd f0fa 38bd
000003e0: 7e28 9a3d 28f9 883c 444b 733d 30ba c7bd
000003f0: 0e0a b03d 4610 90bd f46c 903d 4053 da3c

bias f4 [128]
-0.06276587 -0.08824745 0.00059595704 -0.08860561 0.101913646 0.10910536 0.06870839 0.039010182
0.10370831 -0.12155451 -0.023062304 -0.034303024 -0.105620265 0.1178793 0.08047721 -0.012372866
0.10436678 0.018884808 0.05301924 -0.032850966 -0.09488714 -0.059300587 -0.11775972 -0.11307341
-0.099014014 0.08432156 0.04358001 0.06514828 0.089368 0.08869533 -0.09567489 0.02146937
0.062337503 0.119477615 -0.048609972 0.059891135 -0.021298274 0.053386047 -0.028530747 0.11760093
-0.08088486 -0.12478097 0.087418646 -0.042567745 -0.056887254 0.017901465 0.013144389 -0.03372395
-0.09690407 0.052663013 0.02666606 0.11344914 0.07445888 0.11333844 0.09101519 -0.07677497
-0.012613386 -0.08296293 0.003457427 -0.076197 0.015443876 -0.05880323 0.06523709 0.02146624
0.09673703 -0.005057439 0.0024497062 -0.016255751 0.03152752 -0.007447377 0.1125717 0.086814895
0.011838689 -0.011733189 -0.093879014 0.1244836 -0.0779264 0.1033148 0.04933624 0.027619869
0.032007784 0.0066217184 -0.062289596 -0.1102166 -0.12432508 0.078219175 -0.08563465 0.06988673
-0.1024099 -0.06472652 -0.03247039 -0.06115994 -0.067235544 0.041253924 -0.01666002 0.004312426
-0.02921231 0.118379116 0.020916373 0.06687553 0.053901523 0.013011903 0.059086964 0.03324659
-0.0017149895 -0.059051424 -0.12268396 0.0042306334 -0.009343162 0.07890959 0.11287585 0.055016056
-0.049304336 0.058697388 0.11431065 -0.0324817 -0.05565077 0.1206101 -0.08826451 -0.026459053
-0.068622276 0.016012788 0.044866964 0.028477728 0.07661259 -0.06442949 0.023052812 0.025759712
00000000: 648b 80bd 14bb b4bd 003a 1c3a dc76 b5bd
00000010: 1ab8 d03d a272 df3d fcb6 8c3d 24c9 1f3d
00000020: 0665 d43d 92f1 f8bd 28ed bcbc 5481 0cbd
00000030: 704f d8bd b46a f13d 3cd1 a43d 90b7 4abc
00000040: 40be d53d 50b4 9a3c b42a 593d bc8e 06bd
00000050: 3054 c2bd 2ce5 72bd 022c f1bd 0893 e7bd
00000060: dcc7 cabd c8b0 ac3d f480 323d 766c 853d
00000070: 9206 b73d e6a5 b53d 32f1 c3bd 88e0 af3c
00000080: 9c55 7f3d aeb0 f43d 401b 47bd 6850 753d
00000090: b879 aebc 54ab 5a3d 50b9 e9bc c2d8 f03d
000000a0: f6a6 a5bd 2a8d ffbd 8c08 b33d 845b 2ebd
000000b0: 9c02 69bd 18a6 923c 905b 573c 2022 0abd
000000c0: a475 c6bd 2cb5 573d c872 da3c 0658 e83d
000000d0: e67d 983d fc1d e83d 2c66 ba3d 323c 9dbd
000000e0: 60a8 4ebc 78e8 a9bd 0096 623b 2c0d 9cbd
000000f0: 5008 7d3c a8db 70bd 069b 853d f8d9 af3c
00000100: 101e c63d e0b8 a5bb 408b 203b c82a 85bc
00000110: 0023 013d 2009 f4bb fe8b e63d 02cc b13d
00000120: 10f7 413c 903c 40bc a443 c0bd 42f1 fe3d
00000130: e097 9fbd b696 d33d cc14 4a3d 1043 e23c
00000140: 981a 033d 00fb d83b 6023 7fbd 3eb9 e1bd
00000150: 269e febd 6031 a03d 3861 afbd c620 8f3d
00000160: 48bc d1bd 568f 84bd acff 04bd d882 7abd
00000170: cab2 89bd e0f9 283d 987a 88bc 404f 8d3b
00000180: a84e efbc c070 f23d d058 ab3c 0af6 883d
00000190: d8c7 5c3d e02f 553c 2c05 723d 942d 083d
000001a0: 80c9 e0ba e8df 71bd ba41 fbbd 20a1 8a3b
000001b0: 1014 19bc 5a9b a13d 742b e73d 8458 613d
000001c0: 58f3 49bd ac6c 703d b41b ea3d 880b 05bd
000001d0: 10f2 63bd 6e02 f73d 06c4 b4bd a8c0 d8bc
000001e0: d689 8cbd 402d 833c 6cc6 373d 204a e93c
000001f0: 10e7 9c3d 9cf3 83bd 40d9 bc3c 0806 d33c

weight f4 [4, 128]
-0.046489615 0.08796472 0.07175053 -0.012142003 0.087836154 -0.04993307 0.08044433 -0.009091191
0.016432665 -0.018090576 -0.040100176 0.06434295 0.048482485 -0.008441694 -0.0734424 0.048538096
0.05325108 -0.029398534 0.008466214 0.024986729 -0.051325977 0.049558945 -0.0704794 0.058158122
-0.033994097 -0.047051866 0.05951359 -0.03366628 0.011610948 -0.07218272 0.03594946 -0.031338383
0.021656238 -0.054520793 0.06997011 0.003248699 0.044542603 0.036093652 -0.049150873 0.04824724
-0.010205515 0.058252744 -0.025826558 -0.05066362 -0.054031447 -0.08838349 -0.08797223 -0.0462704
0.0393899 -0.040496316 0.07100918 -0.04642022 -0.086654074 -0.057270378 0.0022178814 0.08022515
-0.04060265 -0.012851134 -0.008636646 -0.07304156 0.015708543 -0.087526865 -0.07524015 0.07706619
-0.059608847 0.06700795 0.010715097 0.00094532967 -0.062313672 0.070471965 -0.076730266 -0.028790984
-0.035287764 0.0075051114 0.00797011 6.9603324e-05 -0.07415633 0.066494666 0.065398626 0.003940217
-0.009058706 -0.05066483 0.0153662115 0.026622415 -0.052294586 0.04340703 -0.070075236 -0.070320785
0.017062448 0.0158275 0.016854621 -0.04609784 -0.07658983 -0.053565904 0.028385721 -0.02722798
-0.033836503 0.051138006 0.03688819 0.06265495 0.0806235 -0.079595506 -0.06577855 0.033963308
-0.0642684 0.008768886 -0.02372174 -0.058569178 -0.038339797 -0.022615291 0.021603927 0.010600403
-0.027830228 -0.06191556 0.014232822 0.069420405 -0.014420204 0.024399877 -0.038712714 -0.0067206398
0.0071388558 0.051704325 0.0030855313 0.015051566 -0.008506976 0.062527426 -0.07643934 -0.07505837
0.031785212 -0.01931315 0.015591949 0.08406957 0.049558558 0.050953515 0.033150963 0.02939102
0.01755634 -0.07678263 0.0426329 0.0363027 -0.07425794 0.08266028 0.07569196 0.0060454607
-0.015334912 0.04868812 0.036404453 0.06255034 -0.036181584 -0.013774104 -0.027006235 0.043355815
0.07389826 -0.02617922 -0.04038555 -0.0750966 -0.08443196 0.054961063 -0.026235085 0.010679327
-0.013615727 -0.03826901 -0.02142904 0.044949092 -0.0081432685 0.04804326 0.035303555 -0.042687453
-0.01932197 -0.030424293 -0.064185806 -0.052662667 -0.008103713 -0.018689886 -0.023126215 0.07082463
-0.071609266 0.0155072585 0.07864722 0.043701343 0.053297274 0.08334424 0.08308215 -0.04757399
-0.07423224 -0.003651686 0.0443966 0.08254897 0.04567776 -0.070117995 -0.062382616 -0.085274845
-0.0039333254 -0.051273633 -0.058814064 0.04203915 -0.0054916367 0.023968726 -0.005413644 -0.062413454
0.04889121 -0.015773647 -0.04823128 0.07702135 0.0506778 0.04513658 0.014768906 0.0049614087
0.037295558 -0.03944163 0.039957352 0.013759837 -0.064705156 -0.080778785 0.029733434 0.028796516
0.060216017 0.0024360865 -0.044018686 0.004312128 0.05758763 -0.05814772 0.00086895376 -0.0497631
0.0032611862 0.020209394 -0.026698869 -0.013173364 0.0742243 0.0023213401 -0.038556907 0.052788354
0.043036424 -0.05852408 -0.05876551 -0.07914479 -0.018912531 -0.046537623 0.006854467 -0.002636835
0.06438265 -0.027828217 -0.01951041 -0.008734785 -0.024240486 -0.029201329 0.008001663 -0.053686235
0.0011219829 -0.02182366 0.084394895 -0.058148712 -0.051948898 0.08819958 -0.0543595 -0.0248487
00000000: e56b 3ebd d926 b43d f1f1 923d 40ef 46bc
00000010: 71e3 b33d 9e86 4cbd ffbf a43d 38f3 14bc
00000020: cc9d 863c b032 94bc 1540 24bd 3dc6 833d
00000030: 9295 463d 084f 0abc f868 96bd e2cf 463d
00000040: ce1d 5a3d 32d5 f0bc e0b5 0a3c f8b0 cc3c
00000050: 303b 52bd 52fe 4a3d 8157 90bd 3637 6e3d
00000060: 653d 0bbd 75b9 40bd 86c4 733d a7e5 09bd
00000070: d83b 3e3c 89d4 93bd be3f 133d ad5c 00bd
00000080: 6c68 b13c 3251 5fbd 7d4c 8f3d 20e8 543b
00000090: 4e72 363d f0d6 133d 6d52 49bd e69e 453d
000000a0: 0835 27bc 6e9a 6e3d 3892 d3bc a884 4fbd
000000b0: 1450 5dbd 6702 b5bd c92a b4bd 0886 3dbd
000000c0: 4e57 213d 77df 25bd 436d 913d 2123 3ebd
000000d0: b177 b1bd 5894 6abd e059 113b 154d a43d
000000e0: f74e 26bd 908d 52bc b880 0dbc d096 95bd
000000f0: 34af 803c 4941 b3bd 8217 9abd e1d4 9d3d
00000100: 6828 74bd 773b 893d 608e 2f3c 00d0 773a
00000110: 9f3c 7fbd 9b53 903d c224 9dbd 12db ebbc
00000120: e789 10bd 70ed f53b 1095 023c 00f8 9138
00000130: 46df 97bd 5b2e 883d b7ef 853d f01c 813b
00000140: f86a 14bc ed85 4fbd 90c2 7b3c 4017 da3c
00000150: d932 56bd 92cb 313d 9b83 8fbd 5804 90bd
00000160: 8cc6 8b3c aca8 813c b412 8a3c 17d1 3cbd
00000170: 21db 9cbd ec67 5bbd 2c89 e83c 360d dfbc
00000180: 2598 0abd 1676 513d 1218 173d 3d51 803d
00000190: ef1d a53d f802 a3bd e8b6 86bd 1c1d 0b3d
000001a0: 279f 83bd 60ab 0f3c 1854 c2bc 3ce6 6fbd
000001b0: 310a 1dbd b443 b9bc b8fa b03c 50ad 2d3c
000001c0: 38fc e3bc 2c9b 7dbd c830 693c 492c 8e3d
000001d0: b842 6cbc 40e2 c73c 3991 1ebd d038 dcbb
000001e0: 10ed e93b eac7 533d a036 4a3b d89a 763c
000001f0: d860 0bbc 610e 803d 3b8c 9cbd 34b8 99bd
00000200: 3631 023d 9c36 9ebc 6075 7f3c ab2c ac3d
00000210: eafd 4a3d a2b4 503d 4ec9 073d 70c5 f03c
00000220: 50d2 8f3c 3640 9dbd d69f 2e3d 24b2 143d
00000230: 8c14 98bd cb49 a93d 6304 9b3d 0019 c63b
00000240: 483f 7bbc 326d 473d d61c 153d 651a 803d
00000250: 2433 14bd c8ac 61bc 2e3c ddbc de95 313d
00000260: f957 973d ce75 d6bc 526b 25bd 3fcc 99bd
00000270: aaea acbd da1e 613d f6ea d6bc 58f8 2e3c
00000280: 8014 5fbc f7bf 1cbd f48b afbc 8a1c 383d
00000290: 586b 05bc 02c9 443d 769a 103d 0ad9 2ebd
000002a0: 1c49 9ebc 5e3c f9bc d973 83bd cfb4 57bd
000002b0: 70c5 04bc 881b 99bc 3073 bdbc 810c 913d
000002c0: e1a7 92bd 2812 7e3c cb11 a13d 2e00 333d
000002d0: 3e4e 5a3d 63b0 aa3d f926 aa3d f2dc 42bd
000002e0: 1307 98bd 2051 6fbb 36d9 353d 6f0f a93d
000002f0: 9a18 3b3d 069a 8fbd ea84 7fbd 94a4 aebd
00000300: 20e3 80bb 4d04 52bd 04e7 70bd 3e31 2c3d
00000310: 30f3 b3bb 105a c43c f064 b1bb 40a5 7fbd
00000320: 2642 483d bc37 81bc 2a8e 45bd 5fbd 9d3d
00000330: 8693 4f3d 22e1 383d 48f9 713c 5093 a23b
00000340: 3ac3 183d 8c8d 21bd 52aa 233d f070 613c
00000350: 2384 84bd 596f a5bd 8893 f33c ace6 eb3c
00000360: 12a5 763d c0a6 1f3b f04c 34bd c04c 8d3b
00000370: 02e1 6b3d 4e2c 6ebd 80ca 633a 64d4 4bbd
00000380: a0b9 553b 2c8e a53c 96b7 dabc 18d5 57bc
00000390: e902 983d a021 183b d9ed 1dbd 9a38 583d
000003a0: f646 303d f2b6 6fbd 1ab4 70bd aa16 a2bd
000003b0: 74ee 9abc 3c9e 3ebd 709b e03b c0ce 2cbb
000003c0: 0ddb 833d 00f8 e3bc 4cd4 9fbc 581c 0fbc
000003d0: fc93 c6bc a037 efbc 6819 033c 19e6 5bbd
000003e0: 800f 933a 88c7 b2bc 3bd7 ac3d 582d 6ebd
000003f0: 5ec8 54bd fba1 b43d 11a8 5ebd 808f cbbc

bias f4 [4]
-0.065824516 0.010320246 -0.023682944 -0.043963354
00000000: 01cf 86bd 4016 293c bc02 c2bc eb12 34bd

weight f4 [1, 128]
-0.0014439821 0.011628315 0.044468813 0.015104018 0.0639753 -0.08269665 0.056071915 0.0052613094
0.046838515 0.08025216 0.063021176 -0.04798424 0.023753986 0.0073140785 -0.036566067 -0.077007696
0.026323646 0.081520416 0.057626285 -0.06049183 -0.03954923 0.083568744 0.054250352 -0.05412708
0.024282105 0.050242044 0.022626638 0.072211824 -0.07515471 0.037164144 -0.016158186 0.064069144
-0.03287687 0.03538905 -0.026517406 0.07738922 -0.06975363 -0.08404023 -0.059232704 0.014000379
0.06795215 0.026063323 0.08299815 0.026270151 0.055341326 0.07693631 0.010155253 -0.08217527
0.042491965 -0.0055538565 -0.043760344 -0.082003176 -0.05944522 -0.020263247 0.06325569 0.0004846081
0.04803265 0.014504828 0.0021317527 -0.01567614 -0.06899174 -0.085323036 -0.07601475 -0.07988761
-0.0068026036 0.058983527 -0.009432092 0.018684365 0.0758222 0.019685611 0.022240154 0.07306094
-0.06311559 -0.08400848 0.07258136 0.006994672 -0.044366576 0.052837707 -0.010573737 -0.04667326
-0.011432342 -0.048638083 -0.078947894 0.056136973 -0.078962654 -0.069475636 0.034830257 -0.015845604
-0.032686144 0.06551949 0.013383478 0.009063207 0.030908778 0.046406113 -0.081299566 0.035287224
0.041468255 0.023489058 0.015858777 -0.06728084 0.025418572 -0.027925555 0.05881215 0.044036813
-0.0017604977 -0.013264202 -0.04296884 -0.07838881 0.058851756 -0.03440543 -0.08701987 0.042844705
0.039189734 -0.07687272 0.08209432 0.022192843 0.055441417 -0.0057079345 -0.0037746057 0.062183358
0.0035478994 -0.005009234 -0.050069716 0.043983944 -0.06949485 0.034387097 -0.07469316 0.012828097
00000000: 0044 bdba b084 3e3c ee24 363d d876 773c
00000010: 7b05 833d dc5c a9bd aaab 653d 1067 ac3b
00000020: bed9 3f3d 3f5b a43d 3f11 813d 1f8b 44bd
00000030: b897 c23c f0aa ef3b 4dc6 15bd 36b6 9dbd
00000040: b0a4 d73c 2df4 a63d 8a09 6c3d 48c6 77bd
00000050: 60fe 21bd 1726 ab3d 9e35 5e3d 5bb4 5dbd
00000060: 44eb c63c 9aca 4d3d 805b b93c cbe3 933d
00000070: b6ea 99bd 6e39 183d 2c5e 84bc af36 833d
00000080: e6a9 06bd 1cf4 103d 083b d9bc 3d7e 9e3d
00000090: feda 8ebd 491d acbd fe9d 72bd d861 653c
000000a0: 7f2a 8b3d c082 d53c effa a93d 8034 d73c
000000b0: 96ad 623d c990 9d3d 3862 263c 824b a8bd
000000c0: 0e0c 2e3d 20fd b5bb 0c3e 33bd 48f1 a7bd
000000d0: d57c 73bd 1cff a5bc 338c 813d 0013 fe39
000000e0: e2bd 443d a8a5 6d3c e0b4 0b3b 406b 80bc
000000f0: 8b4b 8dbd d8bd aebd 9fad 9bbd 1e9c a3bd
00000100: 60e8 debb b698 713d 1089 1abc f40f 993c
00000110: ab48 9b3d b843 a13c fc30 b63c f9a0 953d
00000120: bf42 81bd a30c acbd 89a5 943d 9033 e53b
00000130: bab9 35bd 5a6c 583d 783d 2dbc 762c 3fbd
00000140: b84e 3bbc ba38 47bd 6faf a1bd e2ef 653d
00000150: 2cb7 a1bd 3e49 8ebd 2caa 0e3d a4ce 81bc
00000160: e8e1 05bd 152f 863d 6046 5b3c d87d 143c
00000170: 6834 fd3c 5614 3e3d 6380 a6bd 5689 103d
00000180: 9eda 293d 206c c03c 44ea 813c 89ca 89bd
00000190: 9c3a d03c 22c4 e4bc 02e5 703d f25f 343d
000001a0: 80c0 e6ba 1852 59bc 1800 30bd 508a a0bd
000001b0: 8a0e 713d b5ec 0cbd 7937 b2bd ee7d 2f3d
000001c0: 6a85 203d 726f 9dbd 1121 a83d c4cd b53c
000001d0: 8a16 633d a009 bbbb 605f 77bb fab3 7e3d
000001e0: e083 683b 8024 a4bb e715 4dbd 8228 343d
000001f0: 5153 8ebd 7cd9 0c3d baf8 98bd f02c 523c
