output/2023-04-09_21-23-13/weight/45_test_model.pkl (torch, 41227 bytes, 7 tensors)

weight f4 [64, 6]
00000000: 3cce b23e 1c06 52be 55f1 6fbe d81e 7d3d
00000010: 0af5 803e fcd8 263e f212 8ebe 601c 53bc
00000020: 7872 763e 1487 6dbe 3605 6fbe 6c3d 9abd
00000030: 3c6e 8fbd d8b5 133d c4e4 203e 1035 eebd
00000040: 7f8e 9ebe 702b 043e f632 aa3e 88ba 253d
00000050: c8c9 f93d 1217 b5be a4dc 99be 6818 f3bd
00000060: b8f2 47bd de76 993e 3850 8a3d b6a8 ca3e
00000070: d00c dabd 0804 68bd 9de1 bbbe 48b8 473e
00000080: 2086 49bd c054 bc3d b681 a13e d04b 833e
00000090: a205 61be d61c 5abe 7c54 36be e153 b5be
000000a0: 7328 afbe cc00 993e b03d 833c a43b 983d
000000b0: 9045 71bd a85d 0f3e 402d 7b3d 1825 263e
000000c0: 2890 1dbd 6840 4d3e 4ebc bf3e e407 cfbe
000000d0: 5444 123e e09b c2bd 87d7 29be fc1c 8c3e
000000e0: 3818 1abe 5d3e 7abe 6078 95be 24f4 bdbe
000000f0: a09b 4bbd 50fc 19bd 009e f33b 1cfe afbd
00000100: 60fe 7d3c 4843 9abe 6cc8 c0be 34d3 9d3e
00000110: 389f 233e 1039 aa3d 5b14 9fbe 1a44 9ebe
00000120: ac70 aabe 70a7 8b3e d8dd a53e 00ba 603c
00000130: ec5c 9ebd 08f5 c43d f008 a43c a4e1 8a3e
00000140: 9496 e7bd 166c c33e a85b 07be 5081 0dbd
00000150: 30f1 76bd 4176 aabe 5090 b93e b41c e3bd
00000160: 2058 afbc 606f 833e 7e79 1cbe fcb5 ecbd
00000170: 0a34 80be 5804 fc3d e830 23bd 72db b5be
00000180: 701b b5bc 4827 2ebd 0c33 4e3e 7637 81be
00000190: 2009 f3bc 1848 3cbd a67f c23e e032 d93d
000001a0: 3095 b9bc 285c b43e a30c 50be 4b3d c2be
000001b0: fcfd ab3e 4848 a1be a400 a93e 0e7f a93e
000001c0: 0c6a 83be f6c5 9b3e 74d3 313e 1854 b23d
000001d0: b09d 89be 4c6a b0bd 903d f7bc c6bf ca3e
000001e0: ba95 853e c015 543c 2cc5 773e 4019 0f3d
000001f0: 6b47 cdbe ee06 ccbe 3e4e bebe 3050 a73e
00000200: 00b0 7f3e 7e92 903e df92 9ebe 1ec2 34be
00000210: a029 193e 9092 a53e c03f 253e 7083 023d
00000220: 4078 48bc bce9 1e3e c802 b9bd 15af cbbe
00000230: 1280 863e f4f6 893e a868 433d 0800 8ebd
00000240: 7254 12be 4461 9c3d f054 dc3d 6caf d2bd
00000250: 109f 82bd 2070 373d b4d6 393e 5228 67be
00000260: 7c71 633e 940b 2f3e 6018 b93c 20cc dbbc
00000270: c28b bc3e 507d d9bc 3836 5d3d 902f 903c
00000280: 546a 373e 18a9 55be 28d1 873e 9843 6a3e
00000290: 5a27 a6be 504c 273e b8fc 9f3d 483e 4a3e
000002a0: 38bd 503e dc0e 73be 2886 0d3d 2043 70be
000002b0: b801 083d 00d0 743c 38a2 883e 0863 bcbe
000002c0: 20b2 be3e 12b7 c5be a142 b8be 4053 fd3d
000002d0: 0833 3e3e fa29 c9be 961e 9b3e c029 22bc
000002e0: 10b7 a13e 27f7 88be aa1c 18be b955 b8be
000002f0: 9050 973e 300e 693e 0452 453e 808f a93c
00000300: 386b abbd f434 913e 4abd 36be da67 923e
00000310: 145e c93e 400b 92bd ccb9 b93d ecbc c8bd
00000320: 9e48 cbbe 4659 8dbe 646c 0ebe 7889 cebe
00000330: ea33 9c3e 1efd 02be 0088 6a3e 87dc babe
00000340: 5ece 963e 7e6b 94be 08a8 18bd dc55 633e
00000350: ee5d b03e 5c2c a53e d80b aabe dbbd 8bbe
00000360: 7cb9 8f3d 8ab7 903e 586c 2d3d b877 0dbe
00000370: d77c 2bbe 785b 4dbd 489f 8f3d 6409 383e
00000380: accf a43d 6af5 933e 484f 0e3e f8ce b9bd
00000390: 2056 593e 74f1 5b3e 8046 943c 0d23 5dbe
000003a0: 884f 563e 0032 253e 2c79 a63e fae6 993e
000003b0: 9fdc c2be 60e8 cfbd 00ce 323e fc30 963d
000003c0: 3d34 cabe c085 ac3e 9c40 773e daa4 873e
000003d0: 61d1 b3be c87d ea3d 18cb ed3d 78b6 4ebd
000003e0: 5628 cb3e c417 a83e 0262 9e3e 30a3 ccbe
000003f0: 6fbc 5fbe 505f 263e 7a5a 8d3e a4d2 883e
0.3492297 -0.20510143 -0.23431905 0.061796993 0.2518695 0.1629371 -0.2774883 -0.012885183
0.24067104 -0.2319606 -0.23341832 -0.075312465 -0.070034474 0.03606209 0.15712267 -0.116312146
-0.3096809 0.12907195 0.33242005 0.040461093 0.1219669 -0.35369164 -0.30051148 -0.118698895
-0.04881546 0.299735 0.06753582 0.3958184 -0.10646975 -0.05664447 -0.36695567 0.19503891
-0.049200177 0.09195852 0.31544274 0.25643778 -0.21974805 -0.21300063 -0.17805666 -0.35415557
-0.34210548 0.2988342 0.016020626 0.074332505 -0.05890423 0.14000571 0.06132245 0.16225088
-0.038467556 0.200441 0.37448353 -0.40435708 0.14283878 -0.09502387 -0.16586123 0.27365863
-0.15048301 -0.24437852 -0.291934 -0.37100327 -0.049708962 -0.03759414 0.0074346066 -0.085933894
0.015502542 -0.30129457 -0.3765291 0.30825198 0.15978706 0.08311665 -0.31070217 -0.30911332
-0.33289087 0.27276182 0.32395816 0.013716221 -0.07732567 0.096170485 0.020023793 0.27125275
-0.113080174 0.381684 -0.13218558 -0.03454715 -0.060288608 -0.33293346 0.36242914 -0.11089459
-0.021404326 0.2567091 -0.1528072 -0.11558148 -0.25039703 0.12305516 -0.039841563 -0.35518986
-0.02210781 -0.04251793 0.2013666 -0.25237626 -0.029667437 -0.04596719 0.37988013 0.10605407
-0.022654146 0.3522656 -0.2031732 -0.37937388 0.33592212 -0.3150046 0.330083 0.33104748
-0.25666845 0.3042447 0.17365819 0.08707446 -0.2687812 -0.086140245 -0.030180722 0.39599437
0.26090795 0.012944639 0.24196309 0.03493619 -0.4009355 -0.39849037 -0.3716907 0.32678366
0.24969482 0.28236765 -0.3097143 -0.17652175 0.14957285 0.3233838 0.161376 0.03186363
-0.012235701 0.1551885 -0.090337336 -0.39782014 0.26269585 0.26946223 0.04770723 -0.069336
-0.14290026 0.076357394 0.10758388 -0.10287365 -0.06377995 0.044784665 0.18148309 -0.22573975
0.2221126 0.1709426 0.02259463 -0.026830733 0.36825377 -0.026549011 0.054006785 0.017600805
0.17911655 -0.20865285 0.2652676 0.22877347 -0.32451898 0.16337705 0.07811874 0.19750321
0.20384681 -0.23736137 0.03455177 -0.23463106 0.033204764 0.014942169 0.26686263 -0.36794305
0.37245274 -0.38616234 -0.35988334 0.12369394 0.18574154 -0.39289838 0.30296773 -0.009897649
0.31584978 -0.26751062 -0.14854684 -0.360029 0.29553652 0.22759318 0.19269568 0.020698309
-0.0837006 0.28360713 -0.17845646 0.28594857 0.39329588 -0.07131052 0.09068641 -0.09801659
-0.3970384 -0.27607173 -0.13908535 -0.40339255 0.30508357 -0.12791869 0.22903442 -0.36496374
0.2945432 -0.2898826 -0.037269622 0.22200722 0.34446663 0.32260406 -0.3321216 -0.27293286
0.070178 0.2826503 0.042339653 -0.138152 -0.16746841 -0.05013606 0.07012802 0.17972332
0.08047423 0.28898174 0.13897431 -0.09072679 0.2122426 0.21478826 0.018100023 -0.21595402
0.20928776 0.16132355 0.32514322 0.30059034 -0.38058946 -0.10151744 0.17461395 0.07333562
-0.3949298 0.33695793 0.2414574 0.2649296 -0.3512068 0.11449772 0.11611003 -0.050466985
0.3967921 0.32830632 0.3093415 -0.39968252 -0.21849225 0.16247296 0.2760809 0.26723206

bias f4 [64]
00000000: 102e e9bc 342f 9c3e 78bf 43bd 2c89 593e
00000010: 5626 c0be b886 6abe 4898 85bd 4013 403d
00000020: 6257 923e 182e 32be 2e5b cc3e 9cd3 1dbe
00000030: dc55 a0be b0c9 b93e 601b ee3d 9834 c9be
00000040: d418 2f3e 40f9 a9bb c897 3d3e 4200 07be
00000050: 84eb 523e e62a cc3e 55b9 abbe 20fa 8fbe
00000060: 862b 9d3e 6cec edbd 6404 b5bd e0ee 5c3d
00000070: c059 a1bb 78a8 eabd 6e88 0dbe 984c 53bd
00000080: 400f 3c3e 3067 bc3c 40dd 9bbb 14ae bcbe
00000090: 22d2 8e3e 04e2 c33e 2c1a 773e 44a5 8b3e
000000a0: 38c6 e93d 1c3f 573e 50e8 15be 0021 603b
000000b0: 742e b03d 8c0a 9dbe 0277 b83e d0a2 2a3e
000000c0: 68d5 073d 605e 3bbd f4be 89be 1688 c83e
000000d0: 7c80 0e3e 90ed 8abe 48eb 67bd 9660 9abe
000000e0: c063 213c a891 9ebd 400b 723e b2fc 3abe
000000f0: 0cc0 693e 944f a7bd e047 9a3c d03a 64be
-0.028464347 0.30504763 -0.04779002 0.21243733 -0.37529248 -0.22902954 -0.06523186 0.04689336
0.28582293 -0.17400396 0.39913315 -0.15412754 -0.31315506 0.36286688 0.11626315 -0.39297938
0.17099315 -0.0051871836 0.18514931 -0.13183692 0.20597655 0.3987648 -0.33539835 -0.28120518
0.30697268 -0.116173595 -0.08838728 0.053938746 -0.004924029 -0.11457914 -0.13821575 -0.051586717
0.18365192 0.022998422 -0.0047565997 -0.3685156 0.27894694 0.38258374 0.24131078 0.27274525
0.1141476 0.21020168 -0.14639401 0.0034199357 0.0860261 -0.3067211 0.36028296 0.1666367
0.033162504 -0.0457443 -0.26903498 0.39166325 0.139162 -0.2713437 -0.056620866 -0.30151814
0.009850442 -0.077426255 0.23637104 -0.18260458 0.22827166 -0.08169475 0.0188331 -0.2228806

weight f4 [128, 64]
00000000: a80c b7bd c079 eb3c 7474 5e3d 84b8 70bd
00000010: 7a68 c1bd 4814 983d ac08 81bd 7807 503d
00000020: 40dc e9bc c8b2 93bd b00c d2bd 3a07 cfbd
00000030: feff e53d 045c d63d ca87 823d aae3 d8bd
00000040: f0d1 073c 8e4b cfbd ca6d ecbd 58cf 76bd
00000050: 06d7 ec3d 0058 c2bc 248d 893d d603 edbd
00000060: de85 8dbd faaa b3bd 7a2b 8e3d 8632 da3d
00000070: 8ca3 4cbd 504e 503c f2ec c53d 14ca d9bd
00000080: 3ad1 b23d 0656 b03d e0f7 debd 3058 853c
00000090: 9463 bd3d 2e26 bd3d 548d a83d e474 d53d
000000a0: 60f2 0c3d 6486 42bd 448f 82bd ec30 b1bd
000000b0: a8c9 ff3d 4876 bebc c04a dbbd 28fd da3c
000000c0: 10e3 323c a0eb 06bc b449 7d3d ec9d 73bd
000000d0: 869c cb3d 582e db3d 5057 fe3c 1e82 873d
000000e0: 18cc 1f3d 9071 81bc d04b 813d 7cad 033d
000000f0: a0b7 75bc f037 3b3d 701f fcbc 1c7d 253d
00000100: dcb7 82bd acd6 36bd 3e40 d33d 4e9d f8bd
00000110: 5a2a c7bd 7e75 87bd 0043 3f3b 2064 553c
00000120: 8089 d4ba 04fc de3d 00eb 06bd 0c11 b03d
00000130: dce2 cb3d 34f3 c7bd dc4d 93bd 20cd 2cbd
00000140: f8be b03c e05a b63d b08f 1cbd f82a e8bd
00000150: 404c 1f3b 4012 a03c 522c 8abd b061 06bd
00000160: a4b3 99bd a881 ddbd fc67 763d 4403 a73d
00000170: d00e 413c 7458 56bd 5036 96bd b041 0cbd
00000180: e410 453d 00a2 f13a 1c1b d0bd 3404 6d3d
00000190: 400c 82bc 10c4 6cbc b0a3 4a3c fa5d d93d
000001a0: e05b c53b 4692 e33d 64e5 e6bd 20cd 2abd
000001b0: 0e7f d23d 04d3 5a3d 7093 683c 78e6 3a3d
000001c0: 7059 2f3d 22a6 8a3d 8875 d8bd f006 b03d
000001d0: 1a66 91bd c882 f0bc 489b 423d 4232 f03d
000001e0: ae90 893d 3035 983c a026 133d 145f 1ebd
000001f0: 3273 a8bd 68db de3c c8ed 9d3d ec1f 233d
00000200: b2e8 943d 18d9 bdbd 54bd a43d aee0 d5bd
00000210: 2033 ff3c a067 003c 6ac0 cabd 8071 7a3b
00000220: c430 0b3d 5c52 8fbd e8bb b8bd c0f2 19bb
00000230: c033 8e3d 2057 e33b ba50 9cbd 8002 063b
00000240: f86c bbbd d0f2 e0bc 9885 3f3d 3e41 9b3d
00000250: 782a 70bd 8228 ddbd 343d eb3d b2f5 893d
00000260: 66c1 87bd 7caa 843d d02f 45bd 38fd 84bc
00000270: c093 4cbd 68d8 eebd 981f 363d 00fd 3abd
00000280: 809e b0ba fef0 e03d 0075 623a 387f b93d
00000290: 90e9 603c e467 7fbd 98ef 913d a449 69bd
000002a0: 5cc5 fbbd aa95 fb3d 0277 f8bd 7ac8 e4bd
000002b0: 6c20 87bd 0829 a13c 90c2 30bc a0b9 e23b
000002c0: 009b 79bb 2401 313d 2629 b73d f226 8b3d
000002d0: fcd7 053d 505d ffbc 18c0 e53d 1633 dbbd
000002e0: 20d0 553d dcb2 b7bd b04f c83c 80b9 ad3b
000002f0: d67c ce3d 200c 13bc 5474 51bd 0499 dbbd
00000300: 600b a23c b84c 933c 2484 80bd ac55 ee3d
00000310: 3496 d3bd c0c6 48bb 98a6 eabd 009d 23bd
00000320: 4cc8 49bd 6a95 d4bd e48e 62bd 121b a43d
00000330: 9c37 89bd f6ad bfbd 6432 48bd 00f9 0b3c
00000340: 66f3 ce3d f6f0 bcbd e050 dabd 6c42 6b3d
00000350: 1467 513d ca96 8abd 10e2 1a3d a0b6 6abc
00000360: 6847 8fbd 40a1 103b a035 623c aea8 cabd
00000370: 768e bbbd bc5f ca3d 2805 b0bd ec68 2cbd
00000380: a80b 2a3d 40f0 28bd 0474 093d 3a33 ecbd
00000390: 08db 8a3c 7a4b ccbd b0b9 eabd a4dd b0bd
000003a0: a438 67bd 062d 80bd 5000 5abc 3002 0c3c
000003b0: 8471 e23d 2885 eabc 262c 843d 8879 833d
000003c0: 209c cfbc 0033 693b 7483 133d 18b9 093d
000003d0: 6086 be3c e03f a43c 00f8 f9b8 5878 cbbd
000003e0: 6c86 11bd 72c8 ea3d 88bb 9bbd 34e0 973d
000003f0: c005 2b3c c0dd 82bd 2469 c93d 9817 d3bc
-0.08937961 0.028744578 0.054310277 -0.058769718 -0.094437554 0.07425743 -0.06300482 0.050788373
-0.028547406 -0.07211834 -0.10256326 -0.101088 0.11230467 0.10466769 0.06373556 -0.105902985
0.008289799 -0.10121833 -0.11544378 -0.060256332 0.1156445 -0.023723602 0.067163736 -0.11572997
-0.06910299 -0.087728456 0.06941886 0.10654168 -0.049960658 0.012713984 0.09664334 -0.106342465
0.08731313 0.08610158 -0.10887122 0.016277403 0.09247509 0.09235798 0.08230081 0.10422686
0.034410834 -0.047491446 -0.06374982 -0.08651909 0.12489635 -0.02324976 -0.10707617 0.026732042
0.010918394 -0.008234888 0.061837867 -0.059476778 0.09941964 0.10702199 0.031047493 0.06616615
0.039013 -0.015801221 0.06313288 0.03214787 -0.014997393 0.045707643 -0.03077671 0.040402517
-0.06382725 -0.04463832 0.103149876 -0.121393785 -0.09724875 -0.06614207 0.0029184222 0.01302436
-0.0016215295 0.10887912 -0.032938957 0.085970014 0.09955379 -0.09763184 -0.07192585 -0.04218781
0.021575436 0.08904052 -0.03822297 -0.11336321 0.0024306923 0.019539952 -0.06746735 -0.032808006
-0.07504967 -0.108157456 0.06015776 0.0815492 0.011783317 -0.05233045 -0.07334578 -0.034242332
0.04811181 0.0018435121 -0.10161421 0.057865337 -0.015874982 -0.014451042 0.012368128 0.10613628
0.0060229152 0.11111884 -0.112742215 -0.04169953 0.1027814 0.053423896 0.014195308 0.04562995
0.042809904 0.067699686 -0.10569292 0.08595073 -0.070995525 -0.029359236 0.04751137 0.11728336
0.067170486 0.01858005 0.035925508 -0.038664892 -0.08225097 0.02720423 0.07711369 0.039825365
0.072709456 -0.09269923 0.08043924 -0.10443245 0.031152308 0.007837206 -0.09899981 0.0038214624
0.033982053 -0.06998131 -0.09020215 -0.0023490638 0.06943464 0.0069378763 -0.07632585 0.0020448267
-0.091516435 -0.027459532 0.046758264 0.07580803 -0.05863425 -0.10798742 0.11486283 0.06736316
-0.06628685 0.0647783 -0.0481413 -0.016234025 -0.049945593 -0.1166237 0.044463724 -0.045651436
-0.0013474971 0.109834656 0.000863865 0.09057468 0.013727561 -0.062354937 0.07125777 -0.056954995
-0.12293503 0.122844055 -0.12132074 -0.1117105 -0.06597981 0.019672886 -0.010788575 0.006919101
-0.0038086772 0.04321398 0.08943395 0.067945376 0.032676682 -0.031172425 0.112182796 -0.10703103
0.052200437 -0.089696616 0.02445206 0.0053016543 0.10082404 -0.008975059 -0.05113633 -0.10722545
0.019780815 0.017980918 -0.06275204 0.11637434 -0.10331383 -0.0030636042 -0.114575565 -0.03994465
-0.049263284 -0.10380061 -0.055312052 0.08012976 -0.0670006 -0.09359352 -0.04887618 0.008543253
0.10105018 -0.09225647 -0.10659957 0.05743639 0.051123694 -0.06767042 0.037813246 -0.014325768
-0.069960415 0.0022068769 0.0138067305 -0.09895454 -0.09158032 0.09881541 -0.085947335 -0.04209225
0.041515023 -0.041244745 0.033557907 -0.11533208 0.016950145 -0.099753335 -0.11461198 -0.086360246
-0.0564505 -0.062585875 -0.013305739 0.008545443 0.11056808 -0.028627947 0.06453733 0.064196646
-0.025343 0.0035583377 0.036014035 0.033623785 0.023257434 0.02004999 -0.00011919439 -0.09935063
-0.035528585 0.11464013 -0.07604128 0.0741581 0.010438383 -0.06389952 0.09834507 -0.025768086

bias f4 [128]
00000000: bca6 1f3d 606e 943d 7a3f 813d 64fe d9bd
00000010: 3819 ae3c 1873 e53c d89a fc3c 60b2 20bd
00000020: 84fa 243d 9420 e23d f026 55bd 98ff d6bc
00000030: 84a1 92bd 7602 b6bd 605a c23d 807b c93d
00000040: 2434 d2bd 40c7 d93b d656 f93d e845 88bc
00000050: da43 f9bd 5cd9 93bd 5820 253d fcdb 663d
00000060: 74fa 063d 00d9 c3bb 8005 babd 705a c6bc
00000070: 30eb 6b3c 40ca a1bc f0c4 b7bc 56e7 ae3d
00000080: 3209 d7bd 5edd ecbd 3081 7ebc c8ea 993d
00000090: 305f 723d 7099 903c 9036 303d 6487 50bd
000000a0: a0ff ed3c 609b 04bc 8a8e 9fbd a0e3 d3bd
000000b0: 0a4f cb3d 3c20 3c3d 686c 8bbc 10b5 5e3d
000000c0: a86f 27bd 006e 47bd 4043 4fbb 0037 583b
000000d0: 647f b6bd fcd2 d8bd 06c3 9e3d d04a 1a3c
000000e0: c6c2 babd 4cd7 82bd 3096 53bd d082 163c
000000f0: b640 b53d 78e6 f43d d034 bd3d b434 783d
00000100: b82b e23c f04b 243d 82d3 a63d 6635 f8bd
00000110: 06c2 a1bd 705c a7bd 04e8 3b3d 58d8 a5bd
00000120: 582c f6bc e007 e73d 2025 29bd 7005 cdbd
00000130: 48fb 49bd 90be 63bc e08a fa3d a48a 15bd
00000140: 2075 2f3c 402f 1a3d e04e 8bbc 24dd 09bd
00000150: 4005 ebbc 6086 003c b045 c33c 48ff e2bd
00000160: 9025 b9bc 00e7 633b 647b 7f3d 203a 593d
00000170: dead bebd f824 c63d 80f9 0d3d e89b b33c
00000180: 70f0 35bc 94b7 043d fcfa a83d 707c 8d3c
00000190: 62d1 fbbd 0876 fb3c c0e5 f23d c05d 99bc
000001a0: e09a 183c c022 bebc b62c e2bd a69e ea3d
000001b0: 30e5 c8bd 5a5a c03d c0e8 2fbc 14dd 953d
000001c0: 021a ec3d a85d 28bd 80cd 763d d870 ecbc
000001d0: eaaa 903d 88bd 7d3d b216 df3d f4a6 203d
000001e0: 4849 f43d 3ccc 3abd 9cb1 9f3d d06f 2f3d
000001f0: 60ec f13b 101c 623c f825 babc 2a2e afbd
0.03897737 0.07247615 0.06310935 -0.10644224 0.02125226 0.028008983 0.030835554 -0.03923261
0.040277973 0.1104137 -0.052039087 -0.026244923 -0.07159713 -0.08887188 0.09489894 0.09838009
-0.10263851 0.006646067 0.12174766 -0.016634896 -0.12171145 -0.072191924 0.04031405 0.056362137
0.032953694 -0.005976796 -0.0908308 -0.024213046 0.014399335 -0.01974976 -0.022432774 0.085402176
-0.10499801 -0.1156566 -0.01553373 0.07515484 0.05917281 0.01765129 0.043020785 -0.05091037
0.029052556 -0.008093685 -0.07790859 -0.103461504 0.09927185 0.04592918 -0.017019466 0.054371893
-0.040877968 -0.04868889 -0.0031625777 0.0032991767 -0.089110166 -0.10587117 0.077520415 0.009417251
-0.09119181 -0.06388721 -0.0516569 0.009186462 0.08850233 0.11958021 0.09238589 0.060597137
0.027608737 0.040111482 0.08145811 -0.1211956 -0.07898335 -0.08171928 0.045875564 -0.08097905
-0.030050442 0.11280799 -0.04129517 -0.10010803 -0.049311906 -0.013900414 0.122335196 -0.03650917
0.010709077 0.037642717 -0.017005384 -0.03365816 -0.028689027 0.0078445375 0.02383694 -0.11083847
-0.022600919 0.0034775138 0.062373534 0.053033948 -0.09310506 0.0967502 0.03466177 0.021924928
-0.011104688 0.032401636 0.082509965 0.01727125 -0.12295796 0.03069593 0.118602276 -0.018721461
0.009314269 -0.02320993 -0.11043684 0.11456041 -0.09809339 0.09392233 -0.010736644 0.07317558
0.11528398 -0.041104943 0.060254574 -0.028862402 0.07063849 0.06194833 0.10893001 0.03922172
0.1192804 -0.04560493 0.07797548 0.042831242 0.0073829144 0.013800636 -0.022723183 -0.08553727

weight f4 [4, 128]
00000000: c0ed 7dbc bae0 263d c065 b8ba d813 28bd
00000010: c047 d43a 3a56 553d 12ce 87bd 10aa a0bc
00000020: 9471 973c c164 8c3d 1a37 403d 9fac 18bd
00000030: 80d2 18bb fef6 3bbd 7649 323d e04b 30bc
00000040: 40b3 be3b f457 93bc 4028 6b3c 8242 7dbd
00000050: 9c0d e8bc 0224 26bd feb0 14bd 13dc 59bd
00000060: 6e34 313d 6964 15bd e31a 47bd ac32 9cbd
00000070: 3689 eebc cc45 9dbc 9ec0 b1bd 4ab6 4d3d
00000080: 7781 953d b8dd e13c 58d9 8bbc e08e f1bc
00000090: 40fb 953a 80bb 78bb 1cbf 83bc 50f9 0a3c
000000a0: 71e6 9abd d425 8fbc 8852 043c 51e3 b1bd
000000b0: 5adc 643d 159e 853d e16a ae3d 7dd6 17bd
000000c0: 7d7f a33d f0c0 82bb 35f9 95bd 3633 d4bc
000000d0: 13cf a03d 9842 30bc 3193 8b3d b9a5 8b3d
000000e0: 2071 143d b0da 68bc ed32 52bd d41b 03bd
000000f0: f12c 97bd 8b02 893d a3db 43bd a4c3 b73c
00000100: 80bf a7bb 6cbe 9f3c 000f 1c3c 9f6a a13d
00000110: 589f c93c 9c10 d53c 3cef c93c 5d27 993d
00000120: df80 b4bd b088 573c 68f3 0e3d 2bcd 853d
00000130: 48a9 5abc aafe a1bd dcd1 82bc d083 e23b
00000140: e41e 7fbd 204d 7f3c 6efd 6f3d ce7d 49bd
00000150: 00d4 f73c 05b2 1bbd fac5 303d 99b3 a83d
00000160: e65f 82bd 5648 6bbd bfaf 97bd 88ad c43c
00000170: 12c1 1b3d 2335 56bd 3804 933c a830 5abc
00000180: 52c4 07bd f6f3 033d 25b1 a13d 3da6 9bbd
00000190: a871 4a3c d852 143c b0c9 c5bb 6459 b83c
000001a0: eea6 b3bd 2cdb bc3c 440f ce3c eaff 033d
000001b0: 97e7 a33d cde0 77bd 822c 123d a167 3abd
000001c0: 0dda 3ebd 9503 9bbd 28a7 5d3c b0ff 2fbc
000001d0: 53b3 853d e009 7f3b 3850 583c 545a dc3c
000001e0: 6db7 8a3d 6053 3e3c e76c 6abd 9a53 5bbd
000001f0: ae23 78bd e22c 45bd 3d70 8f3d 9583 45bd
00000200: 4044 63bb 674f 933d c41d 97bd ebb5 2ebd
00000210: dcf9 84bc 2033 a4bb c200 273d f272 91bd
00000220: aa14 4b3d 6664 683d 3a11 6c3d abbb 8e3d
00000230: 9412 933c 25cb 9e3d 2f7e b13d 28a7 febc
00000240: 80cd 083a 0750 17bd 80ad 303b 4b48 973d
00000250: 7595 a83d d1eb adbd b045 b73c 027e 0b3d
00000260: c4bf 40bd 0f67 b13d 2e07 53bd a6e4 623d
00000270: 10d2 ddbc 32ab 213d f406 813c 0287 543d
00000280: 00f3 9439 fd5b 9fbd 960f 633d 28ce 85bd
00000290: 9ec6 093d 7ec9 513d 243a c8bc e52f 8c3d
000002a0: 0294 2f3d 96ec adbd df4c 34bd 17b1 a63d
000002b0: 7489 90bc 6017 7bbc 0e9a 383d 827c 50bd
000002c0: b8de 56bd 1586 a33d 0069 31ba 4729 91bd
000002d0: 48b9 09bc 2002 70bb 3435 b2bc b291 2a3d
000002e0: 0e3b 5bbd fc6d d93c 583d 63bd 5f07 99bd
000002f0: 8275 a3bd 906b 12bc 105e fdbc aad8 9abd
00000300: de2f a5bd e44b 40bd dda1 a63d de42 37bd
00000310: 4081 de3a 1d1a ab3d 80b6 a63a c9c3 8bbd
00000320: 207a 363b b4db 803c 7e79 173d 9e1a 4b3d
00000330: 7cb6 efbc 4663 2f3d 738d 16bd 6b32 a53d
00000340: 4a13 7e3d c7dc 943d 6db7 6ebd 8443 ee3c
00000350: 5113 3dbd 31c1 2bbd 33bf 6dbd 0e00 273d
00000360: 0093 82bb 2b94 ab3d 087b a8bc 2e3a 683d
00000370: 0b09 ae3d 1e90 a7bd e0d2 80bd 6662 383d
00000380: 1815 e83c 79cd 833d dcce c83c bfe5 a83d
00000390: 7ccf aabd c1db 48bd c0c2 e63c ec4b 973c
000003a0: f886 db3c fe72 93bd a717 953d 6098 15bb
000003b0: 6e99 b1bd 3004 b6bc d98b 94bd 225a 323d
000003c0: 7662 7fbd 4b5a 923d 0297 3f3d 5c60 ff3c
000003d0: 7fa0 8bbd f6f8 21bd 920f 3bbd f748 94bd
000003e0: 703c 15bd 69a0 a23d 65ff a4bd b7ba a2bd
000003f0: e096 153c 8036 82bc acf2 a03c ca23 5b3d
-0.015498579 0.04074166 -0.001406841 -0.04103455 0.00161957 0.052084185 -0.06631102 -0.019612342
0.018486775 0.06855155 0.04692755 -0.037274 -0.0023318827 -0.045889847 0.04352709 -0.0107602775
0.005819708 -0.017986275 0.014352858 -0.061831005 -0.028326802 -0.040561683 -0.036301605 -0.053188395
0.04326289 -0.03647271 -0.048609626 -0.076268524 -0.029118162 -0.01919832 -0.08679317 0.050222673
0.07300084 0.027571544 -0.017071411 -0.029487073 0.0011442676 -0.0037953556 -0.016082339 0.008482292
-0.075634845 -0.017474093 0.008076318 -0.08685935 0.055874206 0.065242924 0.08516479 -0.037069786
0.07983301 -0.003990285 -0.07322923 -0.025903326 0.07851996 -0.010758065 0.06815184 0.068187185
0.036240697 -0.014212295 -0.051318098 -0.03200896 -0.07381619 0.06689938 -0.047816884 0.022432156
-0.005119264 0.01949998 0.009525061 0.078816645 0.024612114 0.026008897 0.024650209 0.07478211
-0.08813643 0.013155147 0.0349001 0.06533273 -0.013346024 -0.079099014 -0.01596921 0.006912686
-0.06228532 0.015582353 0.0585913 -0.049192242 0.030252457 -0.03801157 0.043157555 0.082373805
-0.063659474 -0.05744203 -0.07406568 0.024008527 0.038025923 -0.05229677 0.017946348 -0.013317265
-0.03314621 0.03221508 0.07895116 -0.07600067 0.012356199 0.009052955 -0.006036006 0.022503562
-0.08772074 0.023053728 0.025153764 0.03222648 0.08003157 -0.06051712 0.035686977 -0.045508984
-0.04659467 -0.075690426 0.013528623 -0.010742113 0.06528344 0.0038915798 0.013202719 0.02689854
0.06773267 0.011616558 -0.057232764 -0.053546526 -0.0605809 -0.048138507 0.0700383 -0.04822119
-0.0034678131 0.07192879 -0.07378724 -0.04265396 -0.016232423 -0.0050109774 0.040772207 -0.07102002
0.049580254 0.056736372 0.057633616 0.069693886 0.017953195 0.077535905 0.08666646 -0.031085566
0.000521861 -0.036941554 0.0026958883 0.07386836 0.08231632 -0.08492244 0.022372097 0.034055717
-0.047057882 0.08662235 -0.05152052 0.055393837 -0.027077705 0.039469905 0.015750386 0.051886566
0.0002840981 -0.07781217 0.055434786 -0.06533462 0.03363668 0.05121755 -0.024441786 0.06845073
0.04286576 -0.08492391 -0.044018622 0.08139246 -0.017643668 -0.015325397 0.045068793 -0.05089999
-0.052458495 0.079845585 -0.00067676604 -0.07087951 -0.008405991 -0.003662236 -0.021753885 0.041642852
-0.053523116 0.026541702 -0.055478424 -0.07472109 -0.07981397 -0.008936778 -0.030928642 -0.07560857
-0.080657706 -0.046947375 0.08136342 -0.044741504 0.0016975775 0.0835459 0.0012719184 -0.068244524
0.0027843788 0.015729763 0.0369811 0.04958593 -0.02926182 0.042819284 -0.03675599 0.08066257
0.062030114 0.072686724 -0.058280397 0.029084928 -0.046161 -0.04193229 -0.05804367 0.040771537
-0.003984809 0.0837787 -0.020566478 0.05669611 0.084978186 -0.08181785 -0.06290221 0.045015715
0.02833037 0.06435675 0.0245127 0.082469456 -0.08340356 -0.0490377 0.028169036 0.01846882
0.026797757 -0.071996674 0.07279902 -0.0022826418 -0.086718425 -0.022218794 -0.07253236 0.04354299
-0.06234976 0.07146128 0.04677487 0.031173877 -0.068177216 -0.03954407 -0.045669146 -0.072404794
-0.03643459 0.07940752 -0.08056525 -0.07945769 0.00913021 -0.015895128 0.019646965 0.053500928

bias f4 [4]
00000000: 666b debc f60b 493d f218 acbd e347 43bd
-0.027150821 0.049083672 -0.084031954 -0.04767598

weight f4 [1, 128]
00000000: 7e40 363d b0f0 a4bc b6c2 403d 4e91 b1bd
00000010: be64 13bd 5fb5 843d 9325 2fbd b2f1 7fbd
00000020: d0cf 67bd 9831 20bc 4ad6 32bd f841 523c
00000030: 44f1 073d 2865 bb3c f8bf 5ebc a4d7 3cbd
00000040: 98c9 86bd 667f 6ebd 20dd 63bd 4477 8a3c
00000050: 7168 b3bd 203b 123c fd74 a5bd 7e00 013d
00000060: 9356 933d 1c75 ce3c 62e9 36bd 18e4 a43c
00000070: f7d1 aebd 8891 8fbd 0eb5 103d c95a a83d
00000080: 8714 a53d d025 97bc 89fd a73d d182 993d
00000090: 54a3 bdbc 1933 923d 33d4 28bd c854 77bd
000000a0: 3087 94bc 15c7 b13d f867 49bc a894 bc3c
000000b0: c074 6cbc 166c 4abd 66c6 693d be34 3c3d
000000c0: 1dc1 92bd 40c2 ad3a 6c1d e6bc c0b2 2e3b
000000d0: e157 39bd ff11 a63d 10bf a23c 7b3b b33d
000000e0: d47c a2bd 868f 63bd 3149 a9bd c416 87bc
000000f0: b090 e2bb b465 9fbc 5ecc afbd b0e5 18bc
00000100: 5b48 933d 40f5 933a 9587 8b3d 3648 7dbd
00000110: 3902 ae3d d0ad 3fbc c23f 453d 3dc9 863d
00000120: fbce 8a3d aa64 a1bd 6a41 3abd e0a1 debb
00000130: 5ef5 8bbd 31ff 8d3d 9629 33bd 0019 f23c
00000140: f4dd 07bd 0e26 2b3d f980 ac3d addb 8c3d
00000150: 98cc dbbc 1407 2dbd 7c3d 0dbd 3a6e 81bd
00000160: 2dbf 32bd 5a35 68bd e0e2 c1bc ac54 f1bc
00000170: ce0b 4d3d 2498 f53c d0cc d5bb 8821 0d3d
00000180: cb0a 933d 2b53 12bd 8f8b adbd 7c21 8ebc
00000190: baa3 153d 259e ae3d 70e8 73bc a263 323d
000001a0: 920b 4d3d 411a a43d 13fd 60bd 2156 0abd
000001b0: 1bd0 8f3d 3488 bfbc ea30 7abd 56c7 113d
000001c0: b1fe 913d 0197 9ebd dfc2 903d c8b6 b9bc
000001d0: 5a5a 7dbd e8a5 a13c 68d0 743c 8852 b5bc
000001e0: 2ab4 a7bd 400c 323b abdd 56bd 1ec8 2b3d
000001f0: a13b 8f3d cfb7 853d 2069 3ebb f8a8 6dbd
0.0444951 -0.0201343 0.04706069 -0.08670293 -0.035984747 0.06479906 -0.042760443 -0.062486358
-0.05659467 -0.009777449 -0.043661393 0.012833111 0.033189073 0.022875383 -0.013595574 -0.04610409
-0.0658142 -0.058226965 -0.055630803 0.016902573 -0.08760155 0.008925229 -0.08078954 0.03149461
0.07194247 0.025202326 -0.044656165 0.020128295 -0.08536141 -0.0701018 0.035328917 0.08220441
0.08060556 -0.018450648 0.08202655 0.074956544 -0.02314917 0.07138652 -0.041217994 -0.060383588
-0.018130869 0.0868055 -0.0122928545 0.023020104 -0.014432132 -0.049419485 0.057073973 0.045948736
-0.0716574 0.0013256744 -0.028090201 0.0026656836 -0.045249823 0.08108901 0.019866496 0.087515794
-0.07933965 -0.055556796 -0.08265913 -0.016490348 -0.0069142208 -0.019457676 -0.08583902 -0.0093321055
0.07191535 0.00112883 0.068129696 -0.061836444 0.08496518 -0.011699155 0.048156507 0.06581352
0.0677776 -0.07880528 -0.04547254 -0.0067941993 -0.068339095 0.069334395 -0.04374083 0.029552937
-0.033170655 0.04178434 0.08423037 0.06877837 -0.026830956 -0.04224308 -0.034482464 -0.06319852
-0.04363935 -0.056691505 -0.023667753 -0.02945932 0.050060086 0.029979773 -0.0065246597 0.034455806
0.07179793 -0.035723846 -0.08473884 -0.017349951 0.036533095 0.085262574 -0.01488696 0.04355205
0.050059862 0.0801282 -0.05492885 -0.033773545 0.07022115 -0.023380376 -0.061081804 0.035590492
0.07128657 -0.077436455 0.07068419 -0.022670165 -0.061853744 0.01973243 0.014942266 -0.02213408
-0.081886604 0.0027167946 -0.052457493 0.041938893 0.06993795 0.06529199 -0.0029054359 -0.05802247
