output/2023-04-09_21-40-20/weight/58_test_model.pkl (torch, 41227 bytes, 7 tensors)

weight f4 [64, 6]
000000 3c 33 80 bd 5a 34 97 3e e2 6e c0 3e 00 20 02 bb
       -0.06259772 0.2953213 0.37584597 -0.00198555
000010 1e 84 ad 3e 5c 10 8b 3e 04 87 ae be a0 9b 97 3d
       0.3388986 0.2716092 -0.34087384 0.0740273
000020 42 90 a6 3e e4 61 b9 bd c9 00 af be d8 f7 96 bd
       0.32531935 -0.09051874 -0.34180287 -0.07371491
000030 bc 3d ae be 75 ce 7c be c0 a5 86 bc d0 3a cd 3d
       -0.34031475 -0.24688132 -0.016436458 0.10020983
000040 fa 0c cf 3e 10 ad b0 be 14 b2 74 be 18 79 c2 3e
       0.40439588 -0.34507036 -0.23896056 0.37983012
000050 38 77 81 be 3d 01 b4 be 80 14 d5 bb 2c 32 c9 3e
       -0.2528627 -0.35157195 -0.006502688 0.3929609
000060 96 f6 88 3e e8 13 27 3d ac 42 a2 bd af df 28 be
       0.2675063 0.04079047 -0.07922873 -0.16491579
000070 83 e6 35 be c7 a1 58 be a2 1f a8 be 70 7f 6c bd
       -0.17763714 -0.21155463 -0.32836634 -0.05773872
000080 fb f3 96 be 77 62 c2 be c4 c7 6d 3e 2a b6 89 3e
       -0.29483017 -0.37965748 0.23220736 0.26896793
000090 38 e9 c6 bd 20 80 65 be 04 24 9b be 1e 8e 45 be
       -0.09712452 -0.22412157 -0.30300915 -0.19292495
0000a0 c2 bb 93 3e ac 47 b9 bd d0 2b b2 3e e4 5f b8 be
       0.28854185 -0.090468735 0.3479905 -0.3601066
0000b0 ae 48 9b 3e d8 9b 12 3e 27 25 36 be b0 96 1a bd
       0.30328888 0.14317262 -0.1778761 -0.037741363
0000c0 7d c5 29 be 3b 30 42 be 60 d1 04 3c ab 97 51 be
       -0.16579242 -0.18963711 0.0081065595 -0.20468013
0000d0 d8 cd 28 3e f6 f4 8a be 9c e4 be be 54 c6 96 bd
       0.16484773 -0.27140015 -0.3728379 -0.07362047
0000e0 10 bc 88 be 98 79 3c 3e 0f 50 a5 be 5a 80 c7 3e
       -0.2670598 0.1840576 -0.32287642 0.38965112
0000f0 48 65 47 3d 20 e2 b3 3c 1e 32 1f be 48 a5 0d be
       0.048680574 0.02195841 -0.15546462 -0.13832581
000100 f8 38 19 3d 30 e2 74 3e a6 3c b5 be 8c 6c fc bd
       0.037407845 0.23914409 -0.35397834 -0.12325391
000110 60 24 dd bc 1e 62 7c be 7b 0f 42 be b4 f3 05 3e
       -0.026994884 -0.24646804 -0.18951218 0.13081247
000120 0e d2 8e be ba da ae 3e 5c ea b7 3e 08 3d b7 3d
       -0.27894634 0.3415125 0.3592099 0.08947188
000130 14 71 3b 3e 6f 96 bf be b8 ee d0 3e 26 ed 86 be
       0.18304855 -0.3741946 0.40807128 -0.26352805
000140 2f 24 76 be 83 26 26 be 94 54 a1 be 0b 8b 81 be
       -0.2403724 -0.16225629 -0.3150984 -0.25301394
000150 70 b6 c5 3c d2 0e ca 3e 40 d9 20 be e8 c7 f8 3d
       0.024134845 0.39464432 -0.15707874 0.12147504
000160 68 3a 18 3d d4 fd 17 3e e8 8a c4 be c0 34 01 bd
       0.037165076 0.14842921 -0.38387227 -0.031544447
000170 ae 9f 91 be 7c a5 10 3e 58 68 60 be c8 33 bc bd
       -0.28442138 0.14125627 -0.21914804 -0.09189564
000180 e2 62 a5 3e 00 86 0c 3a e0 c3 45 3c 4c 3a 49 3e
       0.32302004 0.0005360544 0.012070626 0.19651145
000190 90 5f 89 bd 86 63 c3 3e c0 ae 14 be 60 c8 4d 3c
       -0.0670768 0.38161868 -0.14519787 0.01255998
0001a0 80 9f 1c 3e 50 aa c4 3d 80 d2 ac bd 58 5d 4f 3d
       0.1529522 0.09602797 -0.08438587 0.05062613
0001b0 ac fe aa be a4 74 41 3e a2 7b 72 be f0 18 74 3d
       -0.33397424 0.18892151 -0.23679975 0.059594095
0001c0 34 18 04 be 70 36 38 3e 9e 36 3b be c0 1e 7c 3e
       -0.12899858 0.17989516 -0.18282554 0.24621105
0001d0 c0 b0 bf bb 0c 3c 05 be 40 8a 97 bb 64 c7 df bd
       -0.0058499277 -0.13011187 -0.004624635 -0.109267026
0001e0 60 48 88 bc 30 8b 24 be d5 37 bc be c8 02 01 3d
       -0.016636074 -0.16068721 -0.36761346 0.031496793
0001f0 96 9c be be c0 63 20 3c 08 c6 fa 3d 34 27 a2 3d
       -0.3722884 0.009789407 0.12244803 0.07917634
000200 ec a9 91 3e 80 04 07 bd 98 81 89 3d 90 d6 7f bd
       0.28449953 -0.032963276 0.06714171 -0.062460482
000210 c0 4d 1f bd 80 5c 4a bc 7c 74 e4 bd 88 48 23 3e
       -0.038892508 -0.012351155 -0.1115503 0.15945637
000220 dc 9b 1e 3e 8b 3f a1 be f0 ff e1 3c 34 c1 aa 3e
       0.15489143 -0.31493792 0.02758786 0.33350527
000230 0a c9 15 be c2 ab a0 be 0c 29 60 3e 25 e1 8f be
       -0.14627472 -0.3138104 0.21890658 -0.2810146
000240 1e 2e 85 3e c8 6a 0d 3d c0 00 33 3d e0 29 39 3c
       0.26011747 0.034525663 0.043701887 0.011301488
000250 08 14 b1 3e 26 19 9f 3e 28 a5 5e 3e 2c 48 4b 3e
       0.34585595 0.31073874 0.2174269 0.1985175
000260 58 2b 94 be 16 01 a1 be 69 f1 98 be b8 33 9a be
       -0.2893932 -0.3144614 -0.2987168 -0.30117583
000270 36 e3 b5 3e 2c c4 a2 3e aa a6 8a 3e ac ef 9e 3e
       0.3552491 0.31790292 0.2708028 0.3104223
000280 48 5c 9f 3e ea 63 9f 3e 20 75 45 be ae b5 c0 3e
       0.31125093 0.31130916 -0.19282961 0.3763861
000290 40 1b 85 3b 0f 4f 32 be 53 63 47 be 11 64 9b be
       0.0040620863 -0.17412971 -0.19471483 -0.30349782
0002a0 d8 f5 c3 be 50 10 bf bd be d1 cf 3e 2c a1 cd 3e
       -0.382735 -0.09329283 0.40589708 0.40162027
0002b0 d0 69 d2 bd 04 c9 37 3e 34 dc cf 3e 3c ee 05 3e
       -0.102740884 0.17947775 0.4059769 0.1307916
0002c0 78 b7 98 bd d6 91 09 be a0 6c 70 3d 8c 12 c8 be
       -0.07456869 -0.13434538 0.058697343 -0.3907665
0002d0 28 8a 49 3e 4c dc 92 3d b8 ba 28 3e 7b 4d b5 be
       0.19681609 0.071709245 0.16477478 -0.35410675
0002e0 bf 7b 2f be 8f bf cf be 90 ca 98 be 00 65 45 bc
       -0.17137049 -0.40575835 -0.29842043 -0.012048006
0002f0 5a 59 87 3e 2c ee e0 bd 94 cb a3 be 6c 60 4f 3e
       0.26435357 -0.10982928 -0.31991255 0.20251626
000300 00 d5 a0 bb bc 63 af 3e 51 69 ab be 50 df 7b 3e
       -0.004908204 0.3425578 -0.33478788 0.24596906
000310 c0 e7 07 3e f8 22 7e 3e 00 e7 41 3e 90 ef 61 3e
       0.13272 0.24818027 0.18935776 0.22064042
000320 34 f0 bb 3e 60 83 84 be 76 82 c9 be 18 fa ff 3d
       0.36706698 -0.2588148 -0.39357346 0.124988735
000330 30 bd 5b bd 54 96 10 3e 76 c4 43 be 60 be 8c 3e
       -0.05364722 0.14119846 -0.19117913 0.27488995
000340 de 1e 85 be f0 5c 4d 3e 98 d0 6c be ca b7 52 be
       -0.26000112 0.20054984 -0.23126447 -0.20577922
000350 98 d0 a5 3d e0 fb 9c bc 10 a5 a4 bd 00 01 44 bb
       0.08096427 -0.019163072 -0.08039296 -0.0029907823
000360 e9 a8 73 be 22 55 9a 3e 90 88 b9 be 62 38 b3 3e
       -0.23794903 0.30143076 -0.36237 0.35003954
000370 74 b1 ca 3e 44 ef 0b be 4f 1c 24 be 7e 73 86 3e
       0.3958851 -0.13665491 -0.16026424 0.2625999
000380 78 d0 0a 3d 33 7d 4b be 23 e8 cc be 74 99 f5 bd
       0.033890218 -0.19871978 -0.40020856 -0.119921595
000390 88 85 08 3e 84 12 73 3e 40 61 c6 bd 20 d0 df bd
       0.13332188 0.23737532 -0.09686518 -0.109283686
0003a0 50 fc 38 3e 30 be 61 3e 1c a6 c8 3e 82 3a 4d be
       0.18065 0.22045207 0.3918923 -0.2004185
0003b0 f0 c4 5c 3e a0 4e 8b 3d 8c 6e f8 bd 50 53 ec bc
       0.215595 0.06802106 -0.1213046 -0.02884832
0003c0 7b b6 8b be 10 90 0c be 1c a2 e3 bd 5c a6 5b be
       -0.2728766 -0.1372683 -0.11114904 -0.2145018
0003d0 68 a8 ab 3d 2e 36 bc be 78 a4 2d 3d 45 b4 91 be
       0.0838173 -0.36760086 0.042393178 -0.28457847
0003e0 c8 0d 11 be ba 23 be be e0 99 f6 3d 44 ec 41 3e
       -0.14165413 -0.37136632 0.12041068 0.18937784
0003f0 00 66 8d 3e 54 2b 80 be a0 c1 f8 bc 30 1a dd 3d
       0.27616882 -0.25033057 -0.030365765 0.107960105

bias f4 [64]
000000 fc 7a 35 3e 60 10 b3 3e 18 cb b9 3d c6 bf b7 be
       0.17722696 0.3497343 0.0907194 -0.358885
000010 00 37 b0 bd 32 ab 57 be 6a d3 cc 3e d4 21 c4 3e
       -0.086042404 -0.210614 0.40005046 0.3830706
000020 c0 9d af 3e b6 dc a4 be ad 36 53 be 14 2b 7c be
       0.3430004 -0.3219964 -0.20626326 -0.24625808
000030 88 76 6f 3e 14 c1 dc bd 74 c2 c1 3e e4 aa b1 bd
       0.2338506 -0.10779014 0.37843668 -0.08675173
000040 3c bb e3 bd e2 f7 97 3e f4 51 a3 3e d2 4a c2 3e
       -0.111196965 0.29681307 0.31898463 0.37947708
000050 b6 6b 18 be 3c 77 1a be c0 a5 ec 3d 98 90 a4 3e
       -0.14884838 -0.15084547 0.11555052 0.32141566
000060 00 9f 55 bd 48 34 af bd 30 c2 42 bd 1e 7d cb 3e
       -0.052153587 -0.08554894 -0.047548473 0.39743894
000070 30 eb 37 3e 4b 80 c6 be f0 2f 47 3d f6 7d 55 be
       0.1796081 -0.38769755 0.0486297 -0.20848832
000080 7c 47 b3 3e 62 cd 9d be 99 01 ac be 98 27 6b 3d
       0.35015476 -0.30820757 -0.3359497 0.057410806
000090 17 3f 91 be 46 fa bf 3e 48 15 73 3d 8a b9 b6 be
       -0.28368446 0.3749563 0.059346467 -0.3568843
0000a0 bc b8 a6 bd 8c c0 bd bd 27 fc 4f be b8 e5 2a bd
       -0.08140704 -0.09265241 -0.20311032 -0.041722983
0000b0 18 75 67 3d 20 55 bc 3c 84 66 e4 bd 88 3a 1a 3e
       0.056508154 0.02298981 -0.11152366 0.1506139
0000c0 c0 e5 42 3d d8 a6 59 3e b5 96 8b be ff b3 8a be
       0.047582388 0.21255052 -0.27263418 -0.2709045
0000d0 fa a8 96 3e 00 4a 27 be d4 53 7e 3e b0 46 e7 bd
       0.29425794 -0.16336823 0.24836665 -0.112927794
0000e0 b0 88 99 be c6 64 29 be b2 1d ce 3e 3a e1 ac 3e
       -0.29987097 -0.16542348 0.4025703 0.33765584
0000f0 65 87 41 be 49 5b 93 be 50 48 43 3e e4 62 1b 3e
       -0.18899305 -0.28780583 0.19070554 0.15174443

weight f4 [128, 64]
000000 68 d2 7e 3d 12 f0 f2 bd a0 63 7d bd b8 28 e0 bc
       0.062212378 -0.11862196 -0.061862588 -0.027363166
000010 f0 2a f5 bc d2 47 90 3d 6a 9b ed 3d 7c 62 1a bd
       -0.0299277 0.07044949 0.116019085 -0.03769158
000020 d4 ae c6 3d 36 9a 94 3d 90 54 65 bd cc 43 68 bd
       0.097013146 0.07255976 -0.05598885 -0.05670528
000030 b4 fa 1d bd a8 9c 28 3d 34 fc 6b 3d 08 b7 cf bd
       -0.038569167 0.041165024 0.057613567 -0.10142332
000040 08 b7 e9 bc b8 9e a5 3c 54 f7 95 3d 3a dc d4 3d
       -0.028529659 0.020217285 0.07322565 0.103935674
000050 f6 1c 8d 3d 00 fe 57 bb 80 34 6c 3d 2e 53 f9 bd
       0.068902895 -0.0032957792 0.057667255 -0.121740684
000060 4e af 85 bd b0 86 e6 bd 2e b9 cf 3d c8 8d c9 3d
       -0.06527577 -0.11256158 0.10142742 0.09841496
000070 a0 32 fe bc 32 8b 96 bd 82 90 ea 3d b8 c1 c7 bd
       -0.03103 -0.07350768 0.11453344 -0.09753746
000080 e8 2e 79 3d 90 c9 d7 3c 84 7f 0c bd 68 2a e4 3d
       0.06083575 0.02634123 -0.034301296 0.11140901
000090 ba 9f eb bd fa 32 aa bd b0 51 47 bd a4 ac 32 bd
       -0.11505075 -0.08310504 -0.048661888 -0.043621674
0000a0 86 cb 81 bd c0 3f 8d 3d a0 fb 0c bc 6e cf b4 3d
       -0.06337647 0.06896925 -0.008604914 0.088286266
0000b0 00 17 45 3c a8 a5 23 bd 90 18 02 bc ac 71 b5 3d
       0.012029409 -0.039952904 -0.0079404265 0.08859572
0000c0 ac 09 05 bd fc 73 18 3d 64 03 28 bd 9a b1 ea 3d
       -0.032479927 0.037219986 -0.04101886 0.11459656
0000d0 5c 50 42 bd d0 8e ac 3d 60 97 c4 bd 58 4f 4b 3d
       -0.047439918 0.08425677 -0.09599185 0.049636215
0000e0 90 eb a5 bc 00 4a fb bb da d3 b2 bd e8 00 8d 3d
       -0.020253927 -0.0076687336 -0.08731814 0.068849385
0000f0 80 34 54 bd 36 1b e9 bd 18 8f 66 bd 38 78 7b bd
       -0.05180788 -0.11382143 -0.05628881 -0.061393946
000100 a6 10 b0 bd 58 2b 05 bd 3c 1d 50 bd 14 42 e8 3d
       -0.085969254 -0.03251204 -0.05080913 0.113407284
000110 e0 0c c2 3b c0 21 b1 3b 0c 23 ea 3d 00 98 ea ba
       0.005921945 0.0054056346 0.11432466 -0.0017898083
000120 f8 14 93 bc 7c 47 98 3d 80 15 2b 3d f8 e4 0e bd
       -0.017954335 0.074355096 0.04176855 -0.03488633
000130 98 40 e8 bc 40 af ed 3d 10 26 7f 3c dc 23 f0 3d
       -0.028351113 0.11605692 0.01557304 0.1172559
000140 40 3a 62 bc 10 75 81 bd d8 06 be 3c a0 d7 ac bd
       -0.013807833 -0.06321156 0.023196623 -0.08439565
000150 18 1a a6 bc 78 cd 81 bd b8 9b ef 3c 60 e6 cf bc
       -0.020276114 -0.06338018 0.029249057 -0.025378406
000160 e4 a5 1a 3d b2 50 a8 bd 70 d6 df bc ba f4 cb bd
       0.037755862 -0.082185164 -0.027323931 -0.09958787
000170 14 cf 83 bd 9c 26 6c 3d b8 d9 82 bd 08 77 c0 bd
       -0.064359814 0.05765401 -0.06389183 -0.093977034
000180 60 13 7c bc e4 84 94 3d e4 0c d7 bd 20 59 e6 bd
       -0.015385479 0.072519094 -0.105005056 -0.11247468
000190 28 cd ba bc c8 c0 f2 3d 7c bf 63 bd 70 0e f3 3d
       -0.022802904 0.11853176 -0.055602536 0.11867988
0001a0 c0 d3 a4 3d da 36 f6 bd 6e 32 f1 3d fc 24 2c bd
       0.080482006 -0.12022181 0.11777197 -0.04202746
0001b0 4e 64 d5 bd 6e f7 85 3d 78 03 f0 3c 80 b7 1b 3d
       -0.10419522 0.06541334 0.029298529 0.038016796
0001c0 92 f8 9b bd c4 35 69 3d 80 45 eb bb c0 93 3f bc
       -0.076157704 0.05693604 -0.007179916 -0.011692941
0001d0 7c 4c 37 3d 84 f0 51 3d 38 3f 5e 3d f0 4e b2 3d
       0.044750676 0.051254764 0.05425951 0.087064624
0001e0 ec 86 dc bd 92 f1 ac 3d b0 a9 ec bd 80 4a 96 bb
       -0.10767922 0.084445134 -0.11555803 -0.004586518
0001f0 9e db ff bd c0 f9 da 3b c4 ff 2e 3d 48 76 bd 3c
       -0.124930605 0.0066826046 0.042724386 0.02312769
000200 14 3d 04 bd 50 d8 02 3c d8 f3 8b bc 3e be af bd
       -0.03228481 0.007986143 -0.017084047 -0.08581208
000210 e4 11 73 3d 30 39 ce 3d 80 94 9d bc 9c 49 f7 3d
       0.059343234 0.100695014 -0.01923585 0.12074587
000220 ee 2e be 3d 94 13 45 3d de 4c ed 3d 76 61 8c 3d
       0.09286295 0.048114374 0.11586927 0.06854527
000230 78 66 b9 3d f6 c8 dd bd d4 8a 95 3d 70 07 38 bc
       0.090527475 -0.10829346 0.0730187 -0.011232242
000240 32 f2 99 3d 14 87 fc bd 10 bf 33 bc ee 73 ca bd
       0.07516898 -0.123304516 -0.010970846 -0.09885393
000250 88 01 ed bc ba c3 81 3d b8 fd 8d bc d0 f3 10 3c
       -0.028931394 0.0633616 -0.017332897 0.008847192
000260 e0 f6 cb 3c 30 80 9b bc 1a c0 93 3d 70 f4 3d bd
       0.024897993 -0.018982023 0.07214375 -0.046375692
000270 40 4d 71 bc a4 88 8c 3d 60 6c 60 3d a0 22 16 bc
       -0.0147278905 0.06862 0.054790854 -0.009163529
000280 e0 1a 9f bb b8 06 a5 bc 30 c1 fe bd ac 2a 87 3d
       -0.0048554987 -0.020144805 -0.12439191 0.06599936
000290 7c 0b be bd 9c dc 7c 3d b4 7c 64 bd 34 d7 d1 3d
       -0.09279534 0.061733827 -0.05578299 0.10246125
0002a0 00 4e d6 3b 8a d9 fc 3d 86 a8 8a 3d 36 b7 83 3d
       0.00654006 0.1234618 0.067704245 0.06431429
0002b0 a0 d3 e0 bb 5c 2c 76 bd 76 67 a9 3d c0 dc 1c bd
       -0.006861165 -0.0601009 0.08271687 -0.03829646
0002c0 10 cd 50 bd 00 d3 6b ba a0 48 8e 3b dc 3b 39 bd
       -0.050976813 -0.000899598 0.0043421537 -0.045223102
0002d0 e0 08 6f bd 90 9e 9b 3c f2 d5 e8 3d fc a3 a7 bd
       -0.058358073 0.018996507 0.11368932 -0.081855744
0002e0 dc df f3 bd 10 23 00 3c 0c 21 fd bd 34 90 4b 3d
       -0.11907932 0.00782086 -0.12359819 0.04969807
0002f0 e4 4e 7b 3d 3c 31 f1 3d 40 64 2b bd 00 6b 19 3b
       0.061354533 0.11776969 -0.041843653 0.0023409724
000300 f8 3a 1c 3d b6 f4 9c bd 36 0a f2 3d d0 4c 99 bd
       0.038142174 -0.076638624 0.11818354 -0.07485354
000310 98 f8 50 bd 30 bc 2c bd ce 78 e0 3d 60 66 30 bc
       -0.051018327 -0.042171657 0.10960542 -0.010766596
000320 54 06 67 3d 38 b1 ad bc 40 ed 1a 3d 2c af 68 bd
       0.05640252 -0.021202669 0.037823915 -0.056807682
000330 d4 96 32 3d 08 59 14 bd 20 a4 fb 3c 6a 9f e1 3d
       0.043600872 -0.03621772 0.03071791 0.11016734
000340 28 fe 67 3d 4c a9 04 bd 90 0f 1a 3d 80 54 a0 3c
       0.056638867 -0.032388017 0.037612498 0.019571543
000350 c4 38 9e bd 20 4e 72 bc 1c a3 a0 3d 14 5a da bd
       -0.07725671 -0.014789134 0.07843611 -0.10661712
000360 e0 fa db 3b 18 7b e8 3c 36 1c 97 3d a8 3c 95 3d
       0.0067132562 0.028379008 0.07378428 0.0728696
000370 e4 ed 62 bd 58 c5 6a 3d 30 be bb 3c ce 68 85 bd
       -0.05540265 0.057317108 0.022917837 -0.065141305
000380 3c 24 be bd 52 a3 e8 3d 0c 71 d2 3d da 51 cb 3d
       -0.09284255 0.11359276 0.10275468 0.09927721
000390 ce 81 c4 bd d0 85 08 bd 1e 35 a9 bd e0 37 d9 3d
       -0.09595071 -0.03333074 -0.082620844 0.106063604
0003a0 20 b2 70 bc a4 eb a0 bd f0 bf b0 3d 78 b9 d3 bd
       -0.014690906 -0.07857445 0.08630359 -0.1033811
0003b0 40 cb dd 3c 00 ac d0 ba cc 38 b7 3d 12 c7 81 3d
       0.027074456 -0.0015920401 0.0894638 0.06336798
0003c0 e0 f7 81 bb c0 67 b8 3c 04 e4 a8 bd e2 1e c3 bd
       -0.0039663166 0.02251041 -0.082466155 -0.09527375
0003d0 80 f7 bf 3d 5c 67 ec 3d a4 1e 00 bd 0e 38 a1 bd
       0.09373379 0.11543152 -0.03127922 -0.0787202
0003e0 42 a8 8f bd f8 5c eb 3d 0c a3 08 bd 72 fc bb 3d
       -0.070145145 0.11492342 -0.03335862 0.091790095
0003f0 3c 1a 48 bd 12 eb ae bd 60 88 e7 3b 56 44 a2 bd
       -0.048853144 -0.0854093 0.0070658177 -0.0792319

bias f4 [128]
000000 d4 8d f3 bd 6c 1b cb 3d 68 04 95 3d 96 95 a2 bd
       -0.11892286 0.0991734 0.07276231 -0.079386875
000010 d2 55 8f bd dc 2b 17 bd d2 a4 db 3d 3a 48 d3 bd
       -0.06998791 -0.036907062 0.10724796 -0.103165105
000020 e0 9b b0 bc a6 ae f9 bd 2c 31 28 bd 66 12 d7 3d
       -0.021558702 -0.12191515 -0.04106252 0.10501556
000030 50 e9 69 bd 10 9a 24 bc f8 0c 69 3d 88 9b 41 bd
       -0.05710727 -0.010046497 0.056897134 -0.047267467
000040 a6 3e 8d 3d 40 ed af 3c ce 89 a4 bd c0 dc 6b bb
       0.06896715 0.021475434 -0.08034097 -0.0035989732
000050 ca da 8e bd 92 d1 ad 3d 50 78 0e 3d cc b8 e1 bd
       -0.069753245 0.08487238 0.034782708 -0.11021575
000060 40 de 2f 3c 8a dc 8f 3d 80 d3 85 ba 98 50 50 3d
       0.010734141 0.07024486 -0.0010210127 0.05085811
000070 38 25 9b 3c ea c5 c7 3d 50 67 c8 3d 00 db 0d bb
       0.018938646 0.09754546 0.0978533 -0.0021645427
000080 30 f6 35 3d d0 7a 3e 3d 10 cb a5 bd 30 73 8b 3d
       0.044424236 0.046503842 -0.08095372 0.0680908
000090 ec 04 0d bd 9c ae 03 bd bc 52 79 3d 14 74 00 bd
       -0.034428522 -0.032148942 0.060869917 -0.0313607
0000a0 96 5f 99 3d 36 86 ee 3d b0 17 fc 3c 3c f7 81 3d
       0.07488935 0.116466925 0.030773014 0.06345984
0000b0 c8 80 eb bc 3c bc 49 3d e2 3d bc bd 30 e8 48 bd
       -0.028747931 0.04925178 -0.09191491 -0.049049556
0000c0 10 53 61 bc 18 bc d0 bc a4 41 17 3d 2a 99 f6 3d
       -0.013752714 -0.025480315 0.036927834 0.120409325
0000d0 b0 25 c8 bd e8 01 9a 3d b0 e8 c4 3d 00 63 01 bb
       -0.09772813 0.07519895 0.09614694 -0.0019742846
0000e0 f0 33 2f 3c c4 22 66 3d b0 16 39 3c c0 66 ee bc
       0.010693535 0.0561855 0.011296913 -0.02910173
0000f0 00 df 27 bd 94 ce 79 bd 4c b5 82 bd a6 e0 93 bd
       -0.040984154 -0.060988024 -0.06382236 -0.07220583
000100 7a 99 e7 3d 34 d6 d4 3d 70 fe 99 3c c0 3d 98 bd
       0.1130857 0.103924185 0.018798083 -0.07433653
000110 c0 a2 87 3d 48 2a f1 bd 0c cd ed bd 70 38 0b 3d
       0.06622839 -0.11775643 -0.11611375 0.03398937
000120 fa 3f e5 bd 62 63 de bd a0 03 c1 bb 62 ce a9 3d
       -0.11193843 -0.108587995 -0.0058903247 0.082913175
000130 50 57 cb bc 30 0f db bd fe 89 de bd 74 1e 04 bd
       -0.024821907 -0.10696256 -0.10866164 -0.032255605
000140 4c 15 d6 bd c8 d3 7a 3d 78 7c e7 bc 90 51 46 3c
       -0.10453281 0.061237127 -0.028257594 0.012104407
000150 c0 9b 8c bd a0 ec 42 bd 4c 36 4c 3d 20 0d 2c bd
       -0.068656445 -0.047588944 0.04985647 -0.042004704
000160 fc 8b dd bd a6 aa 8f bd 58 67 d0 bd f0 35 51 3d
       -0.108177155 -0.070149705 -0.10175961 0.05107683
000170 30 ea d2 bd b0 9d fe 3c dc 77 1e bd 20 48 c7 bd
       -0.10298574 0.03108105 -0.038688526 -0.097305536
000180 3c e9 bc 3d b8 b3 a5 3c 1e db b0 3d c0 c4 1b 3c
       0.092241734 0.020227298 0.08635543 0.009507358
000190 88 83 57 bd 4a ea 82 bd e6 7c a6 bd 34 b1 02 bd
       -0.052615672 -0.06392343 -0.08129291 -0.031907275
0001a0 90 80 1b bc 48 d2 da bc 78 5c 59 3d ba 96 e5 bd
       -0.009491101 -0.026711598 0.0530667 -0.112103894
0001b0 10 4d 43 3d d6 29 8f bd 6c f1 51 bd ec 8e ef 3d
       0.047680914 -0.069904014 -0.05125563 0.11697182
0001c0 78 c5 ee 3c e0 3c 2d bc 7e 5e 98 bd b8 ab 17 bd
       0.029146895 -0.010573596 -0.07439898 -0.037028998
0001d0 e4 89 55 3d 94 82 bc 3d c8 5e 69 3d 08 25 7d 3d
       0.052133456 0.09204593 0.056975156 0.061802894
0001e0 04 c5 f0 3d 38 de 6c bd 24 96 91 bd e6 85 b3 bd
       0.11756328 -0.05782911 -0.07108715 -0.087657735
0001f0 a0 95 a9 3d 40 2b b1 3d a8 ff 3b bd 38 ff bc 3c
       0.08280492 0.086508274 -0.04589811 0.023070917

weight f4 [4, 128]
000000 a6 a5 0d 3d 60 e3 91 bb a0 e8 c4 bc 54 b6 b5 3c
       0.034581803 -0.004452154 -0.024036705 0.022181667
000010 60 07 18 bc 58 0d 0e 3c 04 4a 8e 3c 20 f3 2e bb
       -0.009279102 0.008670174 0.017369278 -0.0026695207
000020 46 8b 7f bd 78 db c7 bc 6c 35 ee 3c 18 a7 ed bc
       -0.06238868 -0.024396643 0.029078208 -0.02901034
000030 5f eb a7 3d a6 9d 17 3d 9d f8 a8 3d 33 c9 8a bd
       0.0819919 0.03701558 0.08250544 -0.06776657
000040 c0 32 77 bc 8e ed 41 3d ca 6a 73 3d b5 17 93 bd
       -0.015087783 0.04734569 0.059428014 -0.07182256
000050 02 7f fe bc 1a 3b a7 bd 97 8b 8b 3d 44 32 a8 bd
       -0.031066421 -0.081655696 0.06813734 -0.082127124
000060 f8 02 a8 bd 10 52 87 bd 46 a7 80 bd 4e ba 08 bd
       -0.08203691 -0.06607449 -0.06281905 -0.0333808
000070 db aa 92 bd ed 84 17 bd 20 f6 2f bd a8 d7 13 bc
       -0.07161494 -0.036992002 -0.042959332 -0.009023584
000080 9a 8f ed bc 77 a3 8b 3d 80 a8 4c bd b4 25 e1 3c
       -0.028999139 0.06818288 -0.04996538 0.027483799
000090 99 72 61 bd cd bd 9b bd 6e fe 69 bd 0e dc 72 bd
       -0.05504093 -0.07604561 -0.05712741 -0.05929189
0000a0 1c fc 83 bd 28 3e 93 3c dc c2 a2 3c 59 3b 96 3d
       -0.064445704 0.017973974 0.019868307 0.073355384
0000b0 98 36 c7 bc e0 af 0d bc 4a 2d 8c bd 8d 3c ab 3d
       -0.024318025 -0.008647889 -0.06844576 0.083611585
0000c0 92 5e 66 3d 65 7c 9f bd 6c 39 96 3c 75 3e a9 3d
       0.056242533 -0.07787398 0.018337928 0.08263866
0000d0 4b bc ac bd 00 ef 2d bc 26 fe 42 3d e4 3e b1 bc
       -0.084343515 -0.010616064 0.047605656 -0.021636434
0000e0 e0 7d 8e bb 7c f9 89 bc 29 60 87 3d 7e 12 39 3d
       -0.0043485016 -0.016842596 0.06610138 0.04518365
0000f0 62 63 2b 3d 66 d7 48 3d ad 5d 29 bd 2a b2 76 3d
       0.041842826 0.049033545 -0.0413491 0.060228504
000100 d2 8b 7b 3d 65 39 93 3d 28 47 a7 3c 88 a2 3c bd
       0.06141264 0.071886815 0.020419672 -0.04605344
000110 9a 58 af bd ad aa 14 bd 7a 3f 73 3d 95 4e 84 3d
       -0.08561821 -0.03629558 0.059386708 0.06460301
000120 ca fb 33 3d ca b3 23 bd 9c 7a 88 bd 4e 54 74 3d
       0.043941297 -0.039966382 -0.06664011 0.05965071
000130 a0 7e e1 bc 5d 3e 62 bd 0c 01 a6 bc 98 7c 8a 3c
       -0.0275262 -0.055235256 -0.020264171 0.016905114
000140 2a be 70 3d 40 2d 93 bd 32 c9 24 3d 3b c8 95 3d
       0.058775105 -0.07186365 0.040230937 0.073135816
000150 13 14 8c bd 93 46 89 3d ea fd 91 bd 5f 3a 7c bd
       -0.06839766 0.06702914 -0.071285084 -0.061579105
000160 18 97 38 bd 97 36 8e bd 15 b1 8d 3d 30 f8 9a bc
       -0.04506597 -0.06944006 0.06918541 -0.018917173
000170 00 b2 95 bd a5 d8 12 bd 6d 4e 45 bd 62 e4 1a bd
       -0.073093414 -0.03585114 -0.048170496 -0.03781546
000180 b2 b8 a8 bd d2 ad 31 3d 5e ac 11 bd 50 a0 19 3c
       -0.08238353 0.04337866 -0.035564773 0.0093766
000190 68 83 b5 bc d0 e8 7f 3c da 1c 72 3d 3a 90 4e 3d
       -0.022157386 0.015619472 0.059109546 0.050430514
0001a0 de 3a 60 3d 9f d9 a2 3d b8 e4 55 bc 5f 83 9c bd
       0.05474364 0.07951664 -0.013055019 -0.076422445
0001b0 7a 15 69 3d 8b 15 84 bd f0 dd 78 bc 25 10 30 bd
       0.056905247 -0.064494215 -0.015189633 -0.042984147
0001c0 b8 fd 04 3d 1a 82 fd bc a6 35 ab bd a0 e6 97 bc
       0.032468528 -0.030945826 -0.08359842 -0.018542588
0001d0 1a 90 5d 3d 88 6b 54 bc 2e 34 64 3d 8f 30 28 bd
       0.054092504 -0.012965091 0.055713825 -0.041061934
0001e0 1d f9 9c 3d 87 72 0b bd e2 91 40 3d 1c 59 b2 bc
       0.07664702 -0.03404477 0.047014125 -0.021771006
0001f0 f0 c8 1e bd fe c2 7d 3d 8c 63 00 3d 76 e4 27 3d
       -0.038765848 0.061953537 0.031344935 0.04098936
000200 b9 5c 52 bd 2f 9e 95 3d f6 78 02 3d 18 c7 c6 3c
       -0.05135796 0.07305562 0.03185364 0.024264857
000210 dc 4e b5 bc 12 62 04 bd 43 cd a8 bd e5 7f a9 3d
       -0.02213233 -0.03232009 -0.082422756 0.08276347
000220 ee b7 1c 3d 0e d9 55 3d f0 e9 b7 bc 90 e8 a1 bb
       0.038261347 0.052208953 -0.022450417 -0.0049410537
000230 16 cc 36 3d 82 76 3e 3d 40 f1 39 3b 2f 11 9d bd
       0.044628225 0.046499737 0.0028372556 -0.07669293
000240 92 82 54 3d 0e 3c 04 3d 5c c4 b2 bd 56 75 41 3d
       0.051882334 0.032283835 -0.08728859 0.04723104
000250 e5 94 98 3d 73 5a b1 3d b0 22 6e bc 00 35 b9 bb
       0.074502744 0.0865983 -0.014534637 -0.00565207
000260 74 1a 89 bd 43 fc 78 bd 30 84 76 bc 35 9d 8d 3d
       -0.06694499 -0.06078745 -0.015046164 0.069147505
000270 01 59 88 bd 4c c1 f2 3c 3c 9b 97 bd 2c 9f bb 3c
       -0.06657601 0.029633187 -0.074026555 0.022903048
000280 2f 81 97 3d d0 26 e2 bb 10 35 a1 3b 40 50 b1 bd
       0.07397687 -0.0069015995 0.0049196556 -0.086578846
000290 ee b6 30 3d 00 7f 36 3c d0 24 92 3b 6e 5e 5c 3d
       0.043143205 0.011138678 0.004459955 0.053800993
0002a0 ca f3 1b bd 5e 8e 62 bd 5a 6e 99 bd 54 99 a5 3c
       -0.038074292 -0.055311553 -0.07491751 0.020214714
0002b0 80 c7 38 3c be b1 5c 3d a4 ba 85 3c b6 c9 46 bd
       0.011278033 0.053880446 0.016324349 -0.04853221
0002c0 e0 a3 94 3c 33 b9 96 bd 8e 9b 76 bd 10 4d 74 bc
       0.018144548 -0.07359543 -0.060206942 -0.014910951
0002d0 2c 07 bf bc 00 c6 f6 3b 6a 0b 82 bd 92 0f 69 3d
       -0.02331885 0.0075309277 -0.06349833 0.056899615
0002e0 62 e3 44 3d d5 ba 90 3d 82 25 3b 3d 5a 8a 55 3d
       0.04806841 0.070668854 0.045690067 0.052133895
0002f0 2e 3b 82 bd 22 f8 5d 3d b2 f2 ab bd 46 79 49 3d
       -0.06358944 0.054191716 -0.083959 0.04918792
000300 1a c2 1d 3d 70 04 c3 bc d3 a4 30 bd 50 8a 04 bc
       0.038515188 -0.023805827 -0.04312594 -0.008089617
000310 a3 2d a9 bd be a9 92 bd f0 fd 57 bc 40 9c 9b bd
       -0.08260658 -0.07161282 -0.013183102 -0.07598162
000320 75 ec 27 bd 26 44 64 3d d6 c8 79 bd 78 28 6b 3c
       -0.040996987 0.055729054 -0.060982548 0.01435291
000330 b0 77 c2 3b a0 58 7a 3c 68 a5 18 bd ae cd 45 3d
       0.005934678 0.015279919 -0.03726712 0.048291855
000340 af 3d 98 3d 2e 6b e1 bc a0 31 3f bb 12 e1 55 3d
       0.0743364 -0.027516928 -0.0029173866 0.052216597
000350 b0 e2 f0 bb b0 5f 25 bd 65 6a 1a bd a0 78 05 3c
       -0.007351242 -0.040374458 -0.037699122 0.008146435
000360 1b f7 86 3d 7a 11 31 bd e0 71 f2 bb 9f 0c 15 bd
       0.065901004 -0.043229558 -0.007398829 -0.03638899
000370 d2 b7 45 bd 48 db 7e bd a0 0b 69 3b 1e 84 5e 3d
       -0.048271008 -0.06222084 0.0035559908 0.054325216
000380 f1 3e 53 bd ab 65 84 3d 26 84 f7 bc e2 1e 23 3d
       -0.051573697 0.06464704 -0.03021438 0.039824374
000390 15 90 89 bd fc e2 de 3c e0 a2 49 bc 74 c7 12 3d
       -0.067169346 0.027207844 -0.012306899 0.035834745
0003a0 1e f3 8f bd 5a 62 3c 3d 7a 76 b1 bd f5 6c 9a bd
       -0.07028793 0.045992233 -0.08665176 -0.07540313
0003b0 c2 7e 5b 3d 10 c6 dd bb 74 91 ff bc ea 5c 43 3d
       0.053587683 -0.0067679957 -0.031197287 0.04769603
0003c0 ef 46 b0 3d dc 5e 91 bd 63 3f 00 bd e1 49 86 bd
       0.086072795 -0.07098171 -0.03131045 -0.0655706
0003d0 6c c4 82 bc cb f7 a5 3d a0 1c b3 bb d6 79 6e 3d
       -0.015962802 0.081039034 -0.005466059 0.05822166
0003e0 9a 63 18 bd 70 4b 06 bc 9c ee c9 bc a8 de 58 3c
       -0.037204362 -0.008196697 -0.02464991 0.013236679
0003f0 82 b4 01 3d 88 bb 29 3c 10 ca 5e bd 94 24 0d 3d
       0.031666286 0.010359652 -0.05439192 0.03445871

bias f4 [4]
000000 7c 02 70 bd 52 11 87 bd 3c 3b 13 3d a8 33 51 3c
       -0.05859612 -0.065951005 0.035945162 0.0127686635

weight f4 [1, 128]
000000 a7 89 5b bd 3a fa 1d 3d 60 d0 0b bd 45 71 8e bd
       -0.053598072 0.038568713 -0.03413427 -0.06955198
000010 1a eb 38 3d 7a 16 22 3d e0 48 72 3b e0 f9 b8 bb
       0.045146085 0.039572217 0.0036969706 -0.005645022
000020 bc 3a 4e bd be 0a 6d 3d 17 4a a7 3d 04 65 76 bd
       -0.050348982 0.057871573 0.081684284 -0.06015493
000030 89 3b ae 3d 15 b3 51 bd 00 3d 62 3b 96 75 41 3d
       0.08507449 -0.051196177 0.0034521222 0.04723128
000040 7e db 63 bd f7 8f a0 3d 68 da 0b bd a0 65 e4 bb
       -0.055629246 0.07839959 -0.034143835 -0.0069701225
000050 b3 49 3c bd 70 94 22 bc b1 ec 93 3d 58 fb da 3c
       -0.045968723 -0.009923086 0.0722288 0.026731178
000060 ab 88 aa 3d c0 3b f7 3a 0f 06 2c bd e6 fa 95 bd
       0.083268486 0.0018862411 -0.041997965 -0.07323246
000070 34 7d b6 3c 64 46 1e bd 10 a0 85 bb 1f 57 2e bd
       0.022276498 -0.03864135 -0.004077919 -0.042563554
000080 3a 51 92 bd f0 fb c9 3c e6 ac 88 bd c0 4a fd ba
       -0.07144399 0.024656266 -0.06673603 -0.0019324645
000090 98 c6 d9 3c 00 08 a3 b9 80 35 2a bc 7c 05 b1 3c
       0.026583955 -0.00031095743 -0.010388732 0.02160906
0000a0 70 3b b9 3b 0b 35 35 bd 16 4e 74 3d d0 6b df 3c
       0.0056528375 -0.04424004 0.05964478 0.027273089
0000b0 35 3c b0 3d ce 9f 20 3d fc bf a8 3c 27 76 9c 3d
       0.086052336 0.0392149 0.020599358 0.07639723
0000c0 d8 0d bb bc 88 ca 72 bd 45 d0 0c bd f2 8a 63 3d
       -0.02283375 -0.05927518 -0.03437831 0.05555243
0000d0 7b 1a 99 bd 88 c2 11 3d 72 fe 01 bd e8 81 df 3c
       -0.07475754 0.03558591 -0.0317368 0.027283624
0000e0 a6 69 3b bd 01 1c a7 bd 93 2c 4d bd 48 8a 1e bd
       -0.04575505 -0.08159638 -0.050091337 -0.038706094
0000f0 9e bf 19 3d f7 40 89 bd 28 53 8f bc cb 3d 82 3d
       0.037536256 -0.06701844 -0.017495707 0.06359442
000100 73 af 82 3d e6 a5 76 3d ea 98 6c 3d fd c5 1c bd
       0.063811205 0.060216807 0.057763018 -0.038274754
000110 f6 4e 05 3d 48 d0 40 3c 20 5b 8b 3b 96 de 3c 3d
       0.032546006 0.011768408 0.0042528063 0.046110712
000120 55 5e 9e bd b0 1c b9 bc 9f 0e 1d bd b0 80 77 bc
       -0.07732836 -0.022596687 -0.038344022 -0.015106365
000130 ce 89 60 bd a2 77 1f 3d f9 48 b4 3d 9e e4 33 3d
       -0.05481892 0.03893245 0.08802981 0.0439192
000140 90 69 49 bc 49 34 99 3d 6e 82 62 3d ac 98 9e bc
       -0.0122932345 0.07480676 0.05530017 -0.019359909
000150 74 27 e0 3c f4 49 84 3c 1f 2f 8c bd 18 39 8c bc
       0.027362563 0.016148545 -0.06844925 -0.017117068
000160 6e 22 3a 3d a4 28 86 bd 19 21 a3 3d 00 eb 37 3b
       0.04544299 -0.0655072 0.07965297 0.0028063655
000170 93 1e 34 bd c8 25 97 bd 3c 65 b9 3c de cd 61 3d
       -0.04397447 -0.07380253 0.02263128 0.05512797
000180 5e 64 08 bd c7 1c 05 bd 44 34 e1 3c 4e 02 38 bd
       -0.033298843 -0.032498147 0.027490743 -0.044924073
000190 e0 cf 61 3b ec 5b a4 3c 55 55 9b bd 7c d4 4a bd
       0.0034456179 0.020063363 -0.07584635 -0.049519047
0001a0 c9 3f 81 3d 5b 84 9d 3d d8 1a 9c bc 14 e0 dc 3c
       0.06310994 0.076912604 -0.019055769 0.026962318
0001b0 50 07 99 bc 70 d5 f3 3b f0 36 e8 3c 03 eb 5f bd
       -0.018680245 0.007441215 0.028346509 -0.054667484
0001c0 dc 17 f1 bc 6a 44 5b 3d 0e d1 5b 3d a4 7f da bc
       -0.029430322 0.05353204 0.053666167 -0.026672192
0001d0 76 fe 3a 3d bc 38 46 bd 6a 52 23 3d db f7 89 3d
       0.04565283 -0.04839395 0.039873518 0.06736728
0001e0 85 2d b1 3d 5e 17 32 3d 90 46 2f bc 76 cf 04 bd
       0.0865126 0.043479316 -0.010697976 -0.032424413
0001f0 4b 28 99 bd c0 40 0c bb f0 4f 9e 3c 5a 5a 4c 3d
       -0.074783884 -0.0021400899 0.019325227 0.049890853
