output/2023-04-09_21-36-44/weight/10_model.pkl (torch, 41177 bytes, 7 tensors)

weight f4 [64, 6]
000000 b6 ef 26 3c 16 0f b6 3e ad 2b 92 be be de 9e be
       0.0101889875 0.35558385 -0.28548947 -0.31029314
000010 d2 38 a9 bc 35 f6 7b 3e 30 09 5a 3a 09 6c e1 3e
       -0.020656977 0.2460564 0.0008317409 0.44027737
000020 01 97 d9 bc 26 2a 71 3d a0 2a c5 bc 76 28 9c 3c
       -0.026561262 0.058878087 -0.024068177 0.019062262
000030 a0 b0 c7 be e1 43 89 be 3c c9 dc be f7 d8 b4 3d
       -0.39001942 -0.268096 -0.4312228 0.08830445
000040 3e 31 70 3e 38 e3 a2 3e 5b f2 e8 be 45 47 0b bf
       0.23456284 0.3181398 -0.45497403 -0.54405624
000050 c7 b0 ed 3e a2 db 51 3e 32 af 73 be 39 11 1b 3e
       0.46423933 0.2049394 -0.237973 0.15143289
000060 a4 c3 86 bd d8 f0 30 3d f6 43 bd 3e 92 e7 c1 be
       -0.06580284 0.043198436 0.36965913 -0.37871987
000070 86 96 83 be 68 ab d3 bd 54 f4 22 be 9e 98 b4 3e
       -0.25700778 -0.103354275 -0.15913516 0.35272688
000080 0b 7c 87 be c0 70 40 be 32 08 92 be 4e c3 c3 be
       -0.26461825 -0.1879301 -0.28521878 -0.38234943
000090 1c 81 1e bd 8a 57 01 3f 3a 15 f4 3d 35 00 a5 3e
       -0.038697347 0.505242 0.11918111 0.3222672
0000a0 06 d5 b1 3d 3f 65 13 be 6c 88 24 3b 9a 85 c6 be
       0.08683209 -0.14394091 0.0025105728 -0.38773805
0000b0 04 df ae be 2a c4 2f be c4 85 80 3e a7 64 6e 3e
       -0.34154522 -0.17164674 0.25102055 0.23280583
0000c0 bd 7e c8 bc e9 a7 36 3e e8 16 b3 3e 1e 98 d3 3e
       -0.024474496 0.1783749 0.34978414 0.41326994
0000d0 c6 8d ad 3e e1 aa 6d 3e 26 a7 25 3d de c1 1f bf
       0.33897227 0.23209716 0.04044261 -0.6240519
0000e0 be ea 8f bd fe e2 8b bd 81 ee 14 bf 32 7c 02 bf
       -0.070271954 -0.06830405 -0.5817643 -0.50970757
0000f0 37 4e 32 3e 6a 54 ab 3e b9 71 6e be 44 88 17 3e
       0.17412649 0.3346284 -0.23285569 0.14798075
000100 7c ad b8 3e 8e 30 ae 3d aa 4d 62 bc 5c d5 e5 3b
       0.36069858 0.08505355 -0.013812462 0.00701396
000110 e3 82 3d 3e 06 44 ba 3e d2 fe c3 be 07 09 5f be
       0.1850696 0.36380023 -0.3828035 -0.21780787
000120 5c 8f 47 bc 46 45 e8 3e c9 8b 69 3e 8f 4a cf 3e
       -0.012180176 0.4536535 0.2280723 0.4048657
000130 ab d1 38 3e b8 f3 82 be 8c 96 f7 3b 40 20 92 be
       0.18048732 -0.25576568 0.0075557884 -0.2854023
000140 f3 28 d2 be 04 5b aa 3e a2 92 8f 3e cd dd df be
       -0.41046867 0.33272564 0.2804156 -0.43723908
000150 b8 9b 8f 3d 58 06 bd be 57 e4 21 be 23 34 67 3e
       0.07012123 -0.36918902 -0.15809761 0.22578482
000160 84 1f e3 3d d2 67 93 be ee ee cd 3c 78 e9 87 3a
       0.110899955 -0.28790146 0.025138345 0.0010369262
000170 d5 6d 04 3e 1d dd 18 be 13 69 24 bf a5 c4 00 bf
       0.12932523 -0.14928098 -0.6422283 -0.50300056
000180 3f e3 45 3e 40 31 84 3e 57 00 62 be 8d 8a 69 be
       0.19324969 0.25818825 -0.22070442 -0.22806759
000190 cf ef 0e 3f 26 14 e6 3e 58 47 36 be 88 6e d2 bd
       0.5583467 0.44937247 -0.17800653 -0.102749884
0001a0 73 1d c7 be c0 72 f0 bb 20 68 9d be 3d 3b a1 be
       -0.38889655 -0.007337898 -0.30743504 -0.31490508
0001b0 8a e3 e3 bb 6d 1b 5f 3e e4 1a f3 bd ff 76 9b 3e
       -0.006954615 0.21787806 -0.11870363 0.30364224
0001c0 00 f3 b8 bd b7 4f 07 3f 99 a0 a4 3c 8c fa 2a bf
       -0.090307236 0.5285601 0.02009611 -0.66788554
0001d0 27 5f b8 be ea 12 02 be 1f 9b 21 be 28 e6 f6 bd
       -0.36010095 -0.12702528 -0.1578183 -0.120556176
0001e0 70 f2 1d 3d 07 74 24 be 0d 24 92 be 96 9f f8 3c
       0.038561285 -0.16059886 -0.2854313 0.030349534
0001f0 67 57 13 bf 32 11 da be 84 4c d1 bd cc a2 4b be
       -0.5755524 -0.42591244 -0.10219672 -0.19886321
000200 1c 3f 12 be e4 51 ab be 7c d9 b1 bd 5c b8 b2 3d
       -0.14281887 -0.33460915 -0.0868406 0.0872657
000210 ea 4a 8d be 9e 9c 03 be b6 f0 50 3e d5 4b 05 be
       -0.27596217 -0.12852713 0.20404324 -0.13017209
000220 67 66 9d bd 35 c4 fc bd 3c 4f 1c 3d 1a cd cc 3e
       -0.07685547 -0.12342111 0.0381615 0.4000023
000230 bc cb d6 3e 94 b4 a5 3e 95 b4 0b 3f 68 b0 03 3e
       0.41952312 0.32364333 0.5457242 0.12860262
000240 1d c5 bb be ac 2f 46 be 30 53 8e 3e 80 70 2d bb
       -0.36673823 -0.19354123 0.27797842 -0.002646476
000250 d3 c9 4f be 48 2d a0 be 5f 9d c3 be d0 6a b0 be
       -0.20291834 -0.31284547 -0.38206002 -0.3445649
000260 1c 97 a9 bd 54 42 65 3e 54 03 62 3e ad 96 c9 be
       -0.08280775 0.22388583 0.22071582 -0.3937277
000270 00 cd 2c 3d 71 d1 17 bf 36 0a a2 be 79 a7 03 bf
       0.04218769 -0.5930396 -0.31648415 -0.5142742
000280 91 a2 a1 be 07 6a a2 be 20 91 bb be 7e 7a b4 be
       -0.3156934 -0.31721517 -0.3663416 -0.35249704
000290 d0 d4 82 bd 00 00 ad 3b 6e e8 3d be 4c 7a 1d 3e
       -0.06388247 0.005279541 -0.18545696 0.15378684
0002a0 71 01 aa be a6 28 64 bd 9b ac 22 3f 11 e3 9b bd
       -0.33204225 -0.055702828 0.63544625 -0.07611669
0002b0 b8 c7 a9 3e 6e eb e2 3d ba 5a b1 be 4d 84 ea 3e
       0.33160186 0.11080061 -0.3463953 0.45804062
0002c0 48 36 dc 3d d6 bd 98 3c 51 b8 0a 3f 8e 77 ea bd
       0.10752541 0.018645208 0.54187495 -0.114485845
0002d0 97 e2 48 3d b1 10 61 3d b8 e8 ac 3e eb 1b 34 3e
       0.049044218 0.05494756 0.337713 0.17588775
0002e0 1f 0f a4 3e d2 70 89 3e c8 65 64 bd 34 7f 04 3d
       0.32042786 0.26843888 -0.05576113 0.032347873
0002f0 a7 85 12 bf 8a f5 a2 3e 60 40 d7 3e f2 52 c0 3e
       -0.5723519 0.31827956 0.42041302 0.37563282
000300 bd 70 93 be 90 28 95 3c f8 58 93 be bb 20 66 be
       -0.2879695 0.018207818 -0.28778815 -0.22473423
000310 0d 99 73 be 80 dd 0e 3e 89 1e 79 be 00 ee 11 bc
       -0.23788853 0.13951683 -0.24328054 -0.008906841
000320 00 b1 8c 3c ba bd 86 3e 39 01 9e be 38 7f 8f be
       0.017174244 0.26316625 -0.30860308 -0.28026748
000330 94 ee eb bc b6 d2 f2 3e 6c 08 37 bd 2c 04 00 3f
       -0.028800286 0.47426385 -0.044685766 0.50006366
000340 aa e8 90 3e ab 95 3f 3e 26 87 5d 3b a4 9b 74 3d
       0.2830251 0.18709438 0.0033802479 0.059718743
000350 81 62 28 3e 40 1d b0 bd 21 70 0e 3e 15 b7 46 3e
       0.16443826 -0.08599329 0.13909961 0.19405778
000360 d6 39 c2 be b9 0e aa be 9a 63 6c 3e b5 18 d7 be
       -0.3793475 -0.33214357 0.2308487 -0.42011037
000370 a2 32 03 be e1 2e 9c 3e 0c d0 68 3e 16 3f 90 bc
       -0.12812284 0.30504516 0.22735614 -0.017608207
000380 76 d3 f0 be a3 e1 8f bf 12 bf 05 bf 98 f1 b1 be
       -0.47036332 -1.1240734 -0.52244675 -0.34754634
000390 c9 f8 c9 be 18 bd a3 be 7a 56 84 bf d0 8e d4 3e
       -0.3944762 -0.31980205 -1.033889 0.41515207
0003a0 6e 73 11 3d 28 6b b3 3e be 54 87 3d 1d 50 39 bf
       0.035510473 0.3504269 0.0660796 -0.7238787
0003b0 60 1d 28 3d 20 e8 36 3f 52 0a ad be c8 c7 37 bd
       0.04104364 0.71447945 -0.33796936 -0.04486826
0003c0 82 5f fe 3d 68 cf eb 3e 9a cf d2 bd 2d 41 cf 3c
       0.124205604 0.46056676 -0.10293503 0.025299633
0003d0 06 e1 c2 3e 5d c0 65 be ca 6a c1 3d e3 33 30 bf
       0.38062304 -0.22436662 0.094441965 -0.6882917
0003e0 6e 9e ff bd 75 78 7c 3f 26 8f da be e6 b0 21 be
       -0.1248139 0.986213 -0.4268734 -0.15790138
0003f0 85 5c 32 3d 8f c9 fa be 65 80 eb be a2 14 1f bf
       0.043545265 -0.48981902 -0.45996395 -0.6214086

bias f4 [64]
000000 15 14 8b 3e a3 e6 01 3f c5 de 91 3e 7b e9 d1 3d
       0.2716376 0.5074255 0.28490272 0.10249611
000010 1c 50 12 be 10 97 48 3e 9d e5 e5 3d 21 1b d5 bd
       -0.14288372 0.19588876 0.11225436 -0.10405565
000020 ba db 59 bd 9a 23 07 bf b5 d1 35 be 09 d6 52 3e
       -0.053188063 -0.527887 -0.17755778 0.2058946
000030 76 69 c7 3e f5 98 9c bd ca 8f 90 be 54 6f 9e 3d
       0.38947648 -0.07646362 -0.28234702 0.07736078
000040 36 e7 de 3e c0 99 f8 3c 86 ce 0d bd 01 9b 21 3e
       0.43535775 0.030346751 -0.034620784 0.15781786
000050 72 32 8b bc cf ad 9e be 96 e2 9a 3e 28 b0 ef 3e
       -0.016991828 -0.3099198 0.30250996 0.46814084
000060 c2 5f 18 be b0 01 6b 3e 83 23 f0 be 14 07 83 bd
       -0.14880279 0.22949862 -0.46902093 -0.063978344
000070 96 81 9e 3e e1 db 6d 3e d3 67 28 be 24 b7 24 bd
       0.3095824 0.23228408 -0.16445856 -0.04021372
000080 08 f4 e2 bd 6c 4e a1 bd c9 a7 32 3e cb ff 04 3f
       -0.110817015 -0.07876286 0.17446817 0.5195281
000090 00 c2 9d bd 7a ab f7 be 42 c9 b6 3b b5 61 fc 3c
       -0.07703018 -0.48373014 0.005578191 0.03080831
0000a0 e6 f3 be 3e b3 c0 15 bf 94 af a8 be 05 dc 14 bf
       0.37295455 -0.5849716 -0.32946455 -0.58148223
0000b0 af 47 90 bc 8c 9e 16 3e 5c 9c 01 bf f6 a5 57 3e
       -0.017612306 0.14708918 -0.5062921 0.21059403
0000c0 f1 c1 e4 3e 7c 69 17 bb b4 4f 8b be 36 26 90 be
       0.44679216 -0.0023103645 -0.27209246 -0.28154153
0000d0 9d 22 1f bd 95 7f e3 be 6d 0d 9c 3e 26 69 eb be
       -0.03885137 -0.44433275 0.30478993 -0.4597866
0000e0 de 8c 93 be 91 ba 63 be c3 69 08 3d 78 e8 65 3e
       -0.2881841 -0.22239138 0.033303987 0.22451961
0000f0 36 99 87 be 05 af ed 3d 6a a2 7a 3b 3e e8 85 3e
       -0.26484078 0.11605648 0.003824378 0.2615375

weight f4 [128, 64]
000000 07 10 08 3e 1a d9 d6 bb 30 1b 6c 3e b9 87 49 bf
       0.13287364 -0.0065566422 0.23057246 -0.7872272
000010 80 76 fe 3d 96 55 81 3d 54 ba 63 3e 22 a7 5e 3d
       0.12424946 0.06315152 0.22239047 0.05435861
000020 fd 87 13 3e 21 b9 cd 3d 2a 08 f5 bd ba ae 3e bd
       0.14407344 0.10045076 -0.11964448 -0.04655335
000030 cc cf b3 ba 57 26 a1 bd 94 20 8b 3d b8 43 86 bd
       -0.0013718545 -0.07868641 0.06793323 -0.06555885
000040 28 5c a7 3c 2c 6c 89 3d 9c 06 20 3e 9c 1d c2 bd
       0.020429686 0.06710085 0.15627521 -0.09478304
000050 1b 71 ef bd e4 f5 1d bd 83 cc ad 3d 63 e9 31 3e
       -0.11691495 -0.038564578 0.08486273 0.17374186
000060 1a 35 93 3d b0 9f 66 bc fc 30 c3 3c f0 26 fb bd
       0.07187863 -0.014076158 0.023827069 -0.12263286
000070 ef 2d 0c 3e c9 5c 98 3e 52 a9 62 bd 57 af 61 3e
       0.13689397 0.2975829 -0.055337258 0.22039543
000080 f8 b7 b4 bd 64 99 7d bd 7a d4 d5 3d 0f 43 0a 3e
       -0.08824152 -0.061913863 0.10440917 0.13502143
000090 37 a5 50 bc e4 3d 86 3e de 20 68 3e 00 98 ab 39
       -0.012734703 0.26219094 0.22668788 0.0003272891
0000a0 c5 40 7c bc 5c 1d 68 bd b6 b4 1a bd a1 cf cb bd
       -0.015396302 -0.056668624 -0.037769996 -0.099517114
0000b0 0c e1 24 3d dc 59 b3 bd 13 00 55 3e bd a4 67 3e
       0.040253684 -0.08757374 0.2080081 0.22621436
0000c0 6c f9 11 3d 3d 70 9e bd 6a 83 e2 3d a8 28 c1 3d
       0.035638258 -0.077362515 0.110602215 0.09431583
0000d0 f2 b7 1d be 70 d1 af 3d 56 34 b9 3d e6 05 61 bf
       -0.15402201 0.08584869 0.090431854 -0.87899625
0000e0 c0 a8 e8 3d 74 a6 6a bd 95 00 0f 3e 40 91 28 3d
       0.113603115 -0.05728765 0.13965066 0.041154146
0000f0 8a fc b5 3d fe 7b df 3d 9b 7d 2a 3e bd 05 6d 3d
       0.08886059 0.109123215 0.16649477 0.0578668
000100 f2 f0 b8 3d 92 46 7f 3d 89 c6 31 3e 53 67 1c bf
       0.09030332 0.06232316 0.17360891 -0.6109516
000110 10 26 7a bd 30 0a 35 3c d5 ac 8b 3e 88 84 32 bd
       -0.061071455 0.011049792 0.27280298 -0.043583423
000120 3f fb 36 3e 75 0d 0f 3c c4 9f b4 3d e2 27 cf bd
       0.1786928 0.008731236 0.088195354 -0.10115029
000130 4e 13 e8 3c 06 62 bf bd af 22 22 3e 58 80 89 ba
       0.028329518 -0.09344868 0.15833543 -0.001049052
000140 00 1e ac 3d cc 0f 78 bd a8 7c 59 3e 91 fd 27 3e
       0.084041595 -0.06056194 0.21238959 0.16405322
000150 f8 77 ca bd 10 88 cf bd 39 9f 84 bd 30 ee 8a 3d
       -0.098861635 -0.10133374 -0.06475682 0.06783712
000160 c4 82 02 bd 4e 90 a7 bd 70 bd ad bd 18 77 c1 3c
       -0.03186299 -0.08181821 -0.08483398 0.023616359
000170 e1 51 41 3e 64 5c 80 3e 16 86 19 3d 31 1f 2c 3e
       0.1887889 0.25070488 0.03748139 0.16808774
000180 c8 ae 8c 3c 84 7f d2 3d 9e bc e6 3d 78 4c bf 3d
       0.017173186 0.10278228 0.112664446 0.09340757
000190 ae 5b 87 bd 22 93 73 3e 5c 08 4a 3d 1f fd 69 be
       -0.066092834 0.23786595 0.04932438 -0.22850464
0001a0 cf 93 2b 3e 2f 08 6b be 31 20 5b 3c 59 ff 3b be
       0.16755603 -0.2295234 0.013374374 -0.18359126
0001b0 28 df 93 3c 48 b5 e4 bc 04 16 d7 3d 7c cf 6b 3e
       0.018050745 -0.027918473 0.10502246 0.23028368
0001c0 66 0d 0b 3d c6 25 ab bd 7c 8a 2e bd 11 ba 2f 3d
       0.033948325 -0.08356814 -0.042612538 0.042902056
0001d0 4c fa 8c bd 66 6e c8 3d 97 82 87 3c 10 44 1f bf
       -0.06883678 0.09786682 0.016541762 -0.6221323
0001e0 9e f2 fc 3d 4f 90 db 3d 14 d5 62 3e 1c 34 7f 3d
       0.12350963 0.10720884 0.22151595 0.062305555
0001f0 17 b6 f9 3d 95 1a e4 bc 26 cf 47 3e 7b 58 40 3e
       0.12192934 -0.027844707 0.19512615 0.18783753
000200 42 63 c7 3d c4 07 d6 3b 44 6c 36 3e 57 8a 20 bf
       0.09735729 0.0065316875 0.17814738 -0.6271109
000210 00 c2 11 bd 5a f9 d3 bd 4b 70 42 3e 80 ea e0 bd
       -0.035585403 -0.103502944 0.18988149 -0.10982227
000220 77 16 13 3e d9 40 20 bd ea 89 30 3d 13 05 17 3d
       0.14364038 -0.039124344 0.043100275 0.036870074
000230 2a 1c 84 3e 71 50 89 3d 68 b7 8f 3a 4a 6e e6 bd
       0.25802737 0.06704796 0.0010964694 -0.11251505
000240 c4 cd c2 bd 48 06 ef 3d ca ac 44 3e f1 22 df bd
       -0.09511903 0.1167112 0.19206539 -0.108953364
000250 f4 31 e2 bd 5e 0f ed 3d b1 7e 03 3e b6 d0 3c 3e
       -0.11044684 0.11575197 0.12841298 0.18438992
000260 30 f5 d7 bd 88 30 41 bd 07 07 d9 bd 56 6c f2 3d
       -0.10544813 -0.047165424 -0.105970435 0.1183707
000270 95 95 7b 3e 53 8b 24 3e 38 a5 aa 3d c7 aa 0a 3e
       0.2456878 0.16068773 0.08332294 0.13541709
000280 dc 2b 7c bd 40 24 33 bc 7f f1 10 3e 9e 2c 81 bc
       -0.061565265 -0.010933936 0.14154623 -0.015768345
000290 75 76 ac 3d 3c ba c5 3d 19 51 46 3e d3 78 61 be
       0.084210314 0.09654662 0.19366874 -0.22018747
0002a0 f4 a0 a5 3d 2a 40 08 bd 0a dc b0 3d 3e 9d 0f bd
       0.0808734 -0.033264317 0.08635719 -0.035062067
0002b0 aa c0 75 bd 06 2d f2 3d aa 5a 05 3e 0c ab e1 3c
       -0.059998192 0.11824994 0.13022867 0.027547382
0002c0 17 9e d6 3d d5 4a c2 bd e2 72 e0 3d b2 78 26 bd
       0.10479372 -0.09486929 0.10959412 -0.040642448
0002d0 a2 e5 41 be 9e 32 0d be 8c 4b c5 3d b6 55 37 bf
       -0.18935254 -0.1378884 0.0963355 -0.7161516
0002e0 2a 06 19 3d 8b 32 f1 3c 8c 4c 16 3e aa b5 25 bd
       0.037359394 0.029443046 0.14677638 -0.04045645
0002f0 ab cb 9b 3d 41 8a 80 bd fd 8d 00 3e 8e 79 93 3d
       0.07607206 -0.0627637 0.12554164 0.07200919
000300 30 3c f3 3d cf 2b 54 3e cf 82 6a 3e 31 0c 36 bf
       0.11876714 0.20719837 0.22901462 -0.7111235
000310 40 fa a5 bd f0 d1 f4 3d 0f f1 02 3e 5e 7f 9f 3d
       -0.08104372 0.11954105 0.12787269 0.07787965
000320 a1 0f 95 3d 9c 5e a5 3d 5d 16 3f 3e 7c 8e 91 bd
       0.072783716 0.08074686 0.18660875 -0.07107255
000330 2a 6d 8c 3e c4 20 d9 bd 1d b3 24 bf 7b 0f aa 3d
       0.27427036 -0.10601953 -0.64335805 0.08303734
000340 8b 26 0e 3e a8 b6 eb 3d fb a7 c4 3d 65 1b 7a be
       0.1388189 0.11509448 0.09602352 -0.24424513
000350 0c 11 38 bb 28 11 de bc 32 e7 e5 bc 05 c2 98 3d
       -0.0028086333 -0.02710779 -0.028064344 0.07458881
000360 60 86 59 3c a8 be f0 3d 5c 2f a9 bc a6 c4 c6 3d
       0.013276666 0.11755115 -0.020652466 0.097054765
000370 1f 74 1b 3e e8 f9 9f 3e 1e 09 4f 3d bb 7f 31 3e
       0.15181015 0.3124535 0.050545804 0.17333882
000380 a8 dc b3 bc 78 ee 25 3d 0c be 4b 3e e9 6c 5a 3e
       -0.021955803 0.040510625 0.19896716 0.21330608
000390 71 7b ea bc b7 bb 1e 3e fc 9c 97 3e 3e 1a 91 bf
       -0.028623315 0.15501295 0.29611957 -1.1336133
0003a0 1c ab 69 3e 67 e0 42 bf 20 4c 76 be 9b 52 ce bc
       0.2281918 -0.7612366 -0.24052477 -0.025185874
0003b0 1d 18 1e 3e 66 05 af 3d 7a 3a 34 3e 95 e3 15 3d
       0.15438886 0.085459515 0.17600432 0.036593992
0003c0 94 4b 5e 3e 78 3a f2 3b 88 ab 4d 3d 38 e8 08 3e
       0.21708518 0.007392224 0.050212413 0.13369834
0003d0 38 2f df 3d d2 9c ec be e8 90 04 3e bf 69 6d bf
       0.10897678 -0.46213394 0.12945902 -0.9273948
0003e0 7f d5 3e 3e 9e 6d d4 3c 9d a1 4d 3e c3 c5 05 3c
       0.1863613 0.025931176 0.20081182 0.008164826
0003f0 08 fc 17 3e 8b 65 54 3e d3 c8 de 3d cd 9c 16 3e
       0.14842236 0.2074186 0.10878148 0.14708252

bias f4 [128]
000000 17 3c 42 3e 19 36 62 3e aa 02 67 3e db 90 35 3e
       0.18968235 0.22090949 0.2255961 0.17731039
000010 bf 6f b5 bd fb aa 2d 3d 4a ff b6 bd 9e 25 95 bd
       -0.088592045 0.042399388 -0.08935411 -0.072825655
000020 a0 ba fe 3e 47 1b 1e 3f e8 ad 19 3d 48 8e 71 bd
       0.4975176 0.6176037 0.037519366 -0.05897358
000030 98 cc 34 3d 38 56 2b 3e be 91 a5 bb cc b2 45 3d
       0.04414043 0.16732109 -0.005052774 0.048266217
000040 a2 10 ef bd d0 df b4 bc d6 7f 71 3e 4e e9 ab 3c
       -0.11673094 -0.022079378 0.23583922 0.020985272
000050 5c 4e 90 3d 3e d6 86 3e 15 c0 0b 3e 8b df 74 3e
       0.07046196 0.2633533 0.13647492 0.239134
000060 63 ef 06 bc f4 f5 83 3e 02 3d 5f bd 77 47 40 bc
       -0.008235785 0.25773585 -0.05450154 -0.011735789
000070 2a f9 38 3e 2e 23 07 be 43 a0 37 3f 66 c4 08 be
       0.18063799 -0.13197014 0.71728915 -0.1335617
000080 2c 9e c8 3d 18 66 8e bd 66 c3 dd bd c0 ea 82 3c
       0.09795794 -0.069530666 -0.10828285 0.015981078
000090 43 7d 96 bd 28 8e 22 3d c5 6f 02 3e 9a d2 80 3e
       -0.073481105 0.039686352 0.12737949 0.25160676
0000a0 ee d6 0d be e9 d9 80 3f 1a 7f dc 3d ff 6e 97 bd
       -0.1385152 1.0066501 0.1076643 -0.07394218
0000b0 0a 06 a9 3c 19 c1 ae 3e 07 68 27 3e d0 b3 a1 bd
       0.020632762 0.34131697 0.16348277 -0.07895625
0000c0 40 15 5e 3c aa 9b a7 bd 3f 19 63 3d 33 58 2f bc
       0.013554871 -0.081839874 0.055444 -0.010702181
0000d0 f6 f3 8f 3d 1d 1a b2 3c 68 f1 59 3d 70 5a c7 3a
       0.07028954 0.021740967 0.05320874 0.0015209448
0000e0 c2 5e 90 3d 79 35 a3 bd 72 b0 ac 3d 0b c1 3e bd
       0.070493236 -0.079691835 0.08432092 -0.04657082
0000f0 a5 b7 91 3c 41 7a 96 bc 58 cf 27 3e 33 93 4d 3e
       0.017787764 -0.018368842 0.16387689 0.20075683
000100 14 b2 75 3b 7c 82 14 3e d6 64 35 3e 28 74 c0 bd
       0.0037490176 0.14502901 0.17714247 -0.09397155
000110 59 f0 93 bd 5f 21 56 bd a6 2e d6 bd fe 62 82 bc
       -0.07223577 -0.05227792 -0.10458116 -0.015916344
000120 88 8c 19 bd 34 ff 0b 3e 95 cf bd 3d d2 49 97 bb
       -0.037487537 0.13671571 0.09268109 -0.0046169544
000130 5c 86 08 3e d7 1a 0e 3e 05 d9 da bd d6 41 9c 3d
       0.13332504 0.13877426 -0.106859244 0.07629745
000140 c0 7e 6b 3d fe c7 e4 bd 67 7f ae 3d 98 01 9b bc
       0.057493925 -0.11170958 0.08520394 -0.018921658
000150 67 b8 b0 3d b8 4d 1c bd a0 d6 04 be 9f 74 04 be
       0.08628922 -0.038160056 -0.12972498 -0.12935112
000160 e4 c5 a5 bd e3 e0 ae 3d 03 3f bb bd d4 d4 11 3d
       -0.08094385 0.085389875 -0.09142878 0.03560336
000170 b5 80 69 3d 70 00 ff 3d 0e 51 e0 3d 02 6a 8d 3d
       0.05700751 0.12451255 0.1095296 0.06904985
000180 c1 d9 b8 3d 36 f2 e1 3d 88 d9 52 3d 92 d9 e0 3d
       0.09025908 0.11032526 0.051476985 0.10978998
000190 ac fe 48 bd c6 ec cf 3d e1 5b 24 3e c2 43 7e 3e
       -0.049071 0.10152583 0.16050674 0.24830535
0001a0 ae 55 25 3e b4 1a 98 bd 43 56 a6 3d b3 f5 ad 3d
       0.16145965 -0.07426968 0.08121922 0.08494129
0001b0 9a ae e3 3d 3d ed ea bd b8 f6 d5 bc 8a 5b 52 bd
       0.11117287 -0.11471031 -0.026118621 -0.05135683
0001c0 f3 32 5a 3e 12 c6 aa bd 0d 54 c0 3c 8e 2c 83 3d
       0.21308498 -0.0833856 0.023477579 0.064049825
0001d0 d8 5c 9b 3d 94 4f c2 bd b4 3c 3d bd 04 7f 59 3d
       0.07586068 -0.094878346 -0.04620047 0.053099647
0001e0 c7 74 00 3d 58 89 98 3d d3 aa 8b 3d 87 4b 87 bd
       0.031361368 0.07448071 0.068196915 -0.066062026
0001f0 b8 35 a3 bc 5d eb 02 3d d2 5d 67 3d 33 97 52 3c
       -0.019923076 0.03196274 0.05648596 0.0128534315

weight f4 [4, 128]
000000 a8 f7 a5 3d 50 0d 98 bd 02 cc 24 3d 9a 23 e9 bd
       0.08103877 -0.07424414 0.04023362 -0.113837436
000010 a2 20 69 bd 12 fb a0 bd 94 3b c0 3d a6 f4 37 bd
       -0.056915887 -0.07860388 0.093863636 -0.04491105
000020 ff fb 8b 3e f2 f3 eb 3e 46 87 4f 3d a8 c8 34 bd
       0.27340695 0.46084553 0.050666116 -0.044136673
000030 b0 a5 91 3d df d2 9d 3c ce 79 41 bd 54 ea d0 bc
       0.071116805 0.01926559 -0.047235303 -0.025502361
000040 84 69 4d bd a2 ee 99 3d 7d 8a 07 be 43 a3 44 bd
       -0.050149456 0.07516219 -0.13236423 -0.04800726
000050 f9 db 88 bd bd 84 0f 3f 0c 23 98 bc ce 95 0b be
       -0.066825815 0.5606192 -0.0185714 -0.13631365
000060 a6 6b 29 3d 3c 87 aa bd f6 ef 34 3d 8a cc 69 3d
       0.041362427 -0.08326575 0.044174157 0.05707983
000070 9f 5b 5a be bd 49 6f bd 5d 13 54 be 99 b7 d7 3c
       -0.21324013 -0.05841993 -0.20710512 0.026332663
000080 63 1e 8e 3d 49 f9 66 bd 38 9f f9 ba 2e a3 62 3d
       0.069393896 -0.05639008 -0.0019044643 0.0553314
000090 5e 60 72 3d ca 87 46 3d 3f 00 a8 3b ff a9 2b 3e
       0.059173934 0.048469342 0.0051269825 0.16764067
0000a0 d4 00 d9 3c 73 af d0 3e 60 c3 4e 3b 2f 7b 0b 3d
       0.026489653 0.40758857 0.0031549558 0.034053024
0000b0 fc 19 68 3b 2b 03 6b 3e d4 c6 1f bc 38 48 e6 bc
       0.0035415879 0.22950427 -0.009751994 -0.028110608
0000c0 c6 7a ad bd e4 0a aa 3c e2 07 20 3c c8 49 80 bd
       -0.08470683 0.020757146 0.009767504 -0.06264073
0000d0 62 9c b3 bd 92 cd 98 3c 91 ec 87 3d 04 28 f8 3d
       -0.08770062 0.018652711 0.06636918 0.121170074
0000e0 c6 75 78 3d 67 23 92 bd e6 ff 81 3d 9a 35 84 3d
       0.060659193 -0.07135659 0.06347637 0.06455536
0000f0 48 ea c6 3c dc 4e 99 bd c8 c4 60 bb 0d 82 e1 bd
       0.024281636 -0.07485744 -0.0034296978 -0.11011133
000100 26 c7 d2 bc 4c ab 3c 3d d1 10 44 3d 3c b1 04 bd
       -0.025729727 0.0460618 0.0478676 -0.032395586
000110 3e 32 9c bc 40 da 10 be 5e 08 1e bd df 2b 97 bc
       -0.019066926 -0.14145756 -0.0385822 -0.018453537
000120 c6 c6 9b 3c 1d ae 56 3e c7 71 29 3d cc 57 e5 bc
       0.019015681 0.20964856 0.041368272 -0.027995966
000130 10 0f bb 3d 9f 48 69 3e d0 c8 66 3d 3a 27 74 3d
       0.09133732 0.22781609 0.056343853 0.059607722
000140 c2 49 72 bd 56 c4 a0 3c 7a 12 3d 3d 79 ce 51 3d
       -0.059152372 0.01962487 0.0461602 0.0512223
000150 02 da 82 3d ba db ea bc 79 f3 24 bd 2e b7 a7 bd
       0.06389238 -0.028669227 -0.040271256 -0.08189236
000160 05 42 60 3d 2b 7d 85 bd a2 7a 0f bd 62 c6 a7 3d
       0.05475046 -0.065180145 -0.03502906 0.081921354
000170 c6 07 ec 3d f1 7d 6a 3e 35 9c 82 3d 81 ef 9d bd
       0.1152492 0.22899605 0.063774504 -0.07711697
000180 b8 3c 67 3d a0 ea 13 3d 02 18 37 bc 4f 49 60 be
       0.05645439 0.036112428 -0.0111751575 -0.21902965
000190 aa 9b 10 bd 96 57 4d 3d 66 7b 4e be 02 51 1d 3c
       -0.035304703 0.050132357 -0.2016426 0.009601833
0001a0 2a a2 ca bd bf 74 30 bd 40 9c e4 3c 30 dc d2 3d
       -0.098942116 -0.043080088 0.027906537 0.10295904
0001b0 ee f2 9b 3e 04 9b 93 be e0 bd bb ba 30 40 4c bc
       0.30458778 -0.28829205 -0.0014323555 -0.012466475
0001c0 46 e3 9e bd af 42 98 3d 4c 80 ee bd 9a d1 8b 3c
       -0.07758193 0.07434594 -0.116455644 0.01706772
0001d0 69 53 2d 3d bb 7c 82 3d b6 49 33 3d c0 24 12 bc
       0.042315874 0.06371447 0.043771468 -0.008919895
0001e0 28 21 20 bd ca fc 5b bd b0 f8 ca bc eb 73 a5 3d
       -0.03909412 -0.053707875 -0.024776787 0.0807875
0001f0 9f f2 a6 3d 7a 15 c7 3d bc 23 ec 3d ea 64 d7 3b
       0.08151745 0.09720893 0.11530253 0.006573309
000200 0c b5 11 be fc bb b5 ba d4 fe 23 bd 6e 9f 03 3e
       -0.1422922 -0.0013865228 -0.040037945 0.12853786
000210 4e c6 4b 3c 19 62 c2 bc 44 98 cb 3d 90 d7 9d ba
       0.012437416 -0.023728417 0.09941152 -0.0012042392
000220 73 48 b5 3c ac fa af bc 1d cb ae 3d be 42 23 3d
       0.022129273 -0.021481834 0.085348345 0.039858572
000230 61 1a 09 be 7b 6a 33 be 42 af 3b bd 75 ee a3 3d
       -0.13388969 -0.17521088 -0.045821436 0.080044664
000240 88 60 3c 3d 00 70 1a 3d bd 54 91 3b c2 c3 a4 bb
       0.045990497 0.037704468 0.0044351504 -0.005028219
000250 e9 98 bc 3c d8 ff 02 be 81 bc 66 bd 66 7d 26 bd
       0.023022132 -0.12792909 -0.056332115 -0.040646933
000260 61 1f 4c 3e 9e 18 c8 3d a4 2f 76 bb fa f8 dc bd
       0.19933845 0.0977032 -0.0037565017 -0.10789676
000270 57 7d 87 bd 5b e0 6d bd c1 3c 71 3f cc f1 61 3d
       -0.066157036 -0.05807529 0.9423333 0.055162236
000280 4c ca 86 3c 00 38 48 bb 84 ed 31 3d b3 11 a5 bd
       0.016453885 -0.0030550957 0.043439403 -0.080600165
000290 e5 7d 47 bd c8 03 9e bd 51 d6 c9 3c 3d 5f a9 bd
       -0.048704047 -0.07715565 0.024638327 -0.082701184
0002a0 03 fb 2b 3d 6b cb 30 3e 78 47 cd bc 86 ca bc 3b
       0.04198743 0.17265098 -0.025058493 0.0057614474
0002b0 c9 2a a9 3d e5 38 82 3d 7a f7 0d be a0 4f 54 bc
       0.08260114 0.06358508 -0.13863936 -0.012958437
0002c0 10 6d 39 bc 1b 2f 14 bd 90 14 4c bb 8e ac 17 3d
       -0.011317506 -0.036177736 -0.0031140186 0.037029795
0002d0 c7 b3 41 3d 15 7f 24 bd 66 af 7f 3d c4 f2 00 be
       0.04729059 -0.040160257 0.062423132 -0.12592608
0002e0 b0 77 c1 3b b3 19 03 bc 14 f1 96 3c 9d a9 00 bd
       0.0059041604 -0.008001733 0.018425502 -0.031411756
0002f0 da 89 b9 3d be b4 6b bd 8d 56 26 be df 27 85 be
       0.09059496 -0.057545416 -0.16243954 -0.26006982
000300 5e c4 19 bc a3 fa 16 3e 0e 31 5f 3d 8b 82 33 bc
       -0.0093851965 0.14744048 0.05449014 -0.010956417
000310 40 10 ba 3c 08 fc 00 be ae d5 b6 3d bc 2b 21 3d
       0.022712827 -0.12596142 0.08927475 0.03934835
000320 62 80 54 bd 70 a5 de 3a 9d 50 78 3d b3 3f c5 bd
       -0.051880248 0.001698656 0.060623754 -0.0963129
000330 22 8d 14 bd 5b 0d 94 3e b0 6f 89 bd 4d 0d b0 3d
       -0.036267407 0.2891644 -0.06710756 0.08596287
000340 cc d3 77 bc b1 b4 b1 3c e4 2a 11 be 65 df 41 3d
       -0.01512618 0.021692606 -0.14176518 0.047332186
000350 20 b4 76 3d 88 a8 a9 bd 20 f1 76 3d 30 b0 8c bd
       0.060230374 -0.08284098 0.06028855 -0.068695426
000360 6c af 8f bd b6 04 7e bd 10 db 01 3c ac af f5 3c
       -0.07015881 -0.06201621 0.007925764 0.029990993
000370 f4 3f 64 bc 1e 61 1d 3d b4 f3 96 bd d7 cd a6 bd
       -0.013931263 0.038422696 -0.073707014 -0.081447296
000380 b8 a7 ba 3a 89 38 3e bd ea e9 f3 bd 84 59 84 bd
       0.0014240658 -0.046440635 -0.1190985 -0.06462386
000390 21 21 5a 3e dc 2e a6 bd e3 0f 60 3e 7a e1 94 3d
       0.213017 -0.081144065 0.2188106 0.07269569
0003a0 d8 27 ab bc 20 62 5e ba 78 32 a9 bd 01 17 04 3d
       -0.020893022 -0.00084832497 -0.08261579 0.0322485
0003b0 8f b8 b3 3b d2 11 d3 be d9 b3 65 bd 80 f5 77 3d
       0.0054846476 -0.41224533 -0.05607972 0.06053686
0003c0 ba c7 aa bc fc 17 40 bd 82 9b bc bd 62 ba 11 bc
       -0.02084719 -0.046897873 -0.09209348 -0.008894535
0003d0 12 a6 17 3d 30 b3 06 ba 82 e7 84 bc 48 c7 cd 3c
       0.03702361 -0.00051383954 -0.016223673 0.025119439
0003e0 ce 01 77 3c 78 23 66 3c 1a 5d 9e 3d 26 1e c1 bc
       0.015076114 0.014046542 0.077326015 -0.023573946
0003f0 74 88 86 bc 81 40 9c be 30 4e 84 ba 26 f6 03 3d
       -0.016422488 -0.30517963 -0.0010094102 0.032217167

bias f4 [4]
000000 3c b1 2a be 64 3a ae 3a 01 c5 7b 3e 1d c9 d4 3e
       -0.16669172 0.0013292548 0.2458687 0.41559687

weight f4 [1, 128]
000000 6a e7 c0 bd 08 b5 d3 bd 95 76 54 be 8a 30 ff bd
       -0.09419139 -0.10337263 -0.2074836 -0.1246043
000010 89 27 a2 bd bc 22 e9 bc ba 87 09 bd e0 6b 4c bc
       -0.07917697 -0.028458945 -0.033576705 -0.012476891
000020 12 56 05 be 8a a5 43 bd 06 68 e5 bc c8 bb 32 3c
       -0.13021114 -0.047765292 -0.028003704 0.010909028
000030 f5 24 d3 3c 0e cd d1 bd 3d a6 4a bc 00 a3 bc 3c
       0.025774458 -0.10244189 -0.012368736 0.023026943
000040 bf cc 0d bd ae 6f 64 bc 9c 8b 4d bd d9 08 7f 3d
       -0.03461909 -0.013942642 -0.05018197 0.062264297
000050 4e ae 8b 3c ba 57 49 bd 28 f5 b8 bd 58 c0 bd bd
       0.017050888 -0.04915593 -0.09031135 -0.09265202
000060 2c 90 34 bd b9 56 87 bd 96 2a 86 3b 42 76 c8 3d
       -0.044082806 -0.06608338 0.004094432 0.09788181
000070 5d 20 0d be 6e 98 c2 3d 92 59 4b be 34 bb 74 3d
       -0.13781877 0.0950173 -0.19858387 0.059748843
000080 04 ee 07 3d 82 b9 1d bd 35 2e 9e bd ab db 22 bd
       0.033185974 -0.038506992 -0.07723657 -0.039760273
000090 c4 ea 47 3c 03 ce ae 3d da b1 b3 bd f2 ba c0 bd
       0.012201969 0.08535387 -0.08774157 -0.09410657
0000a0 30 7d 3b 3c 64 1b f4 bd 9c 4a 9a bd 9a 06 f6 bc
       0.011443421 -0.11919287 -0.07533762 -0.030032445
0000b0 25 c8 94 3c 99 a1 20 be 72 1b fb bd fa ac 54 3d
       0.018161843 -0.15686645 -0.12261094 0.051922776
0000c0 8a 81 2c 3d a4 c0 1a bd 96 1a 04 3d c4 1b 35 3d
       0.042115726 -0.037781373 0.032251917 0.044215932
0000d0 fb 92 b6 3c d8 2e 67 3b 6e 8f 09 bd b0 8e 81 3d
       0.022286883 0.0035275724 -0.03358405 0.063260436
0000e0 91 55 a9 bd 05 fa 4b 3d bc e3 47 bd 04 46 07 bc
       -0.082682736 0.049798984 -0.04880117 -0.008256439
0000f0 4e 25 b3 3d 59 83 90 bd 85 a5 87 bd 7b 55 0c be
       0.0874735 -0.070563026 -0.06623367 -0.13704483
000100 39 6a 37 3d ae 0b 8d be 9a 18 5d bd 58 1c 99 bb
       0.044779036 -0.27547973 -0.05397854 -0.0046725683
000110 4f ee 87 3d bd 79 fb 3d 3c 4e e6 bb 4d ce d0 3c
       0.06637251 0.12279079 -0.0070283692 0.025488997
000120 db ad cb 3d 4a 9b cf bd 13 c3 03 bc ae d5 a9 3d
       0.0994527 -0.10137041 -0.008042115 0.08292709
000130 dc d2 e1 3b d3 f0 65 be 91 2e 9f 3d e7 7f ab 3d
       0.0068915915 -0.22455148 0.07772554 0.08374005
000140 60 89 55 3d 4b ea 42 3d 4c 22 c1 bd 48 8c 53 bd
       0.052132964 0.04758672 -0.0943037 -0.051647455
000150 9e 3f 6e bd 38 a1 92 3c cd ca 71 bc fe 6a b3 3d
       -0.05816614 0.01789914 -0.014757824 0.087606415
000160 d6 e6 9d 3c fd 8c 46 3d 96 b0 ba 3b 00 74 a3 b9
       0.01927511 0.0484743 0.00569732 -0.0003117621
000170 ba f2 32 bd 73 02 47 be 8d d6 31 be 3c 3f 94 bc
       -0.043688513 -0.19434528 -0.17367001 -0.018096559
000180 16 5f 96 bd 3b 92 20 be f0 4c 39 3d 4a a1 58 bc
       -0.07342355 -0.15680782 0.04523939 -0.013222048
000190 09 58 b3 bd 74 ba b9 bc c4 4d 08 be 89 a7 81 be
       -0.08757026 -0.022671916 -0.13310915 -0.25323132
0001a0 14 c9 5a bd 66 fe d1 3c b1 af 81 3d 91 a3 a2 bc
       -0.05341442 0.025634002 0.063323386 -0.019853385
0001b0 82 3e df bd 4d 0a 59 3e 7f 92 23 3c 92 cd 8f 3c
       -0.10900594 0.21195336 0.009983658 0.017554078
0001c0 56 6b ad bd cc b5 8d bc a4 cb a7 bd 60 f9 8c 3d
       -0.08467738 -0.017298602 -0.08193138 0.06883502
0001d0 80 3f 49 3b b3 71 9f 3d 51 6f 02 3d 67 24 95 3d
       0.0030708015 0.07785358 0.03184444 0.07282334
0001e0 11 e6 79 3c 40 6a c8 3a aa 93 cc bc 6e 20 43 3d
       0.015252606 0.0015290454 -0.024972755 0.04763835
0001f0 be b2 9d 3d 19 60 91 3d 36 dd 99 bd 80 32 8a 3c
       0.07700108 0.07098407 -0.07512896 0.016869783
