output/2023-04-09_21-36-44/weight/27_model.pkl (torch, 41177 bytes, 7 tensors)

weight f4 [64, 6]
-0.0030433214 0.36136281 -0.4070923 -0.37464908 -0.033482805 0.23323058 -0.0117871845 0.39611068
-0.10694898 -0.03810498 -0.068897605 -0.025767159 -0.39001942 -0.28862488 -0.48773313 0.12791827
0.27774218 0.35775375 -0.611063 -0.51248634 0.6231723 0.26826623 -0.18208739 0.18118246
-0.06580284 0.043198436 0.36965913 -0.37871987 -0.25700778 -0.103354275 -0.15913516 0.35272688
-0.26461825 -0.1879301 -0.28521878 -0.38234943 -0.008009523 0.5328112 0.034214355 0.30077282
0.064416476 -0.16635655 0.0025105728 -0.38773805 -0.34154522 -0.17164674 0.25102055 0.23280583
-0.059123687 0.15500952 0.20638585 0.32780558 0.27368587 0.1668107 0.04044261 -0.6240519
-0.070271954 -0.06830405 -0.5817643 -0.50970757 0.13948743 0.30935574 -0.29754055 0.16969575
0.33724245 0.061597355 -0.013812462 0.00701396 0.1850696 0.36380023 -0.3828035 -0.21780787
-0.05675546 0.43090165 0.066395335 0.36193582 0.14685948 -0.28939348 0.0075557884 -0.2854023
-0.41046867 0.33272564 0.2804156 -0.43723908 0.17303216 -0.55681753 -0.19689941 0.70726806
0.011617532 -0.3871839 0.025138345 0.0010369262 0.12932523 -0.14928098 -0.6422283 -0.50300056
0.14740835 0.26844257 -0.3087833 -0.20760003 0.54544014 0.4364659 -0.17800653 -0.102749884
-0.38889655 -0.007337898 -0.30743504 -0.31490508 0.022468492 0.20508079 -0.19791082 0.29185972
-0.103104584 0.51576275 0.02009611 -0.66788554 -0.36010095 -0.12702528 -0.1578183 -0.120556176
0.038561285 -0.16059886 -0.2854313 0.030349534 -0.5755524 -0.42591244 -0.10219672 -0.19886321
-0.14281887 -0.33460915 -0.0868406 0.0872657 -0.27596217 -0.12852713 0.20404324 -0.13017209
-0.07685547 -0.12342111 0.014685434 0.39809096 0.34367737 0.29126304 0.5229723 0.10585063
-0.36673823 -0.19354123 0.27797842 -0.002646476 -0.20291834 -0.31284547 -0.38206002 -0.3445649
-0.08280775 0.22388583 0.22071582 -0.3937277 0.04218769 -0.5930396 -0.31648415 -0.5142742
-0.3156934 -0.31721517 -0.3663416 -0.35249704 -0.06388247 0.005279541 -0.18545696 0.15378684
-0.46602267 0.018816717 0.70759577 -0.35905856 0.19842765 -0.022373743 -0.2504965 0.43587145
0.039204583 0.0051428718 0.5103257 -0.14603488 -0.01617273 0.064844005 0.17391044 0.046919964
0.25581414 0.20382515 -0.118861794 -0.016662456 -0.5244047 0.3556597 0.40402925 0.35924906
-0.2879695 0.018207818 -0.28778815 -0.22473423 -0.23788853 0.13951683 -0.24328054 -0.008906841
0.017174244 0.26316625 -0.30860308 -0.28026748 -0.052256517 0.46238783 -0.18458252 0.45576677
0.24835671 0.15242602 -0.0072091045 0.089356095 0.029314123 -0.16057175 0.118287235 0.1732457
-0.3793475 -0.33214357 0.2308487 -0.42011037 -0.12812284 0.30504516 0.14709401 0.13436031
-0.35492197 -1.2253968 -0.22015847 -0.0452575 -0.3944762 -0.37581682 -1.0643427 0.37719157
-0.0024499325 0.3124664 0.08812975 -0.84568506 0.16482861 0.71989954 -0.27825427 0.014846819
0.08956652 0.44766018 -0.15903881 0.013304225 0.3673801 -0.23760957 0.0803627 -0.780005
-0.09167528 0.7561558 -0.47923964 -0.21026768 0.043545265 -0.48981902 -0.45996395 -0.6214086
00000000: 7672 47bb 8c04 b93e 676e d0be 01d2 bfbe
00000010: 4425 09bd ffd3 6e3e 091f 41bc 05cf ca3e
00000020: 1108 dbbd f813 1cbd 301a 8dbd a615 d3bc
00000030: a0b0 c7be a4c6 93be 28b8 f9be 02fd 023e
00000040: 3934 8e3e 802b b73e a06e 1cbf 4e32 03bf
00000050: 3888 1f3f 315a 893e 1e75 3abe e587 393e
00000060: a4c3 86bd d8f0 303d f643 bd3e 92e7 c1be
00000070: 8696 83be 68ab d3bd 54f4 22be 9e98 b43e
00000080: 0b7c 87be c070 40be 3208 92be 4ec3 c3be
00000090: 603a 03bc 5166 083f 5a24 0c3d e5fe 993e
000000a0: c9ec 833d 5f59 2abe 6c88 243b 9a85 c6be
000000b0: 04df aebe 2ac4 2fbe c485 803e a764 6e3e
000000c0: ae2b 72bd d1ba 1e3e d056 533e 22d6 a73e
000000d0: 8e20 8c3e 6dd0 2a3e 26a7 253d dec1 1fbf
000000e0: beea 8fbd fee2 8bbd 81ee 14bf 327c 02bf
000000f0: cbd5 0e3e e063 9e3e 3c57 98be b9c4 2d3e
00000100: 0bab ac3e 824d 7c3d aa4d 62bc 5cd5 e53b
00000110: e382 3d3e 0644 ba3e d2fe c3be 0709 5fbe
00000120: 6a78 68bd 249f dc3e 47fa 873d a74f b93e
00000130: 5562 163e 622b 94be 8c96 f73b 4020 92be
00000140: f328 d2be 045b aa3e a292 8f3e cddd dfbe
00000150: 582f 313e 988b 0ebf 00a0 49be 850f 353f
00000160: 7657 3e3c f83c c6be eeee cd3c 78e9 873a
00000170: d56d 043e 1ddd 18be 1369 24bf a5c4 00bf
00000180: 37f2 163e 4e71 893e d818 9ebe 1a95 54be
00000190: f7a1 0b3f 7578 df3e 5847 36be 886e d2bd
000001a0: 731d c7be c072 f0bb 2068 9dbe 3d3b a1be
000001b0: d80f b83c b300 523e 22a9 4abe a36e 953e
000001c0: 7f28 d3bd 0709 043f 99a0 a43c 8cfa 2abf
000001d0: 275f b8be ea12 02be 1f9b 21be 28e6 f6bd
000001e0: 70f2 1d3d 0774 24be 0d24 92be 969f f83c
000001f0: 6757 13bf 3211 dabe 844c d1bd cca2 4bbe
00000200: 1c3f 12be e451 abbe 7cd9 b1bd 5cb8 b23d
00000210: ea4a 8dbe 9e9c 03be b6f0 503e d54b 05be
00000220: 6766 9dbd 35c4 fcbd 2d9b 703c 94d2 cb3e
00000230: 7bf6 af3e 6e20 953e 83e1 053f 37c8 d83d
00000240: 1dc5 bbbe ac2f 46be 3053 8e3e 8070 2dbb
00000250: d3c9 4fbe 482d a0be 5f9d c3be d06a b0be
00000260: 1c97 a9bd 5442 653e 5403 623e ad96 c9be
00000270: 00cd 2c3d 71d1 17bf 360a a2be 79a7 03bf
00000280: 91a2 a1be 076a a2be 2091 bbbe 7e7a b4be
00000290: d0d4 82bd 0000 ad3b 6ee8 3dbe 4c7a 1d3e
000002a0: 869a eebe 8425 9a3c ff24 353f 86d6 b7be
000002b0: 9e30 4b3e 2449 b7bc 1441 80be 8b2a df3e
000002c0: fc94 203d 8985 a83b b4a4 023f 2b8a 15be
000002d0: ac7c 84bc efcc 843d 9415 323e 262f 403d
000002e0: 12fa 823e 8ab7 503e d06d f3bd b47f 88bc
000002f0: 633f 06bf 0719 b63e ecdc ce3e 7eef b73e
00000300: bd70 93be 9028 953c f858 93be bb20 66be
00000310: 0d99 73be 80dd 0e3e 891e 79be 00ee 11bc
00000320: 00b1 8c3c babd 863e 3901 9ebe 387f 8fbe
00000330: ee0a 56bd 19be ec3e 3303 3dbe 435a e93e
00000340: 3951 7e3e 9115 1c3e 5a3a ecbb 5400 b73d
00000350: 2c24 f03c ec6c 24be 9440 f23d 5267 313e
00000360: d639 c2be b90e aabe 9a63 6c3e b518 d7be
00000370: a232 03be e12e 9c3e d09f 163e c095 093e
00000380: 55b8 b5be cdd9 9cbf 3971 61be ee5f 39bd
00000390: c9f8 c9be 106b c0be 623c 88bf 411f c13e
000003a0: 0c8f 20bb 99fb 9f3e 5f7d b43d d17e 58bf
000003b0: d5c8 283e 564b 383f 5877 8ebe 1340 733c
000003c0: a76e b73d b733 e53e 12db 22be f7f9 593c
000003d0: 3f19 bc3e ec4f 73be 3395 a43d 68ae 47bf
000003e0: 40c0 bbbd 6d93 413f e65e f5be 6950 57be
000003f0: 855c 323d 8fc9 fabe 6580 ebbe a214 1fbf

bias f4 [64]
0.2588117 0.4625961 0.32808208 0.14835243 -0.14288372 0.19588876 0.08983878 -0.10405565
-0.11847431 -0.527887 -0.20101395 0.2058946 0.35584873 -0.07646362 -0.38163042 0.07736078
0.42245117 0.030346751 -0.047418132 0.15781786 -0.016991828 -0.3099198 0.30250996 0.4453889
-0.14880279 0.22949862 -0.46902093 -0.063978344 0.17640826 0.20073494 -0.2290722 -0.056597594
-0.110817015 -0.07876286 0.13980001 0.49871546 -0.07703018 -0.18143904 -0.032382727 0.090523385
0.35971162 -0.6373382 -0.32946455 -0.40941653 -0.030855276 0.14708918 -0.5487873 0.2097754
0.5037265 -0.0023103645 -0.27209246 -0.28154153 -0.03885137 -0.44433275 0.28099734 -0.50660765
-0.33372834 -0.24651013 0.0064885635 0.22451961 -0.11962611 0.12802006 0.003160554 0.22686905
00000000: f882 843e 65d9 ec3e 60fa a73e b3e9 173e
00000010: 1c50 12be 1097 483e 65fd b73d 211b d5bd
00000020: a9a2 f2bd 9a23 07bf 9ad6 4dbe 09d6 523e
00000030: ce31 b63e f598 9cbd 1065 c3be 546f 9e3d
00000040: 854b d83e c099 f83c 8439 42bd 019b 213e
00000050: 7232 8bbc cfad 9ebe 96e2 9a3e 040a e43e
00000060: c25f 18be b001 6b3e 8323 f0be 1407 83bd
00000070: 5ea4 343e 768d 4d3e e791 6abe e1d2 67bd
00000080: 08f4 e2bd 6c4e a1bd bc27 0f3e a257 ff3e
00000090: 00c2 9dbd 28cb 39be c0a3 04bd 5364 b93d
000000a0: 1f2c b83e 9928 23bf 94af a8be 0b9f d1be
000000b0: 34c4 fcbc 8c9e 163e 537d 0cbf 5dcf 563e
000000c0: 38f4 003f 7c69 17bb b44f 8bbe 3626 90be
000000d0: 9d22 1fbd 957f e3be e2de 8f3e 0ab1 01bf
000000e0: 71de aabe 276d 7cbe 049e d43b 78e8 653e
000000f0: 89fe f4bd b117 033e 4c21 4f3b 5c50 683e

weight f4 [128, 64]
0.14294137 -0.046334356 0.15842782 -1.0633999 0.12424946 0.06315152 0.18636994 0.05435861
0.121561736 0.10045076 -0.08888779 -0.04655335 -0.045552347 -0.07868641 -0.0848352 -0.06555885
0.0815882 0.06710085 0.11228207 -0.09478304 -0.11691495 -0.038564578 0.08486273 0.18455537
0.07187863 -0.014076158 0.023827069 -0.12263286 0.110919446 0.27456138 -0.034597714 0.16334888
-0.08824152 -0.061913863 0.060145818 0.13077922 -0.012734703 0.19476344 0.15887567 -0.35313594
0.036162384 -0.6061158 -0.037769996 -0.3390254 0.081252985 -0.08757374 0.12781802 0.20002262
-0.024680734 -0.077362515 0.110602215 0.09431583 -0.15402201 0.08584869 0.14009108 -1.190323
0.17508805 -0.0066787126 0.07933159 0.041154146 0.0067898803 -0.21987347 0.11122792 0.11807559
0.08457991 0.028230496 0.093043804 -0.89432985 -0.061071455 0.011049792 0.25293913 -0.043583423
0.13573207 0.008731236 0.117189944 -0.10115029 0.018446278 -0.09344868 0.18607761 -0.001049052
0.091610715 -0.06056194 0.2444261 0.16405322 -0.098861635 -0.10133374 -0.06475682 0.065480106
-0.03186299 -0.08181821 -0.08483398 0.023616359 0.3398556 0.25706384 0.0146201765 0.17667527
0.017173186 0.10278228 0.09372191 0.09205999 -0.066092834 0.3126587 -0.027552951 -0.3556331
0.1856747 -0.3467761 0.013374374 0.04867281 0.04704538 -0.027918473 0.11066638 0.20330249
0.008277428 -0.08356814 -0.042612538 0.042902056 -0.06883678 0.09786682 0.04553639 -0.36339396
0.12084567 0.12565383 0.17504331 0.062305555 0.04282607 -0.05302233 0.19518766 0.21683213
0.18575864 0.05522863 0.07075021 -0.89988416 -0.035585403 -0.103502944 0.20814799 -0.10982227
0.11965094 -0.039124344 0.028935995 0.036870074 0.276294 0.06704796 0.040242482 -0.11251505
-0.120159164 0.1167112 0.19015402 -0.108953364 -0.11044684 0.11575197 0.12841298 0.17160274
-0.10544813 -0.047165424 -0.105970435 0.1183707 0.28170615 0.13386719 0.04740698 0.078308545
-0.061565265 -0.010933936 0.15981291 -0.02855558 0.084210314 0.13545445 0.11432407 -0.3334732
0.055833258 -0.17708804 0.08635719 -0.013429455 -0.07416243 0.11824994 0.03659001 -0.08188827
0.038413532 -0.09486929 0.10959412 -0.040642448 -0.18935254 -0.1378884 0.07159317 -0.9334607
0.033092815 0.0044029276 0.06952042 -0.04045645 -0.04220152 -0.11033918 0.13417998 0.057844944
0.11322028 0.214641 0.14253043 -1.0207866 -0.08104372 0.11954105 0.094592646 0.07787965
-0.0014260756 0.08074686 0.19509912 -0.07107255 0.2301931 -0.10601953 -0.6559129 0.08303734
0.14671421 0.11509448 0.07559258 -0.24424513 -0.0028086333 -0.02710779 -0.028064344 0.053789355
0.013276666 0.11755115 -0.020652466 0.097054765 0.5075396 0.41549522 0.02974632 0.22014222
-0.021955803 0.040510625 0.15617976 0.19250654 -0.028623315 0.26311642 0.1968703 -1.3132741
0.23608722 -0.97041476 -0.24052477 0.1836745 0.16287927 0.085459515 0.18164685 0.040643662
0.121038266 0.007392224 0.050212413 0.13369834 0.10897678 -0.46213394 0.13702816 -0.68914825
0.19393034 0.023871958 0.115641356 0.008164826 0.009049226 0.16086991 0.055323564 0.14502336
00000000: 395f 123e 18c9 3dbd e73a 223e 7d1d 88bf
00000010: 8076 fe3d 9655 813d c3d7 3e3e 22a7 5e3d
00000020: 5cf5 f83d 21b9 cd3d cd0a b6bd baae 3ebd
00000030: 1995 3abd 5726 a1bd 14be adbd b843 86bd
00000040: b717 a73d 2c6c 893d 24f4 e53d 9c1d c2bd
00000050: 1b71 efbd e4f5 1dbd 83cc ad3d 15fc 3c3e
00000060: 1a35 933d b09f 66bc fc30 c33c f026 fbbd
00000070: bc29 e33d 4f93 8c3e 55b6 0dbd ee44 273e
00000080: f8b7 b4bd 6499 7dbd 765b 763d fdea 053e
00000090: 37a5 50bc 1170 473e 4eb0 223e 3cce b4be
000000a0: 021f 143d 682a 1bbf b6b4 1abd bd94 adbe
000000b0: f767 a63d dc59 b3bd bae2 023e bbd2 4c3e
000000c0: 402f cabc 3d70 9ebd 6a83 e23d a828 c13d
000000d0: f2b7 1dbe 70d1 af3d 0974 0f3e 815c 98bf
000000e0: 484a 333e 1ad9 dabb 9a78 a23d 4091 283d
000000f0: a57d de3b 8326 61be 77cb e33d 9dd1 f13d
00000100: 3b38 ad3d a443 e73c c08d be3d cdf2 64bf
00000110: 1026 7abd 300a 353c 3d81 813e 8884 32bd
00000120: 59fd 0a3e 750d 0f3c 4801 f03d e227 cfbd
00000130: a61c 973c 0662 bfbd 218b 3e3e 5880 89ba
00000140: 669e bb3d cc0f 78bd d64a 7a3e 91fd 273e
00000150: f877 cabd 1088 cfbd 399f 84bd 6f1a 863d
00000160: c482 02bd 4e90 a7bd 70bd adbd 1877 c13c
00000170: 8e01 ae3e df9d 833e 7789 6f3c 5dea 343e
00000180: c8ae 8c3c 847f d23d 46f1 bf3d f389 bc3d
00000190: ae5b 87bd cd14 a03e bab6 e1bc 8b15 b6be
000001a0: 8221 3e3e a38c b1be 3120 5b3c 245d 473d
000001b0: a8b2 403d 48b5 e4bc 0ea5 e23d 872e 503e
000001c0: 0d9e 073c c625 abbd 7c8a 2ebd 11ba 2f3d
000001d0: 4cfa 8cbd 666e c83d 5e84 3a3d c60e babe
000001e0: ef7d f73d 66ab 003e 8e3e 333e 1c34 7f3d
000001f0: 646a 2f3d f12d 59bd 46df 473e 3e09 5e3e
00000200: 8337 3e3e 6a37 623d 7ce5 903d cf5e 66bf
00000210: 00c2 11bd 5af9 d3bd bf24 553e 80ea e0bd
00000220: 8d0b f53d d940 20bd 2e0b ed3c 1305 173d
00000230: 6876 8d3e 7150 893d 4dd5 243d 4a6e e6bd
00000240: 0216 f6bd 4806 ef3d bcb7 423e f122 dfbd
00000250: f431 e2bd 5e0f ed3d b17e 033e a1b8 2f3e
00000260: 30f5 d7bd 8830 41bd 0707 d9bd 566c f23d
00000270: ca3b 903e 7b14 093e d22d 423d 3b60 a03d
00000280: dc2b 7cbd 4024 33bc ffa5 233e 64ed e9bc
00000290: 7576 ac3d 92b4 0a3e bd22 ea3d 00bd aabe
000002a0: 6ab1 643d 9156 35be 0adc b03d 3807 5cbc
000002b0: 79e2 97bd 062d f23d 68df 153d 0ab5 a7bd
000002c0: 8257 1d3d d54a c2bd e272 e03d b278 26bd
000002d0: a2e5 41be 9e32 0dbe 719f 923d 48f7 6ebf
000002e0: 558c 073d 6f46 903b b960 8e3d aab5 25bd
000002f0: 80db 2cbd 82f9 e1bd 7a66 093e d2ee 6c3d
00000300: 09e0 e73d daca 5b3e 7ff3 113e 23a9 82bf
00000310: 40fa a5bd f0d1 f43d cab9 c13d 5e7f 9f3d
00000320: 28eb baba 9c5e a53d 10c8 473e 7c8e 91bd
00000330: bdb7 6b3e c420 d9bd e8e9 27bf 7b0f aa3d
00000340: 403c 163e a8b6 eb3d 48d0 9a3d 651b 7abe
00000350: 0c11 38bb 2811 debc 32e7 e5bc 3a52 5c3d
00000360: 6086 593c a8be f03d 5c2f a9bc a6c4 c63d
00000370: 1dee 013f cabb d43e 8eae f33c f66c 613e
00000380: a8dc b3bc 78ee 253d 96ed 1f3e 6f20 453e
00000390: 717b eabc 32b7 863e 5e98 493e 5e19 a8bf
000003a0: d9c0 713e 1a6d 78bf 204c 76be 2b15 3c3e
000003b0: d3c9 263e 6605 af3d a201 3a3e f879 263d
000003c0: e9e2 f73d 783a f23b 88ab 4d3d 38e8 083e
000003d0: 382f df3d d29c ecbe 1c51 0c3e 056c 30bf
000003e0: ad95 463e 208f c33c 60d5 ec3d c3c5 053c
000003f0: 3443 143c 15bb 243e f69a 623d 0181 143e

bias f4 [128]
0.15468378 0.21923554 0.21280885 0.14563507 -0.14418311 -0.09023703 -0.041325953 -0.072825655
0.44938293 0.5978769 0.037519366 -0.05897358 0.04414043 0.18623401 -0.005052774 0.04330317
-0.11673094 -0.022079378 0.23787388 0.020985272 0.065345466 0.3477662 0.11506865 0.22872846
-0.008235785 0.21546978 -0.07528234 -0.011735789 0.15891722 -0.13197014 0.8712442 -0.1335617
0.09795794 -0.07496968 -0.10828285 0.015981078 -0.073481105 0.030489355 0.12570551 0.23834094
-0.1385152 0.46391398 0.10072602 -0.07394218 0.020632762 0.40014914 0.20418474 -0.07895625
0.013554871 -0.081839874 0.055444 -0.010702181 0.07028954 0.021740967 0.05320874 0.0015209448
0.070493236 -0.079691835 0.08432092 -0.04657082 0.017787764 -0.018368842 0.11890179 0.23088029
0.0037490176 0.17251399 0.14590469 -0.09397155 -0.07223577 -0.062204156 -0.10458116 -0.015916344
-0.037487537 0.0422213 0.09268109 -0.0046169544 0.13332504 0.15254177 -0.106859244 0.07629745
0.052056212 -0.11714747 0.08346758 -0.018921658 0.080851294 -0.038160056 -0.12972498 -0.12935112
-0.08094385 0.08042683 -0.09142878 0.023850868 0.05700751 0.27987105 0.17073588 0.06904985
0.07711187 0.16032924 0.051476985 0.068780586 -0.049071 0.10152583 0.13112718 0.24474798
0.15278798 -0.08404588 0.08121922 0.08494129 0.04635444 -0.37980384 -0.026118621 -0.05135683
0.19064793 -0.0833856 0.002194828 0.064049825 0.07586068 -0.094878346 -0.04620047 0.053099647
0.025923394 0.07448071 0.06275883 -0.066062026 -0.019923076 0.03196274 0.08507409 0.0128534315
00000000: 6d65 1e3e 487f 603e 90ea 593e 5c21 153e
00000010: bda4 13be 31ce b8bd 6745 29bd 9e25 95bd
00000020: 8515 e63e 760e 193f e8ad 193d 488e 71bd
00000030: 98cc 343d 21b4 3e3e be91 a5bb aa5e 313d
00000040: a210 efbd d0df b4bc 3695 733e 4ee9 ab3c
00000050: d8d3 853d 690e b23e 1da9 eb3d cb37 6a3e
00000060: 63ef 06bc 1ca4 5c3e a12d 9abd 7747 40bc
00000070: 32bb 223e 2e23 07be dc09 5f3f 66c4 08be
00000080: 2c9e c83d b489 99bd 66c3 ddbd c0ea 823c
00000090: 437d 96bd d0c4 f93c f2b8 003e a60f 743e
000000a0: eed6 0dbe 2286 ed3e 7249 ce3d ff6e 97bd
000000b0: 0a06 a93c 59e0 cc3e ce15 513e d0b3 a1bd
000000c0: 4015 5e3c aa9b a7bd 3f19 633d 3358 2fbc
000000d0: f6f3 8f3d 1d1a b23c 68f1 593d 705a c73a
000000e0: c25e 903d 7935 a3bd 72b0 ac3d 0bc1 3ebd
000000f0: a5b7 913c 417a 96bc c882 f33d e26b 6c3e
00000100: 14b2 753b 82a7 303e 0a68 153e 2874 c0bd
00000110: 59f0 93bd c9c9 7ebd a62e d6bd fe62 82bc
00000120: 888c 19bd 3ef0 2c3d 95cf bd3d d249 97bb
00000130: 5c86 083e e933 1c3e 05d9 dabd d641 9c3d
00000140: e538 553d 03eb efbd 0df1 aa3d 9801 9bbc
00000150: 5d95 a53d b84d 1cbd a0d6 04be 9f74 04be
00000160: e4c5 a5bd d2b6 a43d 033f bbbd e562 c33c
00000170: b580 693d 424b 8f3e 63d5 2e3e 026a 8d3d
00000180: d4ec 9d3d 592d 243e 88d9 523d d6dc 8c3d
00000190: acfe 48bd c6ec cf3d 3446 063e 379f 7a3e
000001a0: 7474 1c3e 3f20 acbd 4356 a63d b3f5 ad3d
000001b0: 27de 3d3d a675 c2be b8f6 d5bc 8a5b 52bd
000001c0: 3639 433e 12c6 aabd 1ad7 0f3b 8e2c 833d
000001d0: d85c 9b3d 944f c2bd b43c 3dbd 047f 593d
000001e0: 4c5d d43c 5889 983d b487 803d 874b 87bd
000001f0: b835 a3bc 5deb 023d 533b ae3d 3397 523c

weight f4 [4, 128]
0.12534039 -0.07503216 0.064026535 -0.11914191 0.09396726 0.19288924 0.14858453 -0.04491105
0.26837713 0.4799005 0.050666116 -0.044136673 0.071116805 0.0016663531 -0.047235303 -0.020539455
-0.050149456 0.07516219 -0.16522424 -0.04800726 -0.06170943 0.55958253 -0.033696126 -0.12429363
0.041362427 -0.09796782 0.07647546 0.05707983 -0.22957052 -0.05841993 -0.17438795 0.026332663
0.069393896 -0.029200947 -0.0019044643 0.0553314 0.059173934 -0.07177174 -0.028971843 0.12543735
0.026489653 0.31978947 -0.003783211 0.034053024 0.0035415879 0.22588421 0.061383612 -0.028110608
-0.08470683 0.020757146 0.009767504 -0.06264073 -0.08770062 0.018652711 0.06636918 0.121170074
0.060659193 -0.07135659 0.06347637 0.06455536 0.024281636 -0.07485744 0.07405828 -0.11051943
-0.025729727 0.054362476 0.026537865 -0.032395586 -0.019066926 -0.13153283 -0.0385822 -0.018453537
0.019015681 0.3298808 0.041368272 -0.027995966 0.09133732 0.3479574 0.056343853 0.059607722
-0.053718217 0.014186956 0.06271546 0.0512223 0.058454633 -0.028669227 -0.040271256 -0.08189236
0.05475046 -0.0701432 -0.03502906 0.070168875 0.1152492 0.29633284 0.1313654 -0.07711697
0.0999993 0.17750736 -0.0111751575 -0.19290759 -0.035304703 0.050132357 -0.19056393 0.0632736
-0.09937317 -0.052851856 0.027906537 0.10295904 0.31050345 -0.325858 -0.0014323555 -0.012466475
-0.036688667 0.07434594 -0.12331539 0.01706772 0.042315874 0.06371447 0.043771468 -0.008919895
-0.033656076 -0.053707875 -0.019339077 0.0807875 0.08151745 0.09720893 0.11703032 0.006573309
-0.24628584 0.0904653 -0.152853 -0.03613854 0.012226632 -0.087582916 0.120496444 -0.0012042392
0.044390924 -0.03445614 0.085348345 0.039858572 -0.13388969 -0.19441825 -0.045821436 0.075081654
0.045990497 0.037704468 -0.009072749 -0.005028219 0.017906103 -0.10483896 -0.075843394 0.10787112
0.19933845 0.07724238 0.06052005 -0.10789676 0.036770985 -0.05807529 0.82295936 0.055162236
0.016453885 0.024134085 0.043439403 -0.080600165 -0.048704047 -0.07132576 0.03914015 -0.17366898
0.04198743 0.26909935 -0.018120093 0.0057614474 0.08260114 0.06418699 -0.08096609 -0.012958437
-0.011317506 -0.036177736 -0.0031140186 0.037029795 0.04729059 -0.040160257 0.062423132 -0.12592608
0.0059041604 -0.008001733 0.018425502 -0.031411756 0.09059496 -0.057545416 -0.26033598 -0.33640388
-0.0093851965 0.21936442 0.07780305 -0.010956417 0.022712827 -0.106108546 0.08927475 0.03934835
-0.051880248 -0.021504283 0.060623754 -0.0963129 -0.036267407 0.371312 -0.06710756 0.08596287
-0.009692023 0.027130462 -0.2626355 0.047332186 0.07654327 -0.08284098 0.06028855 -0.068695426
-0.07015881 -0.057053156 0.007925764 0.032115046 -0.013931263 -0.010341917 -0.20196564 -0.081447296
-0.15587531 -0.18689176 -0.1190985 -0.14075929 0.213017 -0.081144065 0.1802927 0.14490119
0.048287895 -0.010620095 -0.08261579 0.0322485 -0.053436108 -0.5240721 -0.05607972 0.06053686
0.06304144 -0.046897873 0.076700576 -0.008894535 0.03702361 -0.00051383954 -0.016223673 0.025119439
0.0313894 0.014046542 0.071887694 -0.023573946 -0.016422488 -0.30517963 -0.094011284 0.032217167
00000000: 3b59 003e 76aa 99bd 5820 833d ac00 f4bd
00000010: e871 c03d c284 453e 8b26 183e a6f4 37bd
00000020: ba68 893e 85b5 f53e 4687 4f3d a8c8 34bd
00000030: b0a5 913d 8869 da3a ce79 41bd 5c42 a8bc
00000040: 8469 4dbd a2ee 993d 8b30 29be 43a3 44bd
00000050: 07c3 7cbd cd40 0f3f f304 0abd a98d febd
00000060: a66b 293d 5aa3 c8bd 2a9f 9c3d 8acc 693d
00000070: 8914 6bbe bd49 6fbd c192 32be 99b7 d73c
00000080: 631e 8e3d d336 efbc 389f f9ba 2ea3 623d
00000090: 5e60 723d 10fd 92bd 5c56 edbc a672 003e
000000a0: d400 d93c 72bb a33e c0ef 77bb 2f7b 0b3d
000000b0: fc19 683b 314e 673e 626d 7b3d 3848 e6bc
000000c0: c67a adbd e40a aa3c e207 203c c849 80bd
000000d0: 629c b3bd 92cd 983c 91ec 873d 0428 f83d
000000e0: c675 783d 6723 92bd e6ff 813d 9a35 843d
000000f0: 48ea c63c dc4e 99bd deab 973d 0358 e2bd
00000100: 26c7 d2bc 30ab 5e3d f065 d93c 3cb1 04bd
00000110: 3e32 9cbc 8bb0 06be 5e08 1ebd df2b 97bc
00000120: c6c6 9b3c 23e6 a83e c771 293d cc57 e5bc
00000130: 100f bb3d 7927 b23e d0c8 663d 3a27 743d
00000140: a207 5cbd 6870 683c f770 803d 79ce 513d
00000150: 206e 6f3d badb eabc 79f3 24bd 2eb7 a7bd
00000160: 0542 603d 3da7 8fbd a27a 0fbd b3b4 8f3d
00000170: c607 ec3d f0b8 973e a784 063e 81ef 9dbd
00000180: 6fcc cc3d 7dc4 353e 0218 37bc 9189 45be
00000190: aa9b 10bd 9657 4d3d 3123 43be 9795 813d
000001a0: 2984 cbbd 307b 58bd 409c e43c 30dc d23d
000001b0: 4ffa 9e3e dcd6 a6be e0bd bbba 3040 4cbc
000001c0: db46 16bd af42 983d c78c fcbd 9ad1 8b3c
000001d0: 6953 2d3d bb7c 823d b649 333d c024 12bc
000001e0: f4da 09bd cafc 5bbd fc6c 9ebc eb73 a53d
000001f0: 9ff2 a63d 7a15 c73d 98ad ef3d ea64 d73b
00000200: 5b32 7cbe df45 b93d 7f85 1cbe 0106 14bd
00000210: 3652 483c ac5e b3bd d7c6 f63d 90d7 9dba
00000220: 42d3 353d e221 0dbd 1dcb ae3d be42 233d
00000230: 611a 09be 9415 47be 42af 3bbd 69c4 993d
00000240: 8860 3c3d 0070 1a3d dea5 14bc c2c3 a4bb
00000250: d2af 923c cfb5 d6bd c853 9bbd 89eb dc3d
00000260: 611f 4c3e 4131 9e3d dfe3 773d faf8 dcbd
00000270: 2c9d 163d 5be0 6dbd 77ad 523f ccf1 613d
00000280: 4cca 863c d8b4 c53c 84ed 313d b311 a5bd
00000290: e57d 47bd 3d13 92bd 6c51 203d 48d6 31be
000002a0: 03fb 2b3d 64c7 893e 9770 94bc 86ca bc3b
000002b0: c92a a93d 7874 833d 8dd1 a5bd a04f 54bc
000002c0: 106d 39bc 1b2f 14bd 9014 4cbb 8eac 173d
000002d0: c7b3 413d 157f 24bd 66af 7f3d c4f2 00be
000002e0: b077 c13b b319 03bc 14f1 963c 9da9 00bd
000002f0: da89 b93d beb4 6bbd c24a 85be 213d acbe
00000300: 5ec4 19bc 11a1 603e 3557 9f3d 8b82 33bc
00000310: 4010 ba3c 704f d9bd aed5 b63d bc2b 213d
00000320: 6280 54bd c029 b0bc 9d50 783d b33f c5bd
00000330: 228d 14bd 9b1c be3e b06f 89bd 4d0d b03d
00000340: 4acb 1ebc b440 de3c 2978 86be 65df 413d
00000350: b8c2 9c3d 88a8 a9bd 20f1 763d 30b0 8cbd
00000360: 6caf 8fbd 92b0 69bd 10db 013c 118b 033d
00000370: f43f 64bc 2571 29bc 15d0 4ebe d7cd a6bd
00000380: c79d 1fbe 8e60 3fbe eae9 f3bd 3423 10be
00000390: 2121 5a3e dc2e a6bd a69e 383e fa60 143e
000003a0: 87c9 453d e8ff 2dbc 7832 a9bd 0117 043d
000003b0: d2df 5abd 9729 06bf d9b3 65bd 80f5 773d
000003c0: df1b 813d fc17 40bd 3115 9d3d 62ba 11bc
000003d0: 12a6 173d 30b3 06ba 82e7 84bc 48c7 cd3c
000003e0: 2c92 003d 7823 663c db39 933d 261e c1bc
000003f0: 7488 86bc 8140 9cbe fd88 c0bd 26f6 033d

bias f4 [4]
-0.20513771 0.139823 0.2502584 0.21092536
00000000: 9f0f 52be c32d 0f3e de21 803e d1fc 573e

weight f4 [1, 128]
-0.08127468 -0.06902065 -0.17281513 -0.100811705 -0.123519674 -0.043829195 -0.048945755 -0.012476891
-0.10641856 -0.014344351 -0.028003704 0.010909028 0.025774458 -0.06744713 -0.012368736 0.018063918
-0.03461909 -0.013942642 -0.025756095 0.062264297 0.022167316 -0.0369536 -0.07706832 -0.05830004
-0.044082806 -0.03141491 -0.01733103 0.09788181 -0.092590876 0.0950173 -0.17479123 0.059748843
0.033185974 -0.054820668 -0.07723657 -0.039760273 0.012201969 0.09262023 -0.05274684 -0.07031398
0.011443421 -0.08419811 -0.06839926 -0.030032445 0.018161843 -0.14394976 -0.07738309 0.051922776
0.042115726 -0.037781373 0.032251917 0.044215932 0.022286883 0.0035275724 -0.03358405 0.063260436
-0.082682736 0.049798984 -0.04880117 -0.008256439 0.0874735 -0.070563026 -0.031565204 -0.10205015
0.044779036 -0.26360372 -0.0087506585 -0.0046725683 0.06637251 0.11286502 -0.0070283692 0.025488997
0.0994527 -0.06670193 -0.008042115 0.08292709 0.0068915915 -0.2030471 0.07772554 0.08374005
0.04669597 0.0421488 -0.08138699 -0.051647455 -0.052728247 0.01789914 -0.014757824 0.087606415
0.01927511 0.043511238 0.00569732 -0.002435965 -0.043688513 -0.17159341 -0.14987753 -0.018096559
-0.059259348 -0.14493175 0.04523939 -0.022393517 -0.08757026 -0.022671916 -0.10931661 -0.2413552
-0.018419666 0.035409868 0.063323386 -0.019853385 -0.08521333 0.041724168 0.009983658 0.017554078
-0.050325386 -0.017298602 -0.047579393 0.06883502 0.0030708015 0.07785358 0.03184444 0.07282334
0.009814798 0.0015290454 -0.019534718 0.04763835 0.07700108 0.07098407 -0.06221222 0.016869783
00000000: 5773 a6bd b35a 8dbd 73f6 30be 5e76 cebd
00000010: e2f7 fcbd 3e86 33bd 587b 48bd e06b 4cbc
00000020: f9f1 d9bd 9204 6bbc 0668 e5bc c8bb 323c
00000030: f524 d33c b921 8abd 3da6 4abc c8fa 933c
00000040: bfcc 0dbd ae6f 64bc 72fe d2bc d908 7f3d
00000050: 3b98 b53c a85c 17bd ffd5 9dbd 06cc 6ebd
00000060: 2c90 34bd ecac 00bd cef9 8dbc 4276 c83d
00000070: 49a0 bdbd 6e98 c23d 79fc 32be 34bb 743d
00000080: 04ee 073d a38b 60bd 352e 9ebd abdb 22bd
00000090: c4ea 473c adaf bd3d 120d 58bd c700 90bd
000000a0: 307d 3b3c 0f70 acbd e914 8cbd 9a06 f6bc
000000b0: 25c8 943c 9167 13be 077b 9ebd faac 543d
000000c0: 8a81 2c3d a4c0 1abd 961a 043d c41b 353d
000000d0: fb92 b63c d82e 673b 6e8f 09bd b08e 813d
000000e0: 9155 a9bd 05fa 4b3d bce3 47bd 0446 07bc
000000f0: 4e25 b33d 5983 90bd 844a 01bd abff d0bd
00000100: 396a 373d 11f7 86be ec5e 0fbc 581c 99bb
00000110: 4fee 873d c725 e73d 3c4e e6bb 4dce d03c
00000120: dbad cb3d 059b 88bd 13c3 03bc aed5 a93d
00000130: dcd2 e13b 94eb 4fbe 912e 9f3d e77f ab3d
00000140: 4644 3f3d 38a4 2c3d 39ae a6bd 488c 53bd
00000150: 93f9 57bd 38a1 923c cdca 71bc fe6a b33d
00000160: d6e6 9d3c d738 323d 96b0 ba3b b6a4 1fbb
00000170: baf2 32bd 2fb6 2fbe 7f79 19be 3c3f 94bc
00000180: eeb9 72bd fd68 14be f04c 393d 9c72 b7bc
00000190: 0958 b3bd 74ba b9bc 63e1 dfbd d125 77be
000001a0: d7e4 96bc f009 113d b1af 813d 91a3 a2bc
000001b0: 5484 aebd f6e6 2a3d 7f92 233c 92cd 8f3c
000001c0: fe21 4ebd ccb5 8dbc 9ce2 42bd 60f9 8c3d
000001d0: 803f 493b b371 9f3d 516f 023d 6724 953d
000001e0: 3fce 203c 406a c83a 4607 a0bc 6e20 433d
000001f0: beb2 9d3d 1960 913d 3ed2 7ebd 8032 8a3c
