output/2023-04-09_21-36-44/weight/82_model.pkl (torch, 41177 bytes, 7 tensors)

weight f4 [64, 6]
00000000: c75e 463b 5c07 c53e 931d 08bf a4bd dfbe
00000010: 4f9f 7ebd 7a75 513e 376a ffbc 5c99 ff3e
00000020: 1c22 b5be 1379 aebd 20e1 97bd 6b31 febc
00000030: a0b0 c7be 17a6 d8be aa07 19bf c66f b83c
00000040: 6779 303e f833 813e a06e 1cbf 0d0e 1bbf
00000050: db6d 153f 42e5 663e 4044 66be c6b8 0d3e
00000060: a4c3 86bd d8f0 303d f643 bd3e 92e7 c1be
00000070: 8696 83be 68ab d3bd 54f4 22be 9e98 b43e
00000080: 0b7c 87be c070 40be 3208 92be 4ec3 c3be
00000090: ea34 7ebc 6c07 173f 52a5 1abd 1b93 953e
000000a0: 01bc 493d c2e0 39be 6c88 243b 9a85 c6be
000000b0: 04df aebe 2ac4 2fbe c485 803e a764 6e3e
000000c0: e526 2dbf 2749 8c3d a59d 3e3e 774e 9a3e
000000d0: c96f 863e ec6e 1f3e 26a7 253d dec1 1fbf
000000e0: beea 8fbd fee2 8bbd 81ee 14bf 327c 02bf
000000f0: 0441 053e 9338 943e 3a03 d1be 8165 fe3d
00000100: 16b1 8b3e ef20 38bb aa4d 62bc f0fa 673b
00000110: 24f4 393e a67c b83e 32c6 c5be c697 62be
00000120: afeb 27bd 55cf e83e d3ed b5bd 1343 a33e
00000130: 865d ef3d 2a85 a3be 8c96 f73b 4020 92be
00000140: f328 d2be 045b aa3e a292 8f3e cddd dfbe
00000150: 4002 533e 35ba 1bbf f3fc cdbe 1f28 4c3f
00000160: 67ef b7bd 972b fabe eeee cd3c 78e9 873a
00000170: d56d 043e 1ddd 18be 1369 24bf a5c4 00bf
00000180: 15ac fb3d 2c93 793e 0cd0 debe fc15 77be
00000190: 84b5 f93e fbe9 c13e 5847 36be 886e d2bd
000001a0: 731d c7be c072 f0bb 2068 9dbe 3d3b a1be
000001b0: f250 753b 686e 533e 8e30 b9be 82ee 673e
000001c0: e035 1fbe 3241 ed3e 99a0 a43c 8cfa 2abf
000001d0: 275f b8be ea12 02be 1f9b 21be 28e6 f6bd
000001e0: 70f2 1d3d 0774 24be 0d24 92be 969f f83c
000001f0: 6757 13bf 3211 dabe 844c d1bd cca2 4bbe
00000200: 1c3f 12be e451 abbe 7cd9 b1bd 5cb8 b23d
00000210: ea4a 8dbe 9e9c 03be b6f0 503e d54b 05be
00000220: 6766 9dbd 35c4 fcbd d8dc 27bd d811 c13e
00000230: 70bb 6e3e fc4d 6d3e de35 fb3e 7093 963d
00000240: 1dc5 bbbe ac2f 46be 3053 8e3e 8070 2dbb
00000250: d3c9 4fbe 482d a0be 5f9d c3be d06a b0be
00000260: 1c97 a9bd 5442 653e 5403 623e ad96 c9be
00000270: 00cd 2c3d 71d1 17bf 360a a2be 79a7 03bf
00000280: 91a2 a1be 076a a2be 2091 bbbe 7e7a b4be
00000290: d0d4 82bd 0000 ad3b 6ee8 3dbe 4c7a 1d3e
000002a0: 8c7a 93be 1748 b13d 5127 163f 038f 31bf
000002b0: f40a f53d ba28 cfbd ae7f 52be 837d 063f
000002c0: 148d 07be 5720 a2bd dc31 f03e 3cb9 3fbe
000002d0: 6c29 3b3d f685 503e 1e1b afbe be41 a63a
000002e0: 36ca 3c3e 908d 073e 9670 66be 58ca 2bbe
000002f0: 96c1 06bf 604c b73e 4079 c53e cc8b ae3e
00000300: bd70 93be 9028 953c f858 93be bb20 66be
00000310: 0d99 73be 80dd 0e3e 891e 79be 00ee 11bc
00000320: 00b1 8c3c babd 863e 3901 9ebe 387f 8fbe
00000330: 85cc 2abd 30e2 e33e 87f9 93be 938a da3e
00000340: 2128 543e e7d8 e33d 992b afbc d641 993e
00000350: 66ac 00bf 20e6 75be ed0e e93d 7cce 2c3e
00000360: d639 c2be b90e aabe 9a63 6c3e b518 d7be
00000370: a232 03be e12e 9c3e 2391 e83d 2d14 293c
00000380: 94f8 2fbe 989f 82bf dee8 12be 67c1 003d
00000390: c9f8 c9be bee6 dabe a02b 90bf 86a3 a63e
000003a0: 5ae6 5dbd de7f 853e 7ec7 833d b8e3 64bf
000003b0: a8ed 5e3e 35d4 293f 8adc 9fbe 23b3 9cbc
000003c0: a03b a33d 8dcf d83e 5909 8fbe 5b33 10bd
000003d0: 3c0d 9d3e f8b3 98be e705 033e b790 4fbf
000003e0: 1d6e 3ebd fccc 043f 5b4d 09bf fbe3 88be
000003f0: 855c 323d 8fc9 fabe 6580 ebbe a214 1fbf
0.0030268894 0.38482177 -0.53170127 -0.43699372 -0.062163647 0.2045497 -0.031178577 0.4992169
-0.35377586 -0.08519187 -0.07415986 -0.031029424 -0.39001942 -0.42314216 -0.5977732 0.022514235
0.17233811 0.25234962 -0.611063 -0.60568315 0.5837075 0.22548392 -0.22486973 0.13840017
-0.06580284 0.043198436 0.36965913 -0.37871987 -0.25700778 -0.103354275 -0.15913516 0.35272688
-0.26461825 -0.1879301 -0.28521878 -0.38234943 -0.015515545 0.589957 -0.037755318 0.29213795
0.04925156 -0.18152145 0.0025105728 -0.38773805 -0.34154522 -0.17164674 0.25102055 0.23280583
-0.67637473 0.0684989 0.18614824 0.3013799 0.2625716 0.15569657 0.04044261 -0.6240519
-0.070271954 -0.06830405 -0.5817643 -0.50970757 0.13013083 0.28949413 -0.40822774 0.12421704
0.27283543 -0.0028095802 -0.013812462 0.0035397373 0.18159539 0.360326 -0.38627774 -0.2212821
-0.04099625 0.45470682 -0.08883252 0.3188711 0.1168776 -0.31937534 0.0075557884 -0.2854023
-0.41046867 0.33272564 0.2804156 -0.43723908 0.20606327 -0.60831004 -0.40232047 0.7974872
-0.08981209 -0.4886138 0.025138345 0.0010369262 0.12932523 -0.14928098 -0.6422283 -0.50300056
0.122886814 0.24372548 -0.43518102 -0.2412948 0.48771298 0.37873825 -0.17800653 -0.102749884
-0.38889655 -0.007337898 -0.30743504 -0.31490508 0.003743228 0.20647585 -0.36169857 0.22649577
-0.15547895 0.46338803 0.02009611 -0.66788554 -0.36010095 -0.12702528 -0.1578183 -0.120556176
0.038561285 -0.16059886 -0.2854313 0.030349534 -0.5755524 -0.42591244 -0.10219672 -0.19886321
-0.14281887 -0.33460915 -0.0868406 0.0872657 -0.27596217 -0.12852713 0.20404324 -0.13017209
-0.07685547 -0.12342111 -0.040982097 0.37708926 0.23313689 0.2317428 0.49064535 0.0735234
-0.36673823 -0.19354123 0.27797842 -0.002646476 -0.20291834 -0.31284547 -0.38206002 -0.3445649
-0.08280775 0.22388583 0.22071582 -0.3937277 0.04218769 -0.5930396 -0.31648415 -0.5142742
-0.3156934 -0.31721517 -0.3663416 -0.35249704 -0.06388247 0.005279541 -0.18545696 0.15378684
-0.28804433 0.08656328 0.5865374 -0.69358844 0.1196498 -0.1011519 -0.20556518 0.52535266
-0.13237411 -0.079163246 0.4691304 -0.18723005 0.0456938 0.20363602 -0.34200376 0.0012684388
0.18436512 0.13237596 -0.22503886 -0.16776407 -0.5263914 0.35800457 0.3856907 0.34091032
-0.2879695 0.018207818 -0.28778815 -0.22473423 -0.23788853 0.13951683 -0.24328054 -0.008906841
0.017174244 0.26316625 -0.30860308 -0.28026748 -0.04169895 0.44508505 -0.28901312 0.4268385
0.20718433 0.11125355 -0.021383094 0.2993304 -0.5026306 -0.24013567 0.113798 0.16875643
-0.3793475 -0.33214357 0.2308487 -0.42011037 -0.12812284 0.30504516 0.11355808 0.010319752
-0.17184669 -1.0204954 -0.14346644 0.031434443 -0.3944762 -0.42754167 -1.1263313 0.32546633
-0.05417476 0.26074117 0.064345345 -0.8940997 0.21770346 0.6633943 -0.31222945 -0.019128388
0.07970357 0.4234585 -0.2793682 -0.035205226 0.3067416 -0.29824805 0.1279522 -0.8108019
-0.04649173 0.5187528 -0.5363366 -0.26736435 0.043545265 -0.48981902 -0.45996395 -0.6214086

bias f4 [64]
00000000: 72a7 6b3e 9927 ea3e b005 643e 3c35 d83d
00000010: 1c50 12be 1097 483e 9fee 983d 211b d5bd
00000020: ecb2 04be 9a23 07bf 3be5 87be 4a47 4f3e
00000030: f8d7 a63e f598 9cbd b953 f7be 546f 9e3d
00000040: 0abd ba3e c099 f83c 0160 ccbd 019b 213e
00000050: 7232 8bbc cfad 9ebe 96e2 9a3e ce7c d33e
00000060: c25f 18be b001 6b3e 8323 f0be 1407 83bd
00000070: 03ea c73d 6c5e 233e f1dd 99be 1d78 99bd
00000080: 08f4 e2bd 6c4e a1bd 2dfd c93d 320b fd3e
00000090: 00c2 9dbd bd85 d6bd 9840 acbd 0c9f 673d
000000a0: 1920 993e 79c6 31bf 94af a8be f2b9 17bf
000000b0: 02b1 aebd 8c9e 163e 537d 0cbf 1b4e 723e
000000c0: d7d5 d93e 7c69 17bb b44f 8bbe 3626 90be
000000d0: 9d22 1fbd 957f e3be c382 753e c5b2 f4be
000000e0: e3fe c5be 5291 96be ae61 ed3c 78e8 653e
000000f0: dd2f 94be 4a84 91bd 2645 5cbd 082f 363e
0.23013094 0.45733336 0.22267795 0.10557029 -0.14288372 0.19588876 0.07467388 -0.10405565
-0.12958878 -0.527887 -0.26542076 0.20242038 0.32586646 -0.07646362 -0.48306063 0.07736078
0.3647235 0.030346751 -0.09979249 0.15781786 -0.016991828 -0.3099198 0.30250996 0.41306156
-0.14880279 0.22949862 -0.46902093 -0.063978344 0.09761431 0.15953988 -0.3005214 -0.07493613
-0.110817015 -0.07876286 0.098627426 0.49422604 -0.07703018 -0.10474727 -0.08410758 0.056548163
0.299073 -0.6944347 -0.32946455 -0.59268105 -0.08529855 0.14708918 -0.5487873 0.23662607
0.4254596 -0.0023103645 -0.27209246 -0.28154153 -0.03885137 -0.44433275 0.23975663 -0.4779264
-0.38671026 -0.29407746 0.028977241 0.22451961 -0.28942767 -0.0710531 -0.053776883 0.17791378

weight f4 [128, 64]
00000000: 3d69 843e 46d5 9dbc 8506 a73d c2b8 90bf
00000010: 8076 fe3d 9655 813d 3649 453e 22a7 5e3d
00000020: 694a c13d 21b9 cd3d ea0b c8bc baae 3ebd
00000030: ada7 82bd 5726 a1bd ffec 0c3e b843 86bd
00000040: bf0f e83d 2c6c 893d de13 443e 9c1d c2bd
00000050: 1b71 efbd e4f5 1dbd 83cc ad3d 43b3 333e
00000060: 1a35 933d b09f 66bc fc30 c33c f026 fbbd
00000070: a5be 02bd 8e45 6d3e 45f6 e3bc 5ac2 d83d
00000080: f8b7 b4bd 6499 7dbd d6e6 1d3d 879f 3b3e
00000090: 37a5 50bc 45af be3d 7a1f c93d e5ad 12bf
000000a0: 98b1 ca3d 6bd6 62bf b6b4 1abd 81a7 fcbe
000000b0: 5006 083e dc59 b3bd bae2 023e 70dc 2f3e
000000c0: 898f 7abe 3d70 9ebd 6a83 e23d a828 c13d
000000d0: f2b7 1dbe 70d1 af3d 87e7 0c3e 4e06 8abf
000000e0: f385 053e 8bfe 863c 0c76 20bd 4091 283d
000000f0: bf12 8f3c 823c 0dbf 5200 2a3e f14a e13d
00000100: 2c63 d53e c1cd 333e 8c42 9a3d 4b55 d1bf
00000110: 1026 7abd 300a 353c c8ec 9b3e 8884 32bd
00000120: 1119 23be 750d 0f3c 2374 da3d e227 cfbd
00000130: 723e 043e 0662 bfbd 1a7e 2f3e 5880 89ba
00000140: a496 893d cc0f 78bd 1e34 8d3e 91fd 273e
00000150: f877 cabd 1088 cfbd 399f 84bd 15f7 033d
00000160: c482 02bd 4e90 a7bd 70bd adbd 1877 c13c
00000170: 33ea de3e 74bf c03e a207 8c3b 4d95 533d
00000180: c8ae 8c3c 847f d23d 5ebd 0c3e 86d7 293e
00000190: ae5b 87bd 163e d33e bf54 0bbe 8e0f c3be
000001a0: 9c0b 353e ef9a a0be 3120 5b3c 8d1e 0cbf
000001b0: f39b 023d 48b5 e4bc 0ea5 e23d 1c06 4c3e
000001c0: f060 00be c625 abbd 7c8a 2ebd 11ba 2f3d
000001d0: 4cfa 8cbd 666e c83d e600 3d3c c913 a6be
000001e0: a207 b63d b6b4 bb3d 8e12 12bd 1c34 7f3d
000001f0: 8e44 35be f79f 48bd ce2a 5e3e 0ab7 423e
00000200: 1ed5 ec3e 0d8c 173e a87e 02bb 3853 6fbf
00000210: 00c2 11bd 5af9 d3bd 7c10 663e 80ea e0bd
00000220: 71c7 013e d940 20bd 176b 4c3d 1305 173d
00000230: b2f7 a43e 7150 893d 0087 753e 4a6e e6bd
00000240: 73a9 e3bd 4806 ef3d 84be 5d3e f122 dfbd
00000250: f431 e2bd 5e0f ed3d b17e 033e 75a6 203e
00000260: 30f5 d7bd 8830 41bd 0707 d9bd 566c f23d
00000270: 97b1 f23e c9ab 3f3e 2512 6a3d 7e83 893c
00000280: dc2b 7cbd 4024 33bc aea8 3a3e 4d3f 97bb
00000290: 7576 ac3d 9d9c 903e 45cc eb3c 7b31 a1be
000002a0: 4b51 963d dd31 6cbd 0adc b03d b0ac 22be
000002b0: 4aaa 8fbd 062d f23d 68df 153d 3592 c9bd
000002c0: 0a80 34be d54a c2bd e272 e03d b278 26bd
000002d0: a2e5 41be 9e32 0dbe d21e 8a3d 70b6 91bf
000002e0: bd58 283d faa3 293c 501c 8bbd aab5 25bd
000002f0: f753 d33b a569 2cbe e2f1 013e b818 8e3d
00000300: da4b 923e 99b9 8d3e 02d7 aa3d ca78 9abf
00000310: 40fa a5bd f0d1 f43d 0f28 8e3d 5e7f 9f3d
00000320: 43a8 6e3a 9c5e a53d 242f 4f3e 7c8e 91bd
00000330: a85a 6d3e c420 d9bd ecf1 21bf 7b0f aa3d
00000340: f2ff 0f3e a8b6 eb3d 23cc 833d 651b 7abe
00000350: 0c11 38bb 2811 debc 32e7 e5bc a1c9 1fbd
00000360: 6086 593c a8be f03d 5c2f a9bc a6c4 c63d
00000370: 33d7 173f f7c8 033f ecbd 993c 2d87 453e
00000380: a8dc b3bc 78ee 253d 2ae3 173e 1a30 533e
00000390: 717b eabc c22b cc3e f0fc e33d 0a57 a6bf
000003a0: e89e 763e 8679 8bbf 204c 76be d5e1 42be
000003b0: 9283 123e 6605 af3d a201 3a3e 1bb4 363d
000003c0: 73ba 34bd 783a f23b 88ab 4d3d 38e8 083e
000003d0: 382f df3d d29c ecbe f129 fc3d b75f 50bf
000003e0: 37f5 3f3e a026 1a3c 1d9c 8dbc c3c5 053c
000003f0: b1e9 a63d 6127 f8be 2f34 e6bc f3a7 db3d
0.2586154 -0.019266736 0.081555404 -1.1306384 0.12424946 0.06315152 0.19266209 0.05435861
0.09438021 0.10045076 -0.024419744 -0.04655335 -0.06379638 -0.07868641 0.13762282 -0.06555885
0.11331128 0.06710085 0.19148204 -0.09478304 -0.11691495 -0.038564578 0.08486273 0.17548852
0.07187863 -0.014076158 0.023827069 -0.12263286 -0.031920094 0.23171064 -0.027827391 0.105839446
-0.08824152 -0.061913863 0.03855022 0.18322574 -0.012734703 0.09310774 0.09820457 -0.5729659
0.098971546 -0.88608426 -0.037769996 -0.49346545 0.13283658 -0.08757374 0.12781802 0.17173934
-0.24468817 -0.077362515 0.110602215 0.09431583 -0.15402201 0.08584869 0.13760196 -1.0783174
0.13039379 0.016478797 -0.03917508 0.041154146 0.017464994 -0.5517045 0.16601685 0.11000622
0.41677225 0.17558958 0.07532224 -1.6354154 -0.061071455 0.011049792 0.30454087 -0.043583423
-0.15927531 0.008731236 0.106666826 -0.10115029 0.12914446 -0.09344868 0.17137948 -0.001049052
0.067181855 -0.06056194 0.27578825 0.16405322 -0.098861635 -0.10133374 -0.06475682 0.032218058
-0.03186299 -0.08181821 -0.08483398 0.023616359 0.43538055 0.37646067 0.004273371 0.051656056
0.017173186 0.10278228 0.13744113 0.16586122 -0.066092834 0.41258305 -0.13606547 -0.38097805
0.1768021 -0.31368205 0.013374374 -0.54734117 0.031887006 -0.027918473 0.11066638 0.19924206
-0.12536979 -0.08356814 -0.042612538 0.042902056 -0.06883678 0.09786682 0.011535859 -0.3243697
0.088881746 0.09165327 -0.035662226 0.062305555 -0.17701933 -0.04898068 0.21696016 0.19015136
0.46256346 0.14799519 -0.0019911919 -0.93486357 -0.035585403 -0.103502944 0.22467226 -0.10982227
0.12673737 -0.039124344 0.049906816 0.036870074 0.32220227 0.06704796 0.2397728 -0.11251505
-0.11116304 0.1167112 0.21654707 -0.108953364 -0.11044684 0.11575197 0.12841298 0.15688498
-0.10544813 -0.047165424 -0.105970435 0.1183707 0.47401115 0.18717875 0.05714621 0.016786333
-0.061565265 -0.010933936 0.18228409 -0.0046157003 0.084210314 0.28244486 0.028783927 -0.31483063
0.07339724 -0.05766474 0.08635719 -0.15886188 -0.07014902 0.11824994 0.03659001 -0.0984234
-0.17626968 -0.09486929 0.10959412 -0.040642448 -0.18935254 -0.1378884 0.0674416 -1.13838
0.041100252 0.010354036 -0.067925096 -0.04045645 0.0064492184 -0.16837175 0.12689927 0.069383085
0.28573495 0.27680662 0.08341791 -1.2068112 -0.08104372 0.11954105 0.06941234 0.07787965
0.00091040524 0.08074686 0.20232826 -0.07107255 0.23179114 -0.10601953 -0.6325977 0.08303734
0.14062479 0.11509448 0.0643542 -0.24424513 -0.0028086333 -0.02710779 -0.028064344 -0.039010648
0.013276666 0.11755115 -0.020652466 0.097054765 0.5931274 0.51478523 0.01876732 0.19289847
-0.021955803 0.040510625 0.1483275 0.20623818 -0.028623315 0.39877135 0.111322284 -1.2995312
0.24084055 -1.0896461 -0.24052477 -0.1903146 0.14308003 0.085459515 0.18164685 0.044605356
-0.044123124 0.007392224 0.050212413 0.13369834 0.10897678 -0.46213394 0.12312687 -0.8139605
0.18745886 0.009408623 -0.017286355 0.008164826 0.08150042 -0.48467544 -0.028101055 0.10725393

bias f4 [128]
00000000: 5084 0a3e e354 543e d013 4c3e 9585 433d
00000010: 03a5 13be ce5d 0fbd 768a 47bd 9e25 95bd
00000020: 294f 003f b669 2c3f e8ad 193d 488e 71bd
00000030: 98cc 343d da39 473e be91 a5bb a026 323d
00000040: a210 efbd d0df b4bc 944d 6c3e 4ee9 ab3c
00000050: c6db d73d 1fb5 d73e 5b8c 6a3d eb65 843e
00000060: 63ef 06bc 5843 403e 81ad 98bd 7747 40bc
00000070: b311 133e 2e23 07be 531f 193f 66c4 08be
00000080: 2c9e c83d b489 99bd 66c3 ddbd e4dc 5f3c
00000090: 593c 9bbd 92dc b23c a0dc 9e3d c846 703e
000000a0: a9e0 12be 3468 373e 7249 ce3d ff6e 97bd
000000b0: 0a06 a93c 5cd5 f93e 6153 4e3e d0b3 a1bd
000000c0: 4015 5e3c aa9b a7bd 3f19 633d 3358 2fbc
000000d0: ad27 b43d 1d1a b23c 68f1 593d 705a c73a
000000e0: c25e 903d 7935 a3bd 72b0 ac3d 7985 523d
000000f0: a5b7 913c 417a 96bc 0733 0d3e 2bc4 4e3e
00000100: 14b2 753b 2d9e 253e 55e0 283e 2874 c0bd
00000110: 59f0 93bd c9c9 7ebd a62e d6bd fe62 82bc
00000120: 888c 19bd 3098 29be 95cf bd3d d249 97bb
00000130: 9978 033e 7643 2a3c 05d9 dabd d641 9c3d
00000140: e538 553d 13df cabc fc22 243d 9801 9bbc
00000150: 44d6 a03d b84d 1cbd a0d6 04be 9f74 04be
00000160: e4c5 a5bd d2b6 a43d f261 c2bd e562 c33c
00000170: b580 693d d10a f63e f742 4f3e 026a 8d3d
00000180: 9899 473d fc16 3b3e 88d9 523d 5dbe e3bc
00000190: acfe 48bd 614a be3d 4237 d53d 52e3 313e
000001a0: b877 233e 3f20 acbd 4356 a63d 9a36 a93d
000001b0: b4da 4cbe bd83 efbe cdae dcbc 8a5b 52bd
000001c0: db92 3b3e 12c6 aabd 4c0b 83ba 8e2c 833d
000001d0: d85c 9b3d 944f c2bd b43c 3dbd 047f 593d
000001e0: 4c5d d43c 5889 983d 4191 773d 874b 87bd
000001f0: b835 a3bc 5deb 023d 4317 a63d 3397 523c
0.13527036 0.20735507 0.19929433 0.047734816 -0.14418416 -0.03500157 -0.04871603 -0.072825655
0.5012079 0.673488 0.037519366 -0.05897358 0.04414043 0.19455662 -0.005052774 0.043493867
-0.11673094 -0.022079378 0.23076469 0.020985272 0.10539965 0.42130372 0.05726276 0.25859007
-0.008235785 0.1877569 -0.07454968 -0.011735789 0.1436222 -0.13197014 0.5981342 -0.1335617
0.09795794 -0.07496968 -0.10828285 0.013663504 -0.0757987 0.021833692 0.07756925 0.23464501
-0.14343514 0.17910844 0.10072602 -0.07394218 0.020632762 0.48795593 0.20148994 -0.07895625
0.013554871 -0.081839874 0.055444 -0.010702181 0.0879663 0.021740967 0.05320874 0.0015209448
0.070493236 -0.079691835 0.08432092 0.05139682 0.017787764 -0.018368842 0.13788997 0.2019202
0.0037490176 0.1617362 0.16491826 -0.09397155 -0.07223577 -0.062204156 -0.10458116 -0.015916344
-0.037487537 -0.16561961 0.09268109 -0.0046169544 0.12838973 0.0103920605 -0.106859244 0.07629745
0.052056212 -0.024764573 0.040072426 -0.018921658 0.07853368 -0.038160056 -0.12972498 -0.12935112
-0.08094385 0.08042683 -0.09491338 0.023850868 0.05700751 0.48055127 0.20240389 0.06904985
0.048730463 0.18270487 0.051476985 -0.027800733 -0.049071 0.092915304 0.1041093 0.17371872
0.15963638 -0.08404588 0.08121922 0.082623675 -0.20005304 -0.46780196 -0.02693882 -0.05135683
0.1831774 -0.0833856 -0.0009997874 0.064049825 0.07586068 -0.094878346 -0.04620047 0.053099647
0.025923394 0.07448071 0.06044126 -0.066062026 -0.019923076 0.03196274 0.081099056 0.0128534315

weight f4 [4, 128]
00000000: 32f7 1b3e 177c efbd 6c8b 1c3e ed1f ee3c
00000010: d3ef c93d f855 c03e 7267 083e a6f4 37bd
00000020: fe2a c33e 5c05 2b3f 4687 4f3d a8c8 34bd
00000030: b0a5 913d 1971 653c ce79 41bd 8952 73bd
00000040: 8469 4dbd a2ee 993d ce04 07be 43a3 44bd
00000050: 60bd b6bc 7455 203f d11a 1abd a416 13be
00000060: a66b 293d cef1 99bd 6c66 cd3d 8acc 693d
00000070: 3793 58be bd49 6fbd 5403 04be 99b7 d73c
00000080: 631e 8e3d d336 efbc 389f f9ba 0225 593d
00000090: a4e2 683d 3542 93bd 8092 a5bb b696 043e
000000a0: 5d16 ec3c 030f ae3e c0ef 77bb 2f7b 0b3d
000000b0: fc19 683b fdea 863e e53b 773d 3848 e6bc
000000c0: c67a adbd e40a aa3c e207 203c c849 80bd
000000d0: 61bf 50be 92cd 983c 91ec 873d 0428 f83d
000000e0: c675 783d 6723 92bd e6ff 813d fe69 d43d
000000f0: 48ea c63c dc4e 99bd f25b c03e b085 29be
00000100: 26c7 d2bc 965c f9bb 9807 9f3e 3cb1 04bd
00000110: 3e32 9cbc 8bb0 06be 5e08 1ebd df2b 97bc
00000120: c6c6 9b3c 58a0 4a3f c771 293d cc57 e5bc
00000130: 69f3 b03d 696e a03e d0c8 663d 3a27 743d
00000140: a207 5cbd 2104 0bbd 2695 1b3d 79ce 513d
00000150: 28f0 653d badb eabc 79f3 24bd 2eb7 a7bd
00000160: 0542 603d 3da7 8fbd cbee cbbd b3b4 8f3d
00000170: c607 ec3d 3fe8 9c3e 002c 3e3e 81ef 9dbd
00000180: 7340 ab3c c083 383e 0218 37bc a272 44be
00000190: aa9b 10bd 0c13 2a3d 5a38 31be ad9f 093d
000001a0: 64ff fdbd 307b 58bd 409c e43c 171d ce3d
000001b0: 20bb cb3e 8074 a6be 7516 9c3a 3040 4cbc
000001c0: 3964 cdbd af42 983d cc74 05be 9ad1 8b3c
000001d0: 6953 2d3d bb7c 823d b649 333d c024 12bc
000001e0: f4da 09bd cafc 5bbd c871 8bbc eb73 a53d
000001f0: 9ff2 a63d 7a15 c73d a661 073e ea64 d73b
00000200: 032c 8bbe 7a2f 4c3e 9603 1dbe 8411 edbc
00000210: 8a65 33bc cbf7 99be 2128 de3d 90d7 9dba
00000220: 7960 fa3d d71b 183d 1dcb ae3d be42 233d
00000230: 611a 09be 2022 70be 42af 3bbd d1b4 e43d
00000240: 8860 3c3d 0070 1a3d c619 e93d c2c3 a4bb
00000250: 87af 5b3e 42e6 54bd 33d3 09be cbf8 a83e
00000260: 611f 4c3e d853 88bc 13fc 89bd faf8 dcbd
00000270: 03fa 023b 5be0 6dbd e5a4 563f ccf1 613d
00000280: 4cca 863c d8b4 c53c 84ed 313d c9d0 a9bd
00000290: d9ff 3dbd 1ece 91bd fe8d 66bd 1688 3bbe
000002a0: 7e82 1d3d e733 853e 9770 94bc 86ca bc3b
000002b0: c92a a93d 57e4 a53d 0329 65bd a04f 54bc
000002c0: 106d 39bc 1b2f 14bd 9014 4cbb 8eac 173d
000002d0: bf5b 9d3e 157f 24bd 66af 7f3d c4f2 00be
000002e0: b077 c13b b319 03bc 14f1 963c abf7 e73d
000002f0: da89 b93d beb4 6bbd 9bc1 9ebe 7891 b5be
00000300: 5ec4 19bc 02b7 9a3e 1383 d1bd 8b82 33bc
00000310: 4010 ba3c 704f d9bd aed5 b63d bc2b 213d
00000320: 6280 54bd 6ac8 1b3e 9d50 783d b33f c5bd
00000330: de50 13bd 4ece e53e b06f 89bd 4d0d b03d
00000340: 4acb 1ebc 0add 6f3e dc16 04be 65df 413d
00000350: bc03 983d 88a8 a9bd 20f1 763d 30b0 8cbd
00000360: 6caf 8fbd 92b0 69bd 8c7a 15bd 118b 033d
00000370: f43f 64bc c2b9 29bd 20f6 5fbe d7cd a6bd
00000380: 07d7 95be 181f 48be eae9 f3bd 7b6a 05be
00000390: 2121 5a3e d88c 94bd d145 853e e285 2c3e
000003a0: 4118 5a3e e8ff 2dbc 7832 a9bd 2295 0d3d
000003b0: 4d2c 0bbc 8e91 2dbf a481 69bd 80f5 773d
000003c0: 9fd1 a53e fc17 40bd c692 763e 62ba 11bc
000003d0: 12a6 173d 30b3 06ba 82e7 84bc 48c7 cd3c
000003e0: 2c92 003d 7823 663c a97b 8e3d 261e c1bc
000003f0: 7488 86bc 8140 9cbe df46 86bd 26f6 033d
0.15231016 -0.1169359 0.1528756 0.029067958 0.09860196 0.3756559 0.13320711 -0.04491105
0.38118738 0.6680505 0.050666116 -0.044136673 0.071116805 0.014004015 -0.047235303 -0.059404884
-0.050149456 0.07516219 -0.13185427 -0.04800726 -0.022307098 0.6263039 -0.03762323 -0.14364105
0.041362427 -0.07516824 0.10029301 0.05707983 -0.21149908 -0.05841993 -0.12891895 0.026332663
0.069393896 -0.029200947 -0.0019044643 0.05301381 0.056856766 -0.07190362 -0.0050528646 0.12948117
0.028819257 0.33995828 -0.003783211 0.034053024 0.0035415879 0.26351157 0.060359854 -0.028110608
-0.08470683 0.020757146 0.009767504 -0.06264073 -0.20385505 0.018652711 0.06636918 0.121170074
0.060659193 -0.07135659 0.06347637 0.10371779 0.024281636 -0.07485744 0.3757015 -0.16554904
-0.025729727 -0.007609914 0.3106048 -0.032395586 -0.019066926 -0.13153283 -0.0385822 -0.018453537
0.019015681 0.79150915 0.041368272 -0.027995966 0.08640177 0.31334236 0.056343853 0.059607722
-0.053718217 -0.033939485 0.037984036 0.0512223 0.056137234 -0.028669227 -0.040271256 -0.08189236
0.05475046 -0.0701432 -0.099576555 0.070168875 0.1152492 0.3064594 0.18571472 -0.07711697
0.020904755 0.18019009 -0.0111751575 -0.19184354 -0.035304703 0.04152207 -0.17306653 0.033599544
-0.124022275 -0.052851856 0.027906537 0.10064142 0.39791203 -0.32510757 0.0011908548 -0.012466475
-0.100288816 0.07434594 -0.13032836 0.01706772 0.042315874 0.06371447 0.043771468 -0.008919895
-0.033656076 -0.053707875 -0.017022029 0.0807875 0.08151745 0.09720893 0.13220844 0.006573309
-0.27182016 0.19939986 -0.15333399 -0.028939016 -0.010949502 -0.30071864 0.10847498 -0.0012042392
0.12225432 0.037135925 0.085348345 0.039858572 -0.13388969 -0.23450518 -0.045821436 0.111673005
0.045990497 0.037704468 0.11381869 -0.005028219 0.21453677 -0.051977403 -0.13459472 0.33002314
0.19933845 -0.016641542 -0.067375325 -0.10789676 0.0019985444 -0.05807529 0.8384536 0.055162236
0.016453885 0.024134085 0.043439403 -0.08291776 -0.046386573 -0.07119392 -0.056287758 -0.18313631
0.038454525 0.2601616 -0.018120093 0.0057614474 0.08260114 0.08100193 -0.055947315 -0.012958437
-0.011317506 -0.036177736 -0.0031140186 0.037029795 0.3073406 -0.040160257 0.062423132 -0.12592608
0.0059041604 -0.008001733 0.018425502 0.11326536 0.09059496 -0.057545416 -0.31007084 -0.35462546
-0.0093851965 0.3021775 -0.102300785 -0.010956417 0.022712827 -0.106108546 0.08927475 0.03934835
-0.051880248 0.1521317 0.060623754 -0.0963129 -0.035965793 0.4488396 -0.06710756 0.08596287
-0.009692023 0.23424163 -0.12899345 0.047332186 0.07422587 -0.08284098 0.06028855 -0.068695426
-0.07015881 -0.057053156 -0.036493823 0.032115046 -0.013931263 -0.041436918 -0.21871233 -0.081447296
-0.29265615 -0.19543111 -0.1190985 -0.130289 0.213017 -0.07253426 0.26029828 0.16847947
0.21298315 -0.010620095 -0.08261579 0.034566052 -0.008494449 -0.67800224 -0.0570084 0.06053686
0.3238649 -0.046897873 0.24079427 -0.008894535 0.03702361 -0.00051383954 -0.016223673 0.025119439
0.0313894 0.014046542 0.0695718 -0.023573946 -0.016422488 -0.30517963 -0.06556486 0.032217167

bias f4 [4]
00000000: bfb1 17be 46f2 4f3e 1f63 3a3e 0625 3c3e
-0.14813899 0.20307264 0.18201874 0.18373498

weight f4 [1, 128]
00000000: 5fdc 54bd 6676 74bd 4879 26be a4de 93bd
00000010: 9679 f3bd a6ef 6ebd f805 c7bc e06b 4cbc
00000020: d23a 84bd a378 d93c 0668 e5bc c8bb 323c
00000030: f524 d33c 8168 0cbd 3da6 4abc 1234 693d
00000040: bfcc 0dbd ae6f 64bc d3b1 823c d908 7f3d
00000050: 0b97 913d 94f5 bdbc ce18 80bd 4620 36bd
00000060: 2c90 34bd 92e2 04bc 0b37 7dbb 4276 c83d
00000070: 447f a0bd 6e98 c23d 0ecb 1cbe 34bb 743d
00000080: 04ee 073d a38b 60bd 352e 9ebd 785d 19bd
00000090: 1ce3 6d3c cbf4 bd3d 4105 3abd 37f7 27bd
000000a0: 1a54 153c cc9d 7bbd e914 8cbd 9a06 f6bc
000000b0: 25c8 943c c5bb ebbd 7fc4 54bd faac 543d
000000c0: 8a81 2c3d a4c0 1abd 961a 043d c41b 353d
000000d0: 2fc9 413d d82e 673b 6e8f 09bd b08e 813d
000000e0: 9155 a9bd 05fa 4b3d bce3 47bd f6b8 25bc
000000f0: 4e25 b33d 5983 90bd 80df 41bd 92e7 89bd
00000100: 396a 373d 5e2f 77be ba3c f7bc 581c 99bb
00000110: 4fee 873d c725 e73d 3c4e e6bb 4dce d03c
00000120: dbad cb3d dd2a 93bc 13c3 03bc aed5 a93d
00000130: 04c5 413c 90ed 3cbe 912e 9f3d e77f ab3d
00000140: 4644 3f3d 259c 5b3d 18a4 75bd 488c 53bd
00000150: 6d7b 4ebd 38a1 923c cdca 71bc fe6a b33d
00000160: d6e6 9d3c d738 323d d584 b13d b6a4 1fbb
00000170: baf2 32bd 0009 15be b3f2 febd 3c3f 94bc
00000180: 3453 1dbe 87e4 e4bd f04c 393d dbec c93b
00000190: 0958 b3bd f221 00bd 5bde a2bd 649c 69be
000001a0: 5c62 d7bb f009 113d b1af 813d f09f b5bc
000001b0: 12c7 6cbd 6e7c 3a3d e42e f13b 92cd 8f3c
000001c0: a898 b8bc ccb5 8dbc df75 0dbd 60f9 8c3d
000001d0: 803f 493b b371 9f3d 516f 023d 6724 953d
000001e0: 3fce 203c 406a c83a c50b 8dbc 6e20 433d
000001f0: beb2 9d3d 1960 913d 1476 c8bc 8032 8a3c
-0.051967975 -0.059683226 -0.16257203 -0.072202 -0.11888425 -0.058334015 -0.024294838 -0.012476891
-0.064565316 0.026546782 -0.028003704 0.010909028 0.025774458 -0.03427935 -0.012368736 0.056934424
-0.03461909 -0.013942642 0.015953934 0.062264297 0.07108887 -0.02318839 -0.06254731 -0.044464372
-0.044082806 -0.008110659 -0.0038637544 0.09788181 -0.07836774 0.0950173 -0.15311834 0.059748843
0.033185974 -0.054820668 -0.07723657 -0.037442654 0.014519479 0.09275206 -0.045415167 -0.041007247
0.00911429 -0.061429784 -0.06839926 -0.030032445 0.018161843 -0.115104236 -0.051945206 0.051922776
0.042115726 -0.037781373 0.032251917 0.044215932 0.047311004 0.0035275724 -0.03358405 0.063260436
-0.082682736 0.049798984 -0.04880117 -0.010114899 0.0874735 -0.070563026 -0.047332287 -0.06733622
0.044779036 -0.24139163 -0.030180324 -0.0046725683 0.06637251 0.11286502 -0.0070283692 0.025488997
0.0994527 -0.017964775 -0.008042115 0.08292709 0.011826757 -0.18449998 0.07772554 0.08374005
0.04669597 0.053615708 -0.059970945 -0.051647455 -0.050410677 0.01789914 -0.014757824 0.087606415
0.01927511 0.043511238 0.08667914 -0.002435965 -0.043688513 -0.14554214 -0.12448635 -0.018096559
-0.1536377 -0.11176401 0.04523939 0.0061622686 -0.08757026 -0.031282373 -0.07952567 -0.22813565
-0.0065730046 0.035409868 0.063323386 -0.02217099 -0.057807036 0.04552882 0.007360326 0.017554078
-0.02253373 -0.017298602 -0.03453624 0.06883502 0.0030708015 0.07785358 0.03184444 0.07282334
0.009814798 0.0015290454 -0.017217526 0.04763835 0.07700108 0.07098407 -0.024470367 0.016869783
